{"modelTopology":{"class_name":"Sequential","config":{"name":"sequential","layers":[{"class_name":"InputLayer","config":{"batch_input_shape":[null,224,224,3],"dtype":"float32","sparse":false,"ragged":false,"name":"inception_resnet_v2_input"}},{"class_name":"Model","config":{"name":"inception_resnet_v2","trainable":true,"layers":[{"class_name":"InputLayer","config":{"batch_input_shape":[null,224,224,3],"dtype":"float32","sparse":false,"ragged":false,"name":"input_1"},"name":"input_1","inbound_nodes":[]},{"class_name":"Conv2D","config":{"name":"conv2d","trainable":true,"dtype":"float32","filters":32,"kernel_size":[3,3],"strides":[2,2],"padding":"valid","data_format":"channels_last","dilation_rate":[1,1],"groups":1,"activation":"linear","use_bias":false,"kernel_initializer":{"class_name":"GlorotUniform","config":{"seed":null}},"bias_initializer":{"class_name":"Zeros","config":{}},"kernel_regularizer":null,"bias_regularizer":null,"activity_regularizer":null,"kernel_constraint":null,"bias_constraint":null},"name":"conv2d","inbound_nodes":[[["input_1",0,0,{}]]]},{"class_name":"BatchNormalization","config":{"name":"batch_normalization","trainable":true,"dtype":"float32","axis":3,"momentum":0.99,"epsilon":0.001,"center":true,"scale":false,"beta_initializer":{"class_name":"Zeros","config":{}},"gamma_initializer":{"class_name":"Ones","config":{}},"moving_mean_initializer":{"class_name":"Zeros","config":{}},"moving_variance_initializer":{"class_name":"Ones","config":{}},"beta_regularizer":null,"gamma_regularizer":null,"beta_constraint":null,"gamma_constraint":null},"name":"batch_normalization","inbound_nodes":[[["conv2d",0,0,{}]]]},{"class_name":"Activation","config":{"name":"activation","trainable":true,"dtype":"float32","activation":"relu"},"name":"activation","inbound_nodes":[[["batch_normalization",0,0,{}]]]},{"class_name":"Conv2D","config":{"name":"conv2d_1","trainable":true,"dtype":"float32","filters":32,"kernel_size":[3,3],"strides":[1,1],"padding":"valid","data_format":"channels_last","dilation_rate":[1,1],"groups":1,"activation":"linear","use_bias":false,"kernel_initializer":{"class_name":"GlorotUniform","config":{"seed":null}},"bias_initializer":{"class_name":"Zeros","config":{}},"kernel_regularizer":null,"bias_regularizer":null,"activity_regularizer":null,"kernel_constraint":null,"bias_constraint":null},"name":"conv2d_1","inbound_nodes":[[["activation",0,0,{}]]]},{"class_name":"BatchNormalization","config":{"name":"batch_normalization_1","trainable":true,"dtype":"float32","axis":3,"momentum":0.99,"epsilon":0.001,"center":true,"scale":false,"beta_initializer":{"class_name":"Zeros","config":{}},"gamma_initializer":{"class_name":"Ones","config":{}},"moving_mean_initializer":{"class_name":"Zeros","config":{}},"moving_variance_initializer":{"class_name":"Ones","config":{}},"beta_regularizer":null,"gamma_regularizer":null,"beta_constraint":null,"gamma_constraint":null},"name":"batch_normalization_1","inbound_nodes":[[["conv2d_1",0,0,{}]]]},{"class_name":"Activation","config":{"name":"activation_1","trainable":true,"dtype":"float32","activation":"relu"},"name":"activation_1","inbound_nodes":[[["batch_normalization_1",0,0,{}]]]},{"class_name":"Conv2D","config":{"name":"conv2d_2","trainable":true,"dtype":"float32","filters":64,"kernel_size":[3,3],"strides":[1,1],"padding":"same","data_format":"channels_last","dilation_rate":[1,1],"groups":1,"activation":"linear","use_bias":false,"kernel_initializer":{"class_name":"GlorotUniform","config":{"seed":null}},"bias_initializer":{"class_name":"Zeros","config":{}},"kernel_regularizer":null,"bias_regularizer":null,"activity_regularizer":null,"kernel_constraint":null,"bias_constraint":null},"name":"conv2d_2","inbound_nodes":[[["activation_1",0,0,{}]]]},{"class_name":"BatchNormalization","config":{"name":"batch_normalization_2","trainable":true,"dtype":"float32","axis":3,"momentum":0.99,"epsilon":0.001,"center":true,"scale":false,"beta_initializer":{"class_name":"Zeros","config":{}},"gamma_initializer":{"class_name":"Ones","config":{}},"moving_mean_initializer":{"class_name":"Zeros","config":{}},"moving_variance_initializer":{"class_name":"Ones","config":{}},"beta_regularizer":null,"gamma_regularizer":null,"beta_constraint":null,"gamma_constraint":null},"name":"batch_normalization_2","inbound_nodes":[[["conv2d_2",0,0,{}]]]},{"class_name":"Activation","config":{"name":"activation_2","trainable":true,"dtype":"float32","activation":"relu"},"name":"activation_2","inbound_nodes":[[["batch_normalization_2",0,0,{}]]]},{"class_name":"MaxPooling2D","config":{"name":"max_pooling2d","trainable":true,"dtype":"float32","pool_size":[3,3],"padding":"valid","strides":[2,2],"data_format":"channels_last"},"name":"max_pooling2d","inbound_nodes":[[["activation_2",0,0,{}]]]},{"class_name":"Conv2D","config":{"name":"conv2d_3","trainable":true,"dtype":"float32","filters":80,"kernel_size":[1,1],"strides":[1,1],"padding":"valid","data_format":"channels_last","dilation_rate":[1,1],"groups":1,"activation":"linear","use_bias":false,"kernel_initializer":{"class_name":"GlorotUniform","config":{"seed":null}},"bias_initializer":{"class_name":"Zeros","config":{}},"kernel_regularizer":null,"bias_regularizer":null,"activity_regularizer":null,"kernel_constraint":null,"bias_constraint":null},"name":"conv2d_3","inbound_nodes":[[["max_pooling2d",0,0,{}]]]},{"class_name":"BatchNormalization","config":{"name":"batch_normalization_3","trainable":true,"dtype":"float32","axis":3,"momentum":0.99,"epsilon":0.001,"center":true,"scale":false,"beta_initializer":{"class_name":"Zeros","config":{}},"gamma_initializer":{"class_name":"Ones","config":{}},"moving_mean_initializer":{"class_name":"Zeros","config":{}},"moving_variance_initializer":{"class_name":"Ones","config":{}},"beta_regularizer":null,"gamma_regularizer":null,"beta_constraint":null,"gamma_constraint":null},"name":"batch_normalization_3","inbound_nodes":[[["conv2d_3",0,0,{}]]]},{"class_name":"Activation","config":{"name":"activation_3","trainable":true,"dtype":"float32","activation":"relu"},"name":"activation_3","inbound_nodes":[[["batch_normalization_3",0,0,{}]]]},{"class_name":"Conv2D","config":{"name":"conv2d_4","trainable":true,"dtype":"float32","filters":192,"kernel_size":[3,3],"strides":[1,1],"padding":"valid","data_format":"channels_last","dilation_rate":[1,1],"groups":1,"activation":"linear","use_bias":false,"kernel_initializer":{"class_name":"GlorotUniform","config":{"seed":null}},"bias_initializer":{"class_name":"Zeros","config":{}},"kernel_regularizer":null,"bias_regularizer":null,"activity_regularizer":null,"kernel_constraint":null,"bias_constraint":null},"name":"conv2d_4","inbound_nodes":[[["activation_3",0,0,{}]]]},{"class_name":"BatchNormalization","config":{"name":"batch_normalization_4","trainable":true,"dtype":"float32","axis":3,"momentum":0.99,"epsilon":0.001,"center":true,"scale":false,"beta_initializer":{"class_name":"Zeros","config":{}},"gamma_initializer":{"class_name":"Ones","config":{}},"moving_mean_initializer":{"class_name":"Zeros","config":{}},"moving_variance_initializer":{"class_name":"Ones","config":{}},"beta_regularizer":null,"gamma_regularizer":null,"beta_constraint":null,"gamma_constraint":null},"name":"batch_normalization_4","inbound_nodes":[[["conv2d_4",0,0,{}]]]},{"class_name":"Activation","config":{"name":"activation_4","trainable":true,"dtype":"float32","activation":"relu"},"name":"activation_4","inbound_nodes":[[["batch_normalization_4",0,0,{}]]]},{"class_name":"MaxPooling2D","config":{"name":"max_pooling2d_1","trainable":true,"dtype":"float32","pool_size":[3,3],"padding":"valid","strides":[2,2],"data_format":"channels_last"},"name":"max_pooling2d_1","inbound_nodes":[[["activation_4",0,0,{}]]]},{"class_name":"Conv2D","config":{"name":"conv2d_8","trainable":true,"dtype":"float32","filters":64,"kernel_size":[1,1],"strides":[1,1],"padding":"same","data_format":"channels_last","dilation_rate":[1,1],"groups":1,"activation":"linear","use_bias":false,"kernel_initializer":{"class_name":"GlorotUniform","config":{"seed":null}},"bias_initializer":{"class_name":"Zeros","config":{}},"kernel_regularizer":null,"bias_regularizer":null,"activity_regularizer":null,"kernel_constraint":null,"bias_constraint":null},"name":"conv2d_8","inbound_nodes":[[["max_pooling2d_1",0,0,{}]]]},{"class_name":"BatchNormalization","config":{"name":"batch_normalization_8","trainable":true,"dtype":"float32","axis":3,"momentum":0.99,"epsilon":0.001,"center":true,"scale":false,"beta_initializer":{"class_name":"Zeros","config":{}},"gamma_initializer":{"class_name":"Ones","config":{}},"moving_mean_initializer":{"class_name":"Zeros","config":{}},"moving_variance_initializer":{"class_name":"Ones","config":{}},"beta_regularizer":null,"gamma_regularizer":null,"beta_constraint":null,"gamma_constraint":null},"name":"batch_normalization_8","inbound_nodes":[[["conv2d_8",0,0,{}]]]},{"class_name":"Activation","config":{"name":"activation_8","trainable":true,"dtype":"float32","activation":"relu"},"name":"activation_8","inbound_nodes":[[["batch_normalization_8",0,0,{}]]]},{"class_name":"Conv2D","config":{"name":"conv2d_6","trainable":true,"dtype":"float32","filters":48,"kernel_size":[1,1],"strides":[1,1],"padding":"same","data_format":"channels_last","dilation_rate":[1,1],"groups":1,"activation":"linear","use_bias":false,"kernel_initializer":{"class_name":"GlorotUniform","config":{"seed":null}},"bias_initializer":{"class_name":"Zeros","config":{}},"kernel_regularizer":null,"bias_regularizer":null,"activity_regularizer":null,"kernel_constraint":null,"bias_constraint":null},"name":"conv2d_6","inbound_nodes":[[["max_pooling2d_1",0,0,{}]]]},{"class_name":"Conv2D","config":{"name":"conv2d_9","trainable":true,"dtype":"float32","filters":96,"kernel_size":[3,3],"strides":[1,1],"padding":"same","data_format":"channels_last","dilation_rate":[1,1],"groups":1,"activation":"linear","use_bias":false,"kernel_initializer":{"class_name":"GlorotUniform","config":{"seed":null}},"bias_initializer":{"class_name":"Zeros","config":{}},"kernel_regularizer":null,"bias_regularizer":null,"activity_regularizer":null,"kernel_constraint":null,"bias_constraint":null},"name":"conv2d_9","inbound_nodes":[[["activation_8",0,0,{}]]]},{"class_name":"BatchNormalization","config":{"name":"batch_normalization_6","trainable":true,"dtype":"float32","axis":3,"momentum":0.99,"epsilon":0.001,"center":true,"scale":false,"beta_initializer":{"class_name":"Zeros","config":{}},"gamma_initializer":{"class_name":"Ones","config":{}},"moving_mean_initializer":{"class_name":"Zeros","config":{}},"moving_variance_initializer":{"class_name":"Ones","config":{}},"beta_regularizer":null,"gamma_regularizer":null,"beta_constraint":null,"gamma_constraint":null},"name":"batch_normalization_6","inbound_nodes":[[["conv2d_6",0,0,{}]]]},{"class_name":"BatchNormalization","config":{"name":"batch_normalization_9","trainable":true,"dtype":"float32","axis":3,"momentum":0.99,"epsilon":0.001,"center":true,"scale":false,"beta_initializer":{"class_name":"Zeros","config":{}},"gamma_initializer":{"class_name":"Ones","config":{}},"moving_mean_initializer":{"class_name":"Zeros","config":{}},"moving_variance_initializer":{"class_name":"Ones","config":{}},"beta_regularizer":null,"gamma_regularizer":null,"beta_constraint":null,"gamma_constraint":null},"name":"batch_normalization_9","inbound_nodes":[[["conv2d_9",0,0,{}]]]},{"class_name":"Activation","config":{"name":"activation_6","trainable":true,"dtype":"float32","activation":"relu"},"name":"activation_6","inbound_nodes":[[["batch_normalization_6",0,0,{}]]]},{"class_name":"Activation","config":{"name":"activation_9","trainable":true,"dtype":"float32","activation":"relu"},"name":"activation_9","inbound_nodes":[[["batch_normalization_9",0,0,{}]]]},{"class_name":"AveragePooling2D","config":{"name":"average_pooling2d","trainable":true,"dtype":"float32","pool_size":[3,3],"padding":"same","strides":[1,1],"data_format":"channels_last"},"name":"average_pooling2d","inbound_nodes":[[["max_pooling2d_1",0,0,{}]]]},{"class_name":"Conv2D","config":{"name":"conv2d_5","trainable":true,"dtype":"float32","filters":96,"kernel_size":[1,1],"strides":[1,1],"padding":"same","data_format":"channels_last","dilation_rate":[1,1],"groups":1,"activation":"linear","use_bias":false,"kernel_initializer":{"class_name":"GlorotUniform","config":{"seed":null}},"bias_initializer":{"class_name":"Zeros","config":{}},"kernel_regularizer":null,"bias_regularizer":null,"activity_regularizer":null,"kernel_constraint":null,"bias_constraint":null},"name":"conv2d_5","inbound_nodes":[[["max_pooling2d_1",0,0,{}]]]},{"class_name":"Conv2D","config":{"name":"conv2d_7","trainable":true,"dtype":"float32","filters":64,"kernel_size":[5,5],"strides":[1,1],"padding":"same","data_format":"channels_last","dilation_rate":[1,1],"groups":1,"activation":"linear","use_bias":false,"kernel_initializer":{"class_name":"GlorotUniform","config":{"seed":null}},"bias_initializer":{"class_name":"Zeros","config":{}},"kernel_regularizer":null,"bias_regularizer":null,"activity_regularizer":null,"kernel_constraint":null,"bias_constraint":null},"name":"conv2d_7","inbound_nodes":[[["activation_6",0,0,{}]]]},{"class_name":"Conv2D","config":{"name":"conv2d_10","trainable":true,"dtype":"float32","filters":96,"kernel_size":[3,3],"strides":[1,1],"padding":"same","data_format":"channels_last","dilation_rate":[1,1],"groups":1,"activation":"linear","use_bias":false,"kernel_initializer":{"class_name":"GlorotUniform","config":{"seed":null}},"bias_initializer":{"class_name":"Zeros","config":{}},"kernel_regularizer":null,"bias_regularizer":null,"activity_regularizer":null,"kernel_constraint":null,"bias_constraint":null},"name":"conv2d_10","inbound_nodes":[[["activation_9",0,0,{}]]]},{"class_name":"Conv2D","config":{"name":"conv2d_11","trainable":true,"dtype":"float32","filters":64,"kernel_size":[1,1],"strides":[1,1],"padding":"same","data_format":"channels_last","dilation_rate":[1,1],"groups":1,"activation":"linear","use_bias":false,"kernel_initializer":{"class_name":"GlorotUniform","config":{"seed":null}},"bias_initializer":{"class_name":"Zeros","config":{}},"kernel_regularizer":null,"bias_regularizer":null,"activity_regularizer":null,"kernel_constraint":null,"bias_constraint":null},"name":"conv2d_11","inbound_nodes":[[["average_pooling2d",0,0,{}]]]},{"class_name":"BatchNormalization","config":{"name":"batch_normalization_5","trainable":true,"dtype":"float32","axis":3,"momentum":0.99,"epsilon":0.001,"center":true,"scale":false,"beta_initializer":{"class_name":"Zeros","config":{}},"gamma_initializer":{"class_name":"Ones","config":{}},"moving_mean_initializer":{"class_name":"Zeros","config":{}},"moving_variance_initializer":{"class_name":"Ones","config":{}},"beta_regularizer":null,"gamma_regularizer":null,"beta_constraint":null,"gamma_constraint":null},"name":"batch_normalization_5","inbound_nodes":[[["conv2d_5",0,0,{}]]]},{"class_name":"BatchNormalization","config":{"name":"batch_normalization_7","trainable":true,"dtype":"float32","axis":3,"momentum":0.99,"epsilon":0.001,"center":true,"scale":false,"beta_initializer":{"class_name":"Zeros","config":{}},"gamma_initializer":{"class_name":"Ones","config":{}},"moving_mean_initializer":{"class_name":"Zeros","config":{}},"moving_variance_initializer":{"class_name":"Ones","config":{}},"beta_regularizer":null,"gamma_regularizer":null,"beta_constraint":null,"gamma_constraint":null},"name":"batch_normalization_7","inbound_nodes":[[["conv2d_7",0,0,{}]]]},{"class_name":"BatchNormalization","config":{"name":"batch_normalization_10","trainable":true,"dtype":"float32","axis":3,"momentum":0.99,"epsilon":0.001,"center":true,"scale":false,"beta_initializer":{"class_name":"Zeros","config":{}},"gamma_initializer":{"class_name":"Ones","config":{}},"moving_mean_initializer":{"class_name":"Zeros","config":{}},"moving_variance_initializer":{"class_name":"Ones","config":{}},"beta_regularizer":null,"gamma_regularizer":null,"beta_constraint":null,"gamma_constraint":null},"name":"batch_normalization_10","inbound_nodes":[[["conv2d_10",0,0,{}]]]},{"class_name":"BatchNormalization","config":{"name":"batch_normalization_11","trainable":true,"dtype":"float32","axis":3,"momentum":0.99,"epsilon":0.001,"center":true,"scale":false,"beta_initializer":{"class_name":"Zeros","config":{}},"gamma_initializer":{"class_name":"Ones","config":{}},"moving_mean_initializer":{"class_name":"Zeros","config":{}},"moving_variance_initializer":{"class_name":"Ones","config":{}},"beta_regularizer":null,"gamma_regularizer":null,"beta_constraint":null,"gamma_constraint":null},"name":"batch_normalization_11","inbound_nodes":[[["conv2d_11",0,0,{}]]]},{"class_name":"Activation","config":{"name":"activation_5","trainable":true,"dtype":"float32","activation":"relu"},"name":"activation_5","inbound_nodes":[[["batch_normalization_5",0,0,{}]]]},{"class_name":"Activation","config":{"name":"activation_7","trainable":true,"dtype":"float32","activation":"relu"},"name":"activation_7","inbound_nodes":[[["batch_normalization_7",0,0,{}]]]},{"class_name":"Activation","config":{"name":"activation_10","trainable":true,"dtype":"float32","activation":"relu"},"name":"activation_10","inbound_nodes":[[["batch_normalization_10",0,0,{}]]]},{"class_name":"Activation","config":{"name":"activation_11","trainable":true,"dtype":"float32","activation":"relu"},"name":"activation_11","inbound_nodes":[[["batch_normalization_11",0,0,{}]]]},{"class_name":"Concatenate","config":{"name":"mixed_5b","trainable":true,"dtype":"float32","axis":3},"name":"mixed_5b","inbound_nodes":[[["activation_5",0,0,{}],["activation_7",0,0,{}],["activation_10",0,0,{}],["activation_11",0,0,{}]]]},{"class_name":"Conv2D","config":{"name":"conv2d_15","trainable":true,"dtype":"float32","filters":32,"kernel_size":[1,1],"strides":[1,1],"padding":"same","data_format":"channels_last","dilation_rate":[1,1],"groups":1,"activation":"linear","use_bias":false,"kernel_initializer":{"class_name":"GlorotUniform","config":{"seed":null}},"bias_initializer":{"class_name":"Zeros","config":{}},"kernel_regularizer":null,"bias_regularizer":null,"activity_regularizer":null,"kernel_constraint":null,"bias_constraint":null},"name":"conv2d_15","inbound_nodes":[[["mixed_5b",0,0,{}]]]},{"class_name":"BatchNormalization","config":{"name":"batch_normalization_15","trainable":true,"dtype":"float32","axis":3,"momentum":0.99,"epsilon":0.001,"center":true,"scale":false,"beta_initializer":{"class_name":"Zeros","config":{}},"gamma_initializer":{"class_name":"Ones","config":{}},"moving_mean_initializer":{"class_name":"Zeros","config":{}},"moving_variance_initializer":{"class_name":"Ones","config":{}},"beta_regularizer":null,"gamma_regularizer":null,"beta_constraint":null,"gamma_constraint":null},"name":"batch_normalization_15","inbound_nodes":[[["conv2d_15",0,0,{}]]]},{"class_name":"Activation","config":{"name":"activation_15","trainable":true,"dtype":"float32","activation":"relu"},"name":"activation_15","inbound_nodes":[[["batch_normalization_15",0,0,{}]]]},{"class_name":"Conv2D","config":{"name":"conv2d_13","trainable":true,"dtype":"float32","filters":32,"kernel_size":[1,1],"strides":[1,1],"padding":"same","data_format":"channels_last","dilation_rate":[1,1],"groups":1,"activation":"linear","use_bias":false,"kernel_initializer":{"class_name":"GlorotUniform","config":{"seed":null}},"bias_initializer":{"class_name":"Zeros","config":{}},"kernel_regularizer":null,"bias_regularizer":null,"activity_regularizer":null,"kernel_constraint":null,"bias_constraint":null},"name":"conv2d_13","inbound_nodes":[[["mixed_5b",0,0,{}]]]},{"class_name":"Conv2D","config":{"name":"conv2d_16","trainable":true,"dtype":"float32","filters":48,"kernel_size":[3,3],"strides":[1,1],"padding":"same","data_format":"channels_last","dilation_rate":[1,1],"groups":1,"activation":"linear","use_bias":false,"kernel_initializer":{"class_name":"GlorotUniform","config":{"seed":null}},"bias_initializer":{"class_name":"Zeros","config":{}},"kernel_regularizer":null,"bias_regularizer":null,"activity_regularizer":null,"kernel_constraint":null,"bias_constraint":null},"name":"conv2d_16","inbound_nodes":[[["activation_15",0,0,{}]]]},{"class_name":"BatchNormalization","config":{"name":"batch_normalization_13","trainable":true,"dtype":"float32","axis":3,"momentum":0.99,"epsilon":0.001,"center":true,"scale":false,"beta_initializer":{"class_name":"Zeros","config":{}},"gamma_initializer":{"class_name":"Ones","config":{}},"moving_mean_initializer":{"class_name":"Zeros","config":{}},"moving_variance_initializer":{"class_name":"Ones","config":{}},"beta_regularizer":null,"gamma_regularizer":null,"beta_constraint":null,"gamma_constraint":null},"name":"batch_normalization_13","inbound_nodes":[[["conv2d_13",0,0,{}]]]},{"class_name":"BatchNormalization","config":{"name":"batch_normalization_16","trainable":true,"dtype":"float32","axis":3,"momentum":0.99,"epsilon":0.001,"center":true,"scale":false,"beta_initializer":{"class_name":"Zeros","config":{}},"gamma_initializer":{"class_name":"Ones","config":{}},"moving_mean_initializer":{"class_name":"Zeros","config":{}},"moving_variance_initializer":{"class_name":"Ones","config":{}},"beta_regularizer":null,"gamma_regularizer":null,"beta_constraint":null,"gamma_constraint":null},"name":"batch_normalization_16","inbound_nodes":[[["conv2d_16",0,0,{}]]]},{"class_name":"Activation","config":{"name":"activation_13","trainable":true,"dtype":"float32","activation":"relu"},"name":"activation_13","inbound_nodes":[[["batch_normalization_13",0,0,{}]]]},{"class_name":"Activation","config":{"name":"activation_16","trainable":true,"dtype":"float32","activation":"relu"},"name":"activation_16","inbound_nodes":[[["batch_normalization_16",0,0,{}]]]},{"class_name":"Conv2D","config":{"name":"conv2d_12","trainable":true,"dtype":"float32","filters":32,"kernel_size":[1,1],"strides":[1,1],"padding":"same","data_format":"channels_last","dilation_rate":[1,1],"groups":1,"activation":"linear","use_bias":false,"kernel_initializer":{"class_name":"GlorotUniform","config":{"seed":null}},"bias_initializer":{"class_name":"Zeros","config":{}},"kernel_regularizer":null,"bias_regularizer":null,"activity_regularizer":null,"kernel_constraint":null,"bias_constraint":null},"name":"conv2d_12","inbound_nodes":[[["mixed_5b",0,0,{}]]]},{"class_name":"Conv2D","config":{"name":"conv2d_14","trainable":true,"dtype":"float32","filters":32,"kernel_size":[3,3],"strides":[1,1],"padding":"same","data_format":"channels_last","dilation_rate":[1,1],"groups":1,"activation":"linear","use_bias":false,"kernel_initializer":{"class_name":"GlorotUniform","config":{"seed":null}},"bias_initializer":{"class_name":"Zeros","config":{}},"kernel_regularizer":null,"bias_regularizer":null,"activity_regularizer":null,"kernel_constraint":null,"bias_constraint":null},"name":"conv2d_14","inbound_nodes":[[["activation_13",0,0,{}]]]},{"class_name":"Conv2D","config":{"name":"conv2d_17","trainable":true,"dtype":"float32","filters":64,"kernel_size":[3,3],"strides":[1,1],"padding":"same","data_format":"channels_last","dilation_rate":[1,1],"groups":1,"activation":"linear","use_bias":false,"kernel_initializer":{"class_name":"GlorotUniform","config":{"seed":null}},"bias_initializer":{"class_name":"Zeros","config":{}},"kernel_regularizer":null,"bias_regularizer":null,"activity_regularizer":null,"kernel_constraint":null,"bias_constraint":null},"name":"conv2d_17","inbound_nodes":[[["activation_16",0,0,{}]]]},{"class_name":"BatchNormalization","config":{"name":"batch_normalization_12","trainable":true,"dtype":"float32","axis":3,"momentum":0.99,"epsilon":0.001,"center":true,"scale":false,"beta_initializer":{"class_name":"Zeros","config":{}},"gamma_initializer":{"class_name":"Ones","config":{}},"moving_mean_initializer":{"class_name":"Zeros","config":{}},"moving_variance_initializer":{"class_name":"Ones","config":{}},"beta_regularizer":null,"gamma_regularizer":null,"beta_constraint":null,"gamma_constraint":null},"name":"batch_normalization_12","inbound_nodes":[[["conv2d_12",0,0,{}]]]},{"class_name":"BatchNormalization","config":{"name":"batch_normalization_14","trainable":true,"dtype":"float32","axis":3,"momentum":0.99,"epsilon":0.001,"center":true,"scale":false,"beta_initializer":{"class_name":"Zeros","config":{}},"gamma_initializer":{"class_name":"Ones","config":{}},"moving_mean_initializer":{"class_name":"Zeros","config":{}},"moving_variance_initializer":{"class_name":"Ones","config":{}},"beta_regularizer":null,"gamma_regularizer":null,"beta_constraint":null,"gamma_constraint":null},"name":"batch_normalization_14","inbound_nodes":[[["conv2d_14",0,0,{}]]]},{"class_name":"BatchNormalization","config":{"name":"batch_normalization_17","trainable":true,"dtype":"float32","axis":3,"momentum":0.99,"epsilon":0.001,"center":true,"scale":false,"beta_initializer":{"class_name":"Zeros","config":{}},"gamma_initializer":{"class_name":"Ones","config":{}},"moving_mean_initializer":{"class_name":"Zeros","config":{}},"moving_variance_initializer":{"class_name":"Ones","config":{}},"beta_regularizer":null,"gamma_regularizer":null,"beta_constraint":null,"gamma_constraint":null},"name":"batch_normalization_17","inbound_nodes":[[["conv2d_17",0,0,{}]]]},{"class_name":"Activation","config":{"name":"activation_12","trainable":true,"dtype":"float32","activation":"relu"},"name":"activation_12","inbound_nodes":[[["batch_normalization_12",0,0,{}]]]},{"class_name":"Activation","config":{"name":"activation_14","trainable":true,"dtype":"float32","activation":"relu"},"name":"activation_14","inbound_nodes":[[["batch_normalization_14",0,0,{}]]]},{"class_name":"Activation","config":{"name":"activation_17","trainable":true,"dtype":"float32","activation":"relu"},"name":"activation_17","inbound_nodes":[[["batch_normalization_17",0,0,{}]]]},{"class_name":"Concatenate","config":{"name":"block35_1_mixed","trainable":true,"dtype":"float32","axis":3},"name":"block35_1_mixed","inbound_nodes":[[["activation_12",0,0,{}],["activation_14",0,0,{}],["activation_17",0,0,{}]]]},{"class_name":"Conv2D","config":{"name":"block35_1_conv","trainable":true,"dtype":"float32","filters":320,"kernel_size":[1,1],"strides":[1,1],"padding":"same","data_format":"channels_last","dilation_rate":[1,1],"groups":1,"activation":"linear","use_bias":true,"kernel_initializer":{"class_name":"GlorotUniform","config":{"seed":null}},"bias_initializer":{"class_name":"Zeros","config":{}},"kernel_regularizer":null,"bias_regularizer":null,"activity_regularizer":null,"kernel_constraint":null,"bias_constraint":null},"name":"block35_1_conv","inbound_nodes":[[["block35_1_mixed",0,0,{}]]]},{"class_name":"CustomScaleLayer","config":{"name":"custom_scale_layer","trainable":true,"dtype":"float32","scale":0.17},"name":"custom_scale_layer","inbound_nodes":[[["mixed_5b",0,0,{}],["block35_1_conv",0,0,{}]]]},{"class_name":"Activation","config":{"name":"block35_1_ac","trainable":true,"dtype":"float32","activation":"relu"},"name":"block35_1_ac","inbound_nodes":[[["custom_scale_layer",0,0,{}]]]},{"class_name":"Conv2D","config":{"name":"conv2d_21","trainable":true,"dtype":"float32","filters":32,"kernel_size":[1,1],"strides":[1,1],"padding":"same","data_format":"channels_last","dilation_rate":[1,1],"groups":1,"activation":"linear","use_bias":false,"kernel_initializer":{"class_name":"GlorotUniform","config":{"seed":null}},"bias_initializer":{"class_name":"Zeros","config":{}},"kernel_regularizer":null,"bias_regularizer":null,"activity_regularizer":null,"kernel_constraint":null,"bias_constraint":null},"name":"conv2d_21","inbound_nodes":[[["block35_1_ac",0,0,{}]]]},{"class_name":"BatchNormalization","config":{"name":"batch_normalization_21","trainable":true,"dtype":"float32","axis":3,"momentum":0.99,"epsilon":0.001,"center":true,"scale":false,"beta_initializer":{"class_name":"Zeros","config":{}},"gamma_initializer":{"class_name":"Ones","config":{}},"moving_mean_initializer":{"class_name":"Zeros","config":{}},"moving_variance_initializer":{"class_name":"Ones","config":{}},"beta_regularizer":null,"gamma_regularizer":null,"beta_constraint":null,"gamma_constraint":null},"name":"batch_normalization_21","inbound_nodes":[[["conv2d_21",0,0,{}]]]},{"class_name":"Activation","config":{"name":"activation_21","trainable":true,"dtype":"float32","activation":"relu"},"name":"activation_21","inbound_nodes":[[["batch_normalization_21",0,0,{}]]]},{"class_name":"Conv2D","config":{"name":"conv2d_19","trainable":true,"dtype":"float32","filters":32,"kernel_size":[1,1],"strides":[1,1],"padding":"same","data_format":"channels_last","dilation_rate":[1,1],"groups":1,"activation":"linear","use_bias":false,"kernel_initializer":{"class_name":"GlorotUniform","config":{"seed":null}},"bias_initializer":{"class_name":"Zeros","config":{}},"kernel_regularizer":null,"bias_regularizer":null,"activity_regularizer":null,"kernel_constraint":null,"bias_constraint":null},"name":"conv2d_19","inbound_nodes":[[["block35_1_ac",0,0,{}]]]},{"class_name":"Conv2D","config":{"name":"conv2d_22","trainable":true,"dtype":"float32","filters":48,"kernel_size":[3,3],"strides":[1,1],"padding":"same","data_format":"channels_last","dilation_rate":[1,1],"groups":1,"activation":"linear","use_bias":false,"kernel_initializer":{"class_name":"GlorotUniform","config":{"seed":null}},"bias_initializer":{"class_name":"Zeros","config":{}},"kernel_regularizer":null,"bias_regularizer":null,"activity_regularizer":null,"kernel_constraint":null,"bias_constraint":null},"name":"conv2d_22","inbound_nodes":[[["activation_21",0,0,{}]]]},{"class_name":"BatchNormalization","config":{"name":"batch_normalization_19","trainable":true,"dtype":"float32","axis":3,"momentum":0.99,"epsilon":0.001,"center":true,"scale":false,"beta_initializer":{"class_name":"Zeros","config":{}},"gamma_initializer":{"class_name":"Ones","config":{}},"moving_mean_initializer":{"class_name":"Zeros","config":{}},"moving_variance_initializer":{"class_name":"Ones","config":{}},"beta_regularizer":null,"gamma_regularizer":null,"beta_constraint":null,"gamma_constraint":null},"name":"batch_normalization_19","inbound_nodes":[[["conv2d_19",0,0,{}]]]},{"class_name":"BatchNormalization","config":{"name":"batch_normalization_22","trainable":true,"dtype":"float32","axis":3,"momentum":0.99,"epsilon":0.001,"center":true,"scale":false,"beta_initializer":{"class_name":"Zeros","config":{}},"gamma_initializer":{"class_name":"Ones","config":{}},"moving_mean_initializer":{"class_name":"Zeros","config":{}},"moving_variance_initializer":{"class_name":"Ones","config":{}},"beta_regularizer":null,"gamma_regularizer":null,"beta_constraint":null,"gamma_constraint":null},"name":"batch_normalization_22","inbound_nodes":[[["conv2d_22",0,0,{}]]]},{"class_name":"Activation","config":{"name":"activation_19","trainable":true,"dtype":"float32","activation":"relu"},"name":"activation_19","inbound_nodes":[[["batch_normalization_19",0,0,{}]]]},{"class_name":"Activation","config":{"name":"activation_22","trainable":true,"dtype":"float32","activation":"relu"},"name":"activation_22","inbound_nodes":[[["batch_normalization_22",0,0,{}]]]},{"class_name":"Conv2D","config":{"name":"conv2d_18","trainable":true,"dtype":"float32","filters":32,"kernel_size":[1,1],"strides":[1,1],"padding":"same","data_format":"channels_last","dilation_rate":[1,1],"groups":1,"activation":"linear","use_bias":false,"kernel_initializer":{"class_name":"GlorotUniform","config":{"seed":null}},"bias_initializer":{"class_name":"Zeros","config":{}},"kernel_regularizer":null,"bias_regularizer":null,"activity_regularizer":null,"kernel_constraint":null,"bias_constraint":null},"name":"conv2d_18","inbound_nodes":[[["block35_1_ac",0,0,{}]]]},{"class_name":"Conv2D","config":{"name":"conv2d_20","trainable":true,"dtype":"float32","filters":32,"kernel_size":[3,3],"strides":[1,1],"padding":"same","data_format":"channels_last","dilation_rate":[1,1],"groups":1,"activation":"linear","use_bias":false,"kernel_initializer":{"class_name":"GlorotUniform","config":{"seed":null}},"bias_initializer":{"class_name":"Zeros","config":{}},"kernel_regularizer":null,"bias_regularizer":null,"activity_regularizer":null,"kernel_constraint":null,"bias_constraint":null},"name":"conv2d_20","inbound_nodes":[[["activation_19",0,0,{}]]]},{"class_name":"Conv2D","config":{"name":"conv2d_23","trainable":true,"dtype":"float32","filters":64,"kernel_size":[3,3],"strides":[1,1],"padding":"same","data_format":"channels_last","dilation_rate":[1,1],"groups":1,"activation":"linear","use_bias":false,"kernel_initializer":{"class_name":"GlorotUniform","config":{"seed":null}},"bias_initializer":{"class_name":"Zeros","config":{}},"kernel_regularizer":null,"bias_regularizer":null,"activity_regularizer":null,"kernel_constraint":null,"bias_constraint":null},"name":"conv2d_23","inbound_nodes":[[["activation_22",0,0,{}]]]},{"class_name":"BatchNormalization","config":{"name":"batch_normalization_18","trainable":true,"dtype":"float32","axis":3,"momentum":0.99,"epsilon":0.001,"center":true,"scale":false,"beta_initializer":{"class_name":"Zeros","config":{}},"gamma_initializer":{"class_name":"Ones","config":{}},"moving_mean_initializer":{"class_name":"Zeros","config":{}},"moving_variance_initializer":{"class_name":"Ones","config":{}},"beta_regularizer":null,"gamma_regularizer":null,"beta_constraint":null,"gamma_constraint":null},"name":"batch_normalization_18","inbound_nodes":[[["conv2d_18",0,0,{}]]]},{"class_name":"BatchNormalization","config":{"name":"batch_normalization_20","trainable":true,"dtype":"float32","axis":3,"momentum":0.99,"epsilon":0.001,"center":true,"scale":false,"beta_initializer":{"class_name":"Zeros","config":{}},"gamma_initializer":{"class_name":"Ones","config":{}},"moving_mean_initializer":{"class_name":"Zeros","config":{}},"moving_variance_initializer":{"class_name":"Ones","config":{}},"beta_regularizer":null,"gamma_regularizer":null,"beta_constraint":null,"gamma_constraint":null},"name":"batch_normalization_20","inbound_nodes":[[["conv2d_20",0,0,{}]]]},{"class_name":"BatchNormalization","config":{"name":"batch_normalization_23","trainable":true,"dtype":"float32","axis":3,"momentum":0.99,"epsilon":0.001,"center":true,"scale":false,"beta_initializer":{"class_name":"Zeros","config":{}},"gamma_initializer":{"class_name":"Ones","config":{}},"moving_mean_initializer":{"class_name":"Zeros","config":{}},"moving_variance_initializer":{"class_name":"Ones","config":{}},"beta_regularizer":null,"gamma_regularizer":null,"beta_constraint":null,"gamma_constraint":null},"name":"batch_normalization_23","inbound_nodes":[[["conv2d_23",0,0,{}]]]},{"class_name":"Activation","config":{"name":"activation_18","trainable":true,"dtype":"float32","activation":"relu"},"name":"activation_18","inbound_nodes":[[["batch_normalization_18",0,0,{}]]]},{"class_name":"Activation","config":{"name":"activation_20","trainable":true,"dtype":"float32","activation":"relu"},"name":"activation_20","inbound_nodes":[[["batch_normalization_20",0,0,{}]]]},{"class_name":"Activation","config":{"name":"activation_23","trainable":true,"dtype":"float32","activation":"relu"},"name":"activation_23","inbound_nodes":[[["batch_normalization_23",0,0,{}]]]},{"class_name":"Concatenate","config":{"name":"block35_2_mixed","trainable":true,"dtype":"float32","axis":3},"name":"block35_2_mixed","inbound_nodes":[[["activation_18",0,0,{}],["activation_20",0,0,{}],["activation_23",0,0,{}]]]},{"class_name":"Conv2D","config":{"name":"block35_2_conv","trainable":true,"dtype":"float32","filters":320,"kernel_size":[1,1],"strides":[1,1],"padding":"same","data_format":"channels_last","dilation_rate":[1,1],"groups":1,"activation":"linear","use_bias":true,"kernel_initializer":{"class_name":"GlorotUniform","config":{"seed":null}},"bias_initializer":{"class_name":"Zeros","config":{}},"kernel_regularizer":null,"bias_regularizer":null,"activity_regularizer":null,"kernel_constraint":null,"bias_constraint":null},"name":"block35_2_conv","inbound_nodes":[[["block35_2_mixed",0,0,{}]]]},{"class_name":"CustomScaleLayer","config":{"name":"custom_scale_layer_1","trainable":true,"dtype":"float32","scale":0.17},"name":"custom_scale_layer_1","inbound_nodes":[[["block35_1_ac",0,0,{}],["block35_2_conv",0,0,{}]]]},{"class_name":"Activation","config":{"name":"block35_2_ac","trainable":true,"dtype":"float32","activation":"relu"},"name":"block35_2_ac","inbound_nodes":[[["custom_scale_layer_1",0,0,{}]]]},{"class_name":"Conv2D","config":{"name":"conv2d_27","trainable":true,"dtype":"float32","filters":32,"kernel_size":[1,1],"strides":[1,1],"padding":"same","data_format":"channels_last","dilation_rate":[1,1],"groups":1,"activation":"linear","use_bias":false,"kernel_initializer":{"class_name":"GlorotUniform","config":{"seed":null}},"bias_initializer":{"class_name":"Zeros","config":{}},"kernel_regularizer":null,"bias_regularizer":null,"activity_regularizer":null,"kernel_constraint":null,"bias_constraint":null},"name":"conv2d_27","inbound_nodes":[[["block35_2_ac",0,0,{}]]]},{"class_name":"BatchNormalization","config":{"name":"batch_normalization_27","trainable":true,"dtype":"float32","axis":3,"momentum":0.99,"epsilon":0.001,"center":true,"scale":false,"beta_initializer":{"class_name":"Zeros","config":{}},"gamma_initializer":{"class_name":"Ones","config":{}},"moving_mean_initializer":{"class_name":"Zeros","config":{}},"moving_variance_initializer":{"class_name":"Ones","config":{}},"beta_regularizer":null,"gamma_regularizer":null,"beta_constraint":null,"gamma_constraint":null},"name":"batch_normalization_27","inbound_nodes":[[["conv2d_27",0,0,{}]]]},{"class_name":"Activation","config":{"name":"activation_27","trainable":true,"dtype":"float32","activation":"relu"},"name":"activation_27","inbound_nodes":[[["batch_normalization_27",0,0,{}]]]},{"class_name":"Conv2D","config":{"name":"conv2d_25","trainable":true,"dtype":"float32","filters":32,"kernel_size":[1,1],"strides":[1,1],"padding":"same","data_format":"channels_last","dilation_rate":[1,1],"groups":1,"activation":"linear","use_bias":false,"kernel_initializer":{"class_name":"GlorotUniform","config":{"seed":null}},"bias_initializer":{"class_name":"Zeros","config":{}},"kernel_regularizer":null,"bias_regularizer":null,"activity_regularizer":null,"kernel_constraint":null,"bias_constraint":null},"name":"conv2d_25","inbound_nodes":[[["block35_2_ac",0,0,{}]]]},{"class_name":"Conv2D","config":{"name":"conv2d_28","trainable":true,"dtype":"float32","filters":48,"kernel_size":[3,3],"strides":[1,1],"padding":"same","data_format":"channels_last","dilation_rate":[1,1],"groups":1,"activation":"linear","use_bias":false,"kernel_initializer":{"class_name":"GlorotUniform","config":{"seed":null}},"bias_initializer":{"class_name":"Zeros","config":{}},"kernel_regularizer":null,"bias_regularizer":null,"activity_regularizer":null,"kernel_constraint":null,"bias_constraint":null},"name":"conv2d_28","inbound_nodes":[[["activation_27",0,0,{}]]]},{"class_name":"BatchNormalization","config":{"name":"batch_normalization_25","trainable":true,"dtype":"float32","axis":3,"momentum":0.99,"epsilon":0.001,"center":true,"scale":false,"beta_initializer":{"class_name":"Zeros","config":{}},"gamma_initializer":{"class_name":"Ones","config":{}},"moving_mean_initializer":{"class_name":"Zeros","config":{}},"moving_variance_initializer":{"class_name":"Ones","config":{}},"beta_regularizer":null,"gamma_regularizer":null,"beta_constraint":null,"gamma_constraint":null},"name":"batch_normalization_25","inbound_nodes":[[["conv2d_25",0,0,{}]]]},{"class_name":"BatchNormalization","config":{"name":"batch_normalization_28","trainable":true,"dtype":"float32","axis":3,"momentum":0.99,"epsilon":0.001,"center":true,"scale":false,"beta_initializer":{"class_name":"Zeros","config":{}},"gamma_initializer":{"class_name":"Ones","config":{}},"moving_mean_initializer":{"class_name":"Zeros","config":{}},"moving_variance_initializer":{"class_name":"Ones","config":{}},"beta_regularizer":null,"gamma_regularizer":null,"beta_constraint":null,"gamma_constraint":null},"name":"batch_normalization_28","inbound_nodes":[[["conv2d_28",0,0,{}]]]},{"class_name":"Activation","config":{"name":"activation_25","trainable":true,"dtype":"float32","activation":"relu"},"name":"activation_25","inbound_nodes":[[["batch_normalization_25",0,0,{}]]]},{"class_name":"Activation","config":{"name":"activation_28","trainable":true,"dtype":"float32","activation":"relu"},"name":"activation_28","inbound_nodes":[[["batch_normalization_28",0,0,{}]]]},{"class_name":"Conv2D","config":{"name":"conv2d_24","trainable":true,"dtype":"float32","filters":32,"kernel_size":[1,1],"strides":[1,1],"padding":"same","data_format":"channels_last","dilation_rate":[1,1],"groups":1,"activation":"linear","use_bias":false,"kernel_initializer":{"class_name":"GlorotUniform","config":{"seed":null}},"bias_initializer":{"class_name":"Zeros","config":{}},"kernel_regularizer":null,"bias_regularizer":null,"activity_regularizer":null,"kernel_constraint":null,"bias_constraint":null},"name":"conv2d_24","inbound_nodes":[[["block35_2_ac",0,0,{}]]]},{"class_name":"Conv2D","config":{"name":"conv2d_26","trainable":true,"dtype":"float32","filters":32,"kernel_size":[3,3],"strides":[1,1],"padding":"same","data_format":"channels_last","dilation_rate":[1,1],"groups":1,"activation":"linear","use_bias":false,"kernel_initializer":{"class_name":"GlorotUniform","config":{"seed":null}},"bias_initializer":{"class_name":"Zeros","config":{}},"kernel_regularizer":null,"bias_regularizer":null,"activity_regularizer":null,"kernel_constraint":null,"bias_constraint":null},"name":"conv2d_26","inbound_nodes":[[["activation_25",0,0,{}]]]},{"class_name":"Conv2D","config":{"name":"conv2d_29","trainable":true,"dtype":"float32","filters":64,"kernel_size":[3,3],"strides":[1,1],"padding":"same","data_format":"channels_last","dilation_rate":[1,1],"groups":1,"activation":"linear","use_bias":false,"kernel_initializer":{"class_name":"GlorotUniform","config":{"seed":null}},"bias_initializer":{"class_name":"Zeros","config":{}},"kernel_regularizer":null,"bias_regularizer":null,"activity_regularizer":null,"kernel_constraint":null,"bias_constraint":null},"name":"conv2d_29","inbound_nodes":[[["activation_28",0,0,{}]]]},{"class_name":"BatchNormalization","config":{"name":"batch_normalization_24","trainable":true,"dtype":"float32","axis":3,"momentum":0.99,"epsilon":0.001,"center":true,"scale":false,"beta_initializer":{"class_name":"Zeros","config":{}},"gamma_initializer":{"class_name":"Ones","config":{}},"moving_mean_initializer":{"class_name":"Zeros","config":{}},"moving_variance_initializer":{"class_name":"Ones","config":{}},"beta_regularizer":null,"gamma_regularizer":null,"beta_constraint":null,"gamma_constraint":null},"name":"batch_normalization_24","inbound_nodes":[[["conv2d_24",0,0,{}]]]},{"class_name":"BatchNormalization","config":{"name":"batch_normalization_26","trainable":true,"dtype":"float32","axis":3,"momentum":0.99,"epsilon":0.001,"center":true,"scale":false,"beta_initializer":{"class_name":"Zeros","config":{}},"gamma_initializer":{"class_name":"Ones","config":{}},"moving_mean_initializer":{"class_name":"Zeros","config":{}},"moving_variance_initializer":{"class_name":"Ones","config":{}},"beta_regularizer":null,"gamma_regularizer":null,"beta_constraint":null,"gamma_constraint":null},"name":"batch_normalization_26","inbound_nodes":[[["conv2d_26",0,0,{}]]]},{"class_name":"BatchNormalization","config":{"name":"batch_normalization_29","trainable":true,"dtype":"float32","axis":3,"momentum":0.99,"epsilon":0.001,"center":true,"scale":false,"beta_initializer":{"class_name":"Zeros","config":{}},"gamma_initializer":{"class_name":"Ones","config":{}},"moving_mean_initializer":{"class_name":"Zeros","config":{}},"moving_variance_initializer":{"class_name":"Ones","config":{}},"beta_regularizer":null,"gamma_regularizer":null,"beta_constraint":null,"gamma_constraint":null},"name":"batch_normalization_29","inbound_nodes":[[["conv2d_29",0,0,{}]]]},{"class_name":"Activation","config":{"name":"activation_24","trainable":true,"dtype":"float32","activation":"relu"},"name":"activation_24","inbound_nodes":[[["batch_normalization_24",0,0,{}]]]},{"class_name":"Activation","config":{"name":"activation_26","trainable":true,"dtype":"float32","activation":"relu"},"name":"activation_26","inbound_nodes":[[["batch_normalization_26",0,0,{}]]]},{"class_name":"Activation","config":{"name":"activation_29","trainable":true,"dtype":"float32","activation":"relu"},"name":"activation_29","inbound_nodes":[[["batch_normalization_29",0,0,{}]]]},{"class_name":"Concatenate","config":{"name":"block35_3_mixed","trainable":true,"dtype":"float32","axis":3},"name":"block35_3_mixed","inbound_nodes":[[["activation_24",0,0,{}],["activation_26",0,0,{}],["activation_29",0,0,{}]]]},{"class_name":"Conv2D","config":{"name":"block35_3_conv","trainable":true,"dtype":"float32","filters":320,"kernel_size":[1,1],"strides":[1,1],"padding":"same","data_format":"channels_last","dilation_rate":[1,1],"groups":1,"activation":"linear","use_bias":true,"kernel_initializer":{"class_name":"GlorotUniform","config":{"seed":null}},"bias_initializer":{"class_name":"Zeros","config":{}},"kernel_regularizer":null,"bias_regularizer":null,"activity_regularizer":null,"kernel_constraint":null,"bias_constraint":null},"name":"block35_3_conv","inbound_nodes":[[["block35_3_mixed",0,0,{}]]]},{"class_name":"CustomScaleLayer","config":{"name":"custom_scale_layer_2","trainable":true,"dtype":"float32","scale":0.17},"name":"custom_scale_layer_2","inbound_nodes":[[["block35_2_ac",0,0,{}],["block35_3_conv",0,0,{}]]]},{"class_name":"Activation","config":{"name":"block35_3_ac","trainable":true,"dtype":"float32","activation":"relu"},"name":"block35_3_ac","inbound_nodes":[[["custom_scale_layer_2",0,0,{}]]]},{"class_name":"Conv2D","config":{"name":"conv2d_33","trainable":true,"dtype":"float32","filters":32,"kernel_size":[1,1],"strides":[1,1],"padding":"same","data_format":"channels_last","dilation_rate":[1,1],"groups":1,"activation":"linear","use_bias":false,"kernel_initializer":{"class_name":"GlorotUniform","config":{"seed":null}},"bias_initializer":{"class_name":"Zeros","config":{}},"kernel_regularizer":null,"bias_regularizer":null,"activity_regularizer":null,"kernel_constraint":null,"bias_constraint":null},"name":"conv2d_33","inbound_nodes":[[["block35_3_ac",0,0,{}]]]},{"class_name":"BatchNormalization","config":{"name":"batch_normalization_33","trainable":true,"dtype":"float32","axis":3,"momentum":0.99,"epsilon":0.001,"center":true,"scale":false,"beta_initializer":{"class_name":"Zeros","config":{}},"gamma_initializer":{"class_name":"Ones","config":{}},"moving_mean_initializer":{"class_name":"Zeros","config":{}},"moving_variance_initializer":{"class_name":"Ones","config":{}},"beta_regularizer":null,"gamma_regularizer":null,"beta_constraint":null,"gamma_constraint":null},"name":"batch_normalization_33","inbound_nodes":[[["conv2d_33",0,0,{}]]]},{"class_name":"Activation","config":{"name":"activation_33","trainable":true,"dtype":"float32","activation":"relu"},"name":"activation_33","inbound_nodes":[[["batch_normalization_33",0,0,{}]]]},{"class_name":"Conv2D","config":{"name":"conv2d_31","trainable":true,"dtype":"float32","filters":32,"kernel_size":[1,1],"strides":[1,1],"padding":"same","data_format":"channels_last","dilation_rate":[1,1],"groups":1,"activation":"linear","use_bias":false,"kernel_initializer":{"class_name":"GlorotUniform","config":{"seed":null}},"bias_initializer":{"class_name":"Zeros","config":{}},"kernel_regularizer":null,"bias_regularizer":null,"activity_regularizer":null,"kernel_constraint":null,"bias_constraint":null},"name":"conv2d_31","inbound_nodes":[[["block35_3_ac",0,0,{}]]]},{"class_name":"Conv2D","config":{"name":"conv2d_34","trainable":true,"dtype":"float32","filters":48,"kernel_size":[3,3],"strides":[1,1],"padding":"same","data_format":"channels_last","dilation_rate":[1,1],"groups":1,"activation":"linear","use_bias":false,"kernel_initializer":{"class_name":"GlorotUniform","config":{"seed":null}},"bias_initializer":{"class_name":"Zeros","config":{}},"kernel_regularizer":null,"bias_regularizer":null,"activity_regularizer":null,"kernel_constraint":null,"bias_constraint":null},"name":"conv2d_34","inbound_nodes":[[["activation_33",0,0,{}]]]},{"class_name":"BatchNormalization","config":{"name":"batch_normalization_31","trainable":true,"dtype":"float32","axis":3,"momentum":0.99,"epsilon":0.001,"center":true,"scale":false,"beta_initializer":{"class_name":"Zeros","config":{}},"gamma_initializer":{"class_name":"Ones","config":{}},"moving_mean_initializer":{"class_name":"Zeros","config":{}},"moving_variance_initializer":{"class_name":"Ones","config":{}},"beta_regularizer":null,"gamma_regularizer":null,"beta_constraint":null,"gamma_constraint":null},"name":"batch_normalization_31","inbound_nodes":[[["conv2d_31",0,0,{}]]]},{"class_name":"BatchNormalization","config":{"name":"batch_normalization_34","trainable":true,"dtype":"float32","axis":3,"momentum":0.99,"epsilon":0.001,"center":true,"scale":false,"beta_initializer":{"class_name":"Zeros","config":{}},"gamma_initializer":{"class_name":"Ones","config":{}},"moving_mean_initializer":{"class_name":"Zeros","config":{}},"moving_variance_initializer":{"class_name":"Ones","config":{}},"beta_regularizer":null,"gamma_regularizer":null,"beta_constraint":null,"gamma_constraint":null},"name":"batch_normalization_34","inbound_nodes":[[["conv2d_34",0,0,{}]]]},{"class_name":"Activation","config":{"name":"activation_31","trainable":true,"dtype":"float32","activation":"relu"},"name":"activation_31","inbound_nodes":[[["batch_normalization_31",0,0,{}]]]},{"class_name":"Activation","config":{"name":"activation_34","trainable":true,"dtype":"float32","activation":"relu"},"name":"activation_34","inbound_nodes":[[["batch_normalization_34",0,0,{}]]]},{"class_name":"Conv2D","config":{"name":"conv2d_30","trainable":true,"dtype":"float32","filters":32,"kernel_size":[1,1],"strides":[1,1],"padding":"same","data_format":"channels_last","dilation_rate":[1,1],"groups":1,"activation":"linear","use_bias":false,"kernel_initializer":{"class_name":"GlorotUniform","config":{"seed":null}},"bias_initializer":{"class_name":"Zeros","config":{}},"kernel_regularizer":null,"bias_regularizer":null,"activity_regularizer":null,"kernel_constraint":null,"bias_constraint":null},"name":"conv2d_30","inbound_nodes":[[["block35_3_ac",0,0,{}]]]},{"class_name":"Conv2D","config":{"name":"conv2d_32","trainable":true,"dtype":"float32","filters":32,"kernel_size":[3,3],"strides":[1,1],"padding":"same","data_format":"channels_last","dilation_rate":[1,1],"groups":1,"activation":"linear","use_bias":false,"kernel_initializer":{"class_name":"GlorotUniform","config":{"seed":null}},"bias_initializer":{"class_name":"Zeros","config":{}},"kernel_regularizer":null,"bias_regularizer":null,"activity_regularizer":null,"kernel_constraint":null,"bias_constraint":null},"name":"conv2d_32","inbound_nodes":[[["activation_31",0,0,{}]]]},{"class_name":"Conv2D","config":{"name":"conv2d_35","trainable":true,"dtype":"float32","filters":64,"kernel_size":[3,3],"strides":[1,1],"padding":"same","data_format":"channels_last","dilation_rate":[1,1],"groups":1,"activation":"linear","use_bias":false,"kernel_initializer":{"class_name":"GlorotUniform","config":{"seed":null}},"bias_initializer":{"class_name":"Zeros","config":{}},"kernel_regularizer":null,"bias_regularizer":null,"activity_regularizer":null,"kernel_constraint":null,"bias_constraint":null},"name":"conv2d_35","inbound_nodes":[[["activation_34",0,0,{}]]]},{"class_name":"BatchNormalization","config":{"name":"batch_normalization_30","trainable":true,"dtype":"float32","axis":3,"momentum":0.99,"epsilon":0.001,"center":true,"scale":false,"beta_initializer":{"class_name":"Zeros","config":{}},"gamma_initializer":{"class_name":"Ones","config":{}},"moving_mean_initializer":{"class_name":"Zeros","config":{}},"moving_variance_initializer":{"class_name":"Ones","config":{}},"beta_regularizer":null,"gamma_regularizer":null,"beta_constraint":null,"gamma_constraint":null},"name":"batch_normalization_30","inbound_nodes":[[["conv2d_30",0,0,{}]]]},{"class_name":"BatchNormalization","config":{"name":"batch_normalization_32","trainable":true,"dtype":"float32","axis":3,"momentum":0.99,"epsilon":0.001,"center":true,"scale":false,"beta_initializer":{"class_name":"Zeros","config":{}},"gamma_initializer":{"class_name":"Ones","config":{}},"moving_mean_initializer":{"class_name":"Zeros","config":{}},"moving_variance_initializer":{"class_name":"Ones","config":{}},"beta_regularizer":null,"gamma_regularizer":null,"beta_constraint":null,"gamma_constraint":null},"name":"batch_normalization_32","inbound_nodes":[[["conv2d_32",0,0,{}]]]},{"class_name":"BatchNormalization","config":{"name":"batch_normalization_35","trainable":true,"dtype":"float32","axis":3,"momentum":0.99,"epsilon":0.001,"center":true,"scale":false,"beta_initializer":{"class_name":"Zeros","config":{}},"gamma_initializer":{"class_name":"Ones","config":{}},"moving_mean_initializer":{"class_name":"Zeros","config":{}},"moving_variance_initializer":{"class_name":"Ones","config":{}},"beta_regularizer":null,"gamma_regularizer":null,"beta_constraint":null,"gamma_constraint":null},"name":"batch_normalization_35","inbound_nodes":[[["conv2d_35",0,0,{}]]]},{"class_name":"Activation","config":{"name":"activation_30","trainable":true,"dtype":"float32","activation":"relu"},"name":"activation_30","inbound_nodes":[[["batch_normalization_30",0,0,{}]]]},{"class_name":"Activation","config":{"name":"activation_32","trainable":true,"dtype":"float32","activation":"relu"},"name":"activation_32","inbound_nodes":[[["batch_normalization_32",0,0,{}]]]},{"class_name":"Activation","config":{"name":"activation_35","trainable":true,"dtype":"float32","activation":"relu"},"name":"activation_35","inbound_nodes":[[["batch_normalization_35",0,0,{}]]]},{"class_name":"Concatenate","config":{"name":"block35_4_mixed","trainable":true,"dtype":"float32","axis":3},"name":"block35_4_mixed","inbound_nodes":[[["activation_30",0,0,{}],["activation_32",0,0,{}],["activation_35",0,0,{}]]]},{"class_name":"Conv2D","config":{"name":"block35_4_conv","trainable":true,"dtype":"float32","filters":320,"kernel_size":[1,1],"strides":[1,1],"padding":"same","data_format":"channels_last","dilation_rate":[1,1],"groups":1,"activation":"linear","use_bias":true,"kernel_initializer":{"class_name":"GlorotUniform","config":{"seed":null}},"bias_initializer":{"class_name":"Zeros","config":{}},"kernel_regularizer":null,"bias_regularizer":null,"activity_regularizer":null,"kernel_constraint":null,"bias_constraint":null},"name":"block35_4_conv","inbound_nodes":[[["block35_4_mixed",0,0,{}]]]},{"class_name":"CustomScaleLayer","config":{"name":"custom_scale_layer_3","trainable":true,"dtype":"float32","scale":0.17},"name":"custom_scale_layer_3","inbound_nodes":[[["block35_3_ac",0,0,{}],["block35_4_conv",0,0,{}]]]},{"class_name":"Activation","config":{"name":"block35_4_ac","trainable":true,"dtype":"float32","activation":"relu"},"name":"block35_4_ac","inbound_nodes":[[["custom_scale_layer_3",0,0,{}]]]},{"class_name":"Conv2D","config":{"name":"conv2d_39","trainable":true,"dtype":"float32","filters":32,"kernel_size":[1,1],"strides":[1,1],"padding":"same","data_format":"channels_last","dilation_rate":[1,1],"groups":1,"activation":"linear","use_bias":false,"kernel_initializer":{"class_name":"GlorotUniform","config":{"seed":null}},"bias_initializer":{"class_name":"Zeros","config":{}},"kernel_regularizer":null,"bias_regularizer":null,"activity_regularizer":null,"kernel_constraint":null,"bias_constraint":null},"name":"conv2d_39","inbound_nodes":[[["block35_4_ac",0,0,{}]]]},{"class_name":"BatchNormalization","config":{"name":"batch_normalization_39","trainable":true,"dtype":"float32","axis":3,"momentum":0.99,"epsilon":0.001,"center":true,"scale":false,"beta_initializer":{"class_name":"Zeros","config":{}},"gamma_initializer":{"class_name":"Ones","config":{}},"moving_mean_initializer":{"class_name":"Zeros","config":{}},"moving_variance_initializer":{"class_name":"Ones","config":{}},"beta_regularizer":null,"gamma_regularizer":null,"beta_constraint":null,"gamma_constraint":null},"name":"batch_normalization_39","inbound_nodes":[[["conv2d_39",0,0,{}]]]},{"class_name":"Activation","config":{"name":"activation_39","trainable":true,"dtype":"float32","activation":"relu"},"name":"activation_39","inbound_nodes":[[["batch_normalization_39",0,0,{}]]]},{"class_name":"Conv2D","config":{"name":"conv2d_37","trainable":true,"dtype":"float32","filters":32,"kernel_size":[1,1],"strides":[1,1],"padding":"same","data_format":"channels_last","dilation_rate":[1,1],"groups":1,"activation":"linear","use_bias":false,"kernel_initializer":{"class_name":"GlorotUniform","config":{"seed":null}},"bias_initializer":{"class_name":"Zeros","config":{}},"kernel_regularizer":null,"bias_regularizer":null,"activity_regularizer":null,"kernel_constraint":null,"bias_constraint":null},"name":"conv2d_37","inbound_nodes":[[["block35_4_ac",0,0,{}]]]},{"class_name":"Conv2D","config":{"name":"conv2d_40","trainable":true,"dtype":"float32","filters":48,"kernel_size":[3,3],"strides":[1,1],"padding":"same","data_format":"channels_last","dilation_rate":[1,1],"groups":1,"activation":"linear","use_bias":false,"kernel_initializer":{"class_name":"GlorotUniform","config":{"seed":null}},"bias_initializer":{"class_name":"Zeros","config":{}},"kernel_regularizer":null,"bias_regularizer":null,"activity_regularizer":null,"kernel_constraint":null,"bias_constraint":null},"name":"conv2d_40","inbound_nodes":[[["activation_39",0,0,{}]]]},{"class_name":"BatchNormalization","config":{"name":"batch_normalization_37","trainable":true,"dtype":"float32","axis":3,"momentum":0.99,"epsilon":0.001,"center":true,"scale":false,"beta_initializer":{"class_name":"Zeros","config":{}},"gamma_initializer":{"class_name":"Ones","config":{}},"moving_mean_initializer":{"class_name":"Zeros","config":{}},"moving_variance_initializer":{"class_name":"Ones","config":{}},"beta_regularizer":null,"gamma_regularizer":null,"beta_constraint":null,"gamma_constraint":null},"name":"batch_normalization_37","inbound_nodes":[[["conv2d_37",0,0,{}]]]},{"class_name":"BatchNormalization","config":{"name":"batch_normalization_40","trainable":true,"dtype":"float32","axis":3,"momentum":0.99,"epsilon":0.001,"center":true,"scale":false,"beta_initializer":{"class_name":"Zeros","config":{}},"gamma_initializer":{"class_name":"Ones","config":{}},"moving_mean_initializer":{"class_name":"Zeros","config":{}},"moving_variance_initializer":{"class_name":"Ones","config":{}},"beta_regularizer":null,"gamma_regularizer":null,"beta_constraint":null,"gamma_constraint":null},"name":"batch_normalization_40","inbound_nodes":[[["conv2d_40",0,0,{}]]]},{"class_name":"Activation","config":{"name":"activation_37","trainable":true,"dtype":"float32","activation":"relu"},"name":"activation_37","inbound_nodes":[[["batch_normalization_37",0,0,{}]]]},{"class_name":"Activation","config":{"name":"activation_40","trainable":true,"dtype":"float32","activation":"relu"},"name":"activation_40","inbound_nodes":[[["batch_normalization_40",0,0,{}]]]},{"class_name":"Conv2D","config":{"name":"conv2d_36","trainable":true,"dtype":"float32","filters":32,"kernel_size":[1,1],"strides":[1,1],"padding":"same","data_format":"channels_last","dilation_rate":[1,1],"groups":1,"activation":"linear","use_bias":false,"kernel_initializer":{"class_name":"GlorotUniform","config":{"seed":null}},"bias_initializer":{"class_name":"Zeros","config":{}},"kernel_regularizer":null,"bias_regularizer":null,"activity_regularizer":null,"kernel_constraint":null,"bias_constraint":null},"name":"conv2d_36","inbound_nodes":[[["block35_4_ac",0,0,{}]]]},{"class_name":"Conv2D","config":{"name":"conv2d_38","trainable":true,"dtype":"float32","filters":32,"kernel_size":[3,3],"strides":[1,1],"padding":"same","data_format":"channels_last","dilation_rate":[1,1],"groups":1,"activation":"linear","use_bias":false,"kernel_initializer":{"class_name":"GlorotUniform","config":{"seed":null}},"bias_initializer":{"class_name":"Zeros","config":{}},"kernel_regularizer":null,"bias_regularizer":null,"activity_regularizer":null,"kernel_constraint":null,"bias_constraint":null},"name":"conv2d_38","inbound_nodes":[[["activation_37",0,0,{}]]]},{"class_name":"Conv2D","config":{"name":"conv2d_41","trainable":true,"dtype":"float32","filters":64,"kernel_size":[3,3],"strides":[1,1],"padding":"same","data_format":"channels_last","dilation_rate":[1,1],"groups":1,"activation":"linear","use_bias":false,"kernel_initializer":{"class_name":"GlorotUniform","config":{"seed":null}},"bias_initializer":{"class_name":"Zeros","config":{}},"kernel_regularizer":null,"bias_regularizer":null,"activity_regularizer":null,"kernel_constraint":null,"bias_constraint":null},"name":"conv2d_41","inbound_nodes":[[["activation_40",0,0,{}]]]},{"class_name":"BatchNormalization","config":{"name":"batch_normalization_36","trainable":true,"dtype":"float32","axis":3,"momentum":0.99,"epsilon":0.001,"center":true,"scale":false,"beta_initializer":{"class_name":"Zeros","config":{}},"gamma_initializer":{"class_name":"Ones","config":{}},"moving_mean_initializer":{"class_name":"Zeros","config":{}},"moving_variance_initializer":{"class_name":"Ones","config":{}},"beta_regularizer":null,"gamma_regularizer":null,"beta_constraint":null,"gamma_constraint":null},"name":"batch_normalization_36","inbound_nodes":[[["conv2d_36",0,0,{}]]]},{"class_name":"BatchNormalization","config":{"name":"batch_normalization_38","trainable":true,"dtype":"float32","axis":3,"momentum":0.99,"epsilon":0.001,"center":true,"scale":false,"beta_initializer":{"class_name":"Zeros","config":{}},"gamma_initializer":{"class_name":"Ones","config":{}},"moving_mean_initializer":{"class_name":"Zeros","config":{}},"moving_variance_initializer":{"class_name":"Ones","config":{}},"beta_regularizer":null,"gamma_regularizer":null,"beta_constraint":null,"gamma_constraint":null},"name":"batch_normalization_38","inbound_nodes":[[["conv2d_38",0,0,{}]]]},{"class_name":"BatchNormalization","config":{"name":"batch_normalization_41","trainable":true,"dtype":"float32","axis":3,"momentum":0.99,"epsilon":0.001,"center":true,"scale":false,"beta_initializer":{"class_name":"Zeros","config":{}},"gamma_initializer":{"class_name":"Ones","config":{}},"moving_mean_initializer":{"class_name":"Zeros","config":{}},"moving_variance_initializer":{"class_name":"Ones","config":{}},"beta_regularizer":null,"gamma_regularizer":null,"beta_constraint":null,"gamma_constraint":null},"name":"batch_normalization_41","inbound_nodes":[[["conv2d_41",0,0,{}]]]},{"class_name":"Activation","config":{"name":"activation_36","trainable":true,"dtype":"float32","activation":"relu"},"name":"activation_36","inbound_nodes":[[["batch_normalization_36",0,0,{}]]]},{"class_name":"Activation","config":{"name":"activation_38","trainable":true,"dtype":"float32","activation":"relu"},"name":"activation_38","inbound_nodes":[[["batch_normalization_38",0,0,{}]]]},{"class_name":"Activation","config":{"name":"activation_41","trainable":true,"dtype":"float32","activation":"relu"},"name":"activation_41","inbound_nodes":[[["batch_normalization_41",0,0,{}]]]},{"class_name":"Concatenate","config":{"name":"block35_5_mixed","trainable":true,"dtype":"float32","axis":3},"name":"block35_5_mixed","inbound_nodes":[[["activation_36",0,0,{}],["activation_38",0,0,{}],["activation_41",0,0,{}]]]},{"class_name":"Conv2D","config":{"name":"block35_5_conv","trainable":true,"dtype":"float32","filters":320,"kernel_size":[1,1],"strides":[1,1],"padding":"same","data_format":"channels_last","dilation_rate":[1,1],"groups":1,"activation":"linear","use_bias":true,"kernel_initializer":{"class_name":"GlorotUniform","config":{"seed":null}},"bias_initializer":{"class_name":"Zeros","config":{}},"kernel_regularizer":null,"bias_regularizer":null,"activity_regularizer":null,"kernel_constraint":null,"bias_constraint":null},"name":"block35_5_conv","inbound_nodes":[[["block35_5_mixed",0,0,{}]]]},{"class_name":"CustomScaleLayer","config":{"name":"custom_scale_layer_4","trainable":true,"dtype":"float32","scale":0.17},"name":"custom_scale_layer_4","inbound_nodes":[[["block35_4_ac",0,0,{}],["block35_5_conv",0,0,{}]]]},{"class_name":"Activation","config":{"name":"block35_5_ac","trainable":true,"dtype":"float32","activation":"relu"},"name":"block35_5_ac","inbound_nodes":[[["custom_scale_layer_4",0,0,{}]]]},{"class_name":"Conv2D","config":{"name":"conv2d_45","trainable":true,"dtype":"float32","filters":32,"kernel_size":[1,1],"strides":[1,1],"padding":"same","data_format":"channels_last","dilation_rate":[1,1],"groups":1,"activation":"linear","use_bias":false,"kernel_initializer":{"class_name":"GlorotUniform","config":{"seed":null}},"bias_initializer":{"class_name":"Zeros","config":{}},"kernel_regularizer":null,"bias_regularizer":null,"activity_regularizer":null,"kernel_constraint":null,"bias_constraint":null},"name":"conv2d_45","inbound_nodes":[[["block35_5_ac",0,0,{}]]]},{"class_name":"BatchNormalization","config":{"name":"batch_normalization_45","trainable":true,"dtype":"float32","axis":3,"momentum":0.99,"epsilon":0.001,"center":true,"scale":false,"beta_initializer":{"class_name":"Zeros","config":{}},"gamma_initializer":{"class_name":"Ones","config":{}},"moving_mean_initializer":{"class_name":"Zeros","config":{}},"moving_variance_initializer":{"class_name":"Ones","config":{}},"beta_regularizer":null,"gamma_regularizer":null,"beta_constraint":null,"gamma_constraint":null},"name":"batch_normalization_45","inbound_nodes":[[["conv2d_45",0,0,{}]]]},{"class_name":"Activation","config":{"name":"activation_45","trainable":true,"dtype":"float32","activation":"relu"},"name":"activation_45","inbound_nodes":[[["batch_normalization_45",0,0,{}]]]},{"class_name":"Conv2D","config":{"name":"conv2d_43","trainable":true,"dtype":"float32","filters":32,"kernel_size":[1,1],"strides":[1,1],"padding":"same","data_format":"channels_last","dilation_rate":[1,1],"groups":1,"activation":"linear","use_bias":false,"kernel_initializer":{"class_name":"GlorotUniform","config":{"seed":null}},"bias_initializer":{"class_name":"Zeros","config":{}},"kernel_regularizer":null,"bias_regularizer":null,"activity_regularizer":null,"kernel_constraint":null,"bias_constraint":null},"name":"conv2d_43","inbound_nodes":[[["block35_5_ac",0,0,{}]]]},{"class_name":"Conv2D","config":{"name":"conv2d_46","trainable":true,"dtype":"float32","filters":48,"kernel_size":[3,3],"strides":[1,1],"padding":"same","data_format":"channels_last","dilation_rate":[1,1],"groups":1,"activation":"linear","use_bias":false,"kernel_initializer":{"class_name":"GlorotUniform","config":{"seed":null}},"bias_initializer":{"class_name":"Zeros","config":{}},"kernel_regularizer":null,"bias_regularizer":null,"activity_regularizer":null,"kernel_constraint":null,"bias_constraint":null},"name":"conv2d_46","inbound_nodes":[[["activation_45",0,0,{}]]]},{"class_name":"BatchNormalization","config":{"name":"batch_normalization_43","trainable":true,"dtype":"float32","axis":3,"momentum":0.99,"epsilon":0.001,"center":true,"scale":false,"beta_initializer":{"class_name":"Zeros","config":{}},"gamma_initializer":{"class_name":"Ones","config":{}},"moving_mean_initializer":{"class_name":"Zeros","config":{}},"moving_variance_initializer":{"class_name":"Ones","config":{}},"beta_regularizer":null,"gamma_regularizer":null,"beta_constraint":null,"gamma_constraint":null},"name":"batch_normalization_43","inbound_nodes":[[["conv2d_43",0,0,{}]]]},{"class_name":"BatchNormalization","config":{"name":"batch_normalization_46","trainable":true,"dtype":"float32","axis":3,"momentum":0.99,"epsilon":0.001,"center":true,"scale":false,"beta_initializer":{"class_name":"Zeros","config":{}},"gamma_initializer":{"class_name":"Ones","config":{}},"moving_mean_initializer":{"class_name":"Zeros","config":{}},"moving_variance_initializer":{"class_name":"Ones","config":{}},"beta_regularizer":null,"gamma_regularizer":null,"beta_constraint":null,"gamma_constraint":null},"name":"batch_normalization_46","inbound_nodes":[[["conv2d_46",0,0,{}]]]},{"class_name":"Activation","config":{"name":"activation_43","trainable":true,"dtype":"float32","activation":"relu"},"name":"activation_43","inbound_nodes":[[["batch_normalization_43",0,0,{}]]]},{"class_name":"Activation","config":{"name":"activation_46","trainable":true,"dtype":"float32","activation":"relu"},"name":"activation_46","inbound_nodes":[[["batch_normalization_46",0,0,{}]]]},{"class_name":"Conv2D","config":{"name":"conv2d_42","trainable":true,"dtype":"float32","filters":32,"kernel_size":[1,1],"strides":[1,1],"padding":"same","data_format":"channels_last","dilation_rate":[1,1],"groups":1,"activation":"linear","use_bias":false,"kernel_initializer":{"class_name":"GlorotUniform","config":{"seed":null}},"bias_initializer":{"class_name":"Zeros","config":{}},"kernel_regularizer":null,"bias_regularizer":null,"activity_regularizer":null,"kernel_constraint":null,"bias_constraint":null},"name":"conv2d_42","inbound_nodes":[[["block35_5_ac",0,0,{}]]]},{"class_name":"Conv2D","config":{"name":"conv2d_44","trainable":true,"dtype":"float32","filters":32,"kernel_size":[3,3],"strides":[1,1],"padding":"same","data_format":"channels_last","dilation_rate":[1,1],"groups":1,"activation":"linear","use_bias":false,"kernel_initializer":{"class_name":"GlorotUniform","config":{"seed":null}},"bias_initializer":{"class_name":"Zeros","config":{}},"kernel_regularizer":null,"bias_regularizer":null,"activity_regularizer":null,"kernel_constraint":null,"bias_constraint":null},"name":"conv2d_44","inbound_nodes":[[["activation_43",0,0,{}]]]},{"class_name":"Conv2D","config":{"name":"conv2d_47","trainable":true,"dtype":"float32","filters":64,"kernel_size":[3,3],"strides":[1,1],"padding":"same","data_format":"channels_last","dilation_rate":[1,1],"groups":1,"activation":"linear","use_bias":false,"kernel_initializer":{"class_name":"GlorotUniform","config":{"seed":null}},"bias_initializer":{"class_name":"Zeros","config":{}},"kernel_regularizer":null,"bias_regularizer":null,"activity_regularizer":null,"kernel_constraint":null,"bias_constraint":null},"name":"conv2d_47","inbound_nodes":[[["activation_46",0,0,{}]]]},{"class_name":"BatchNormalization","config":{"name":"batch_normalization_42","trainable":true,"dtype":"float32","axis":3,"momentum":0.99,"epsilon":0.001,"center":true,"scale":false,"beta_initializer":{"class_name":"Zeros","config":{}},"gamma_initializer":{"class_name":"Ones","config":{}},"moving_mean_initializer":{"class_name":"Zeros","config":{}},"moving_variance_initializer":{"class_name":"Ones","config":{}},"beta_regularizer":null,"gamma_regularizer":null,"beta_constraint":null,"gamma_constraint":null},"name":"batch_normalization_42","inbound_nodes":[[["conv2d_42",0,0,{}]]]},{"class_name":"BatchNormalization","config":{"name":"batch_normalization_44","trainable":true,"dtype":"float32","axis":3,"momentum":0.99,"epsilon":0.001,"center":true,"scale":false,"beta_initializer":{"class_name":"Zeros","config":{}},"gamma_initializer":{"class_name":"Ones","config":{}},"moving_mean_initializer":{"class_name":"Zeros","config":{}},"moving_variance_initializer":{"class_name":"Ones","config":{}},"beta_regularizer":null,"gamma_regularizer":null,"beta_constraint":null,"gamma_constraint":null},"name":"batch_normalization_44","inbound_nodes":[[["conv2d_44",0,0,{}]]]},{"class_name":"BatchNormalization","config":{"name":"batch_normalization_47","trainable":true,"dtype":"float32","axis":3,"momentum":0.99,"epsilon":0.001,"center":true,"scale":false,"beta_initializer":{"class_name":"Zeros","config":{}},"gamma_initializer":{"class_name":"Ones","config":{}},"moving_mean_initializer":{"class_name":"Zeros","config":{}},"moving_variance_initializer":{"class_name":"Ones","config":{}},"beta_regularizer":null,"gamma_regularizer":null,"beta_constraint":null,"gamma_constraint":null},"name":"batch_normalization_47","inbound_nodes":[[["conv2d_47",0,0,{}]]]},{"class_name":"Activation","config":{"name":"activation_42","trainable":true,"dtype":"float32","activation":"relu"},"name":"activation_42","inbound_nodes":[[["batch_normalization_42",0,0,{}]]]},{"class_name":"Activation","config":{"name":"activation_44","trainable":true,"dtype":"float32","activation":"relu"},"name":"activation_44","inbound_nodes":[[["batch_normalization_44",0,0,{}]]]},{"class_name":"Activation","config":{"name":"activation_47","trainable":true,"dtype":"float32","activation":"relu"},"name":"activation_47","inbound_nodes":[[["batch_normalization_47",0,0,{}]]]},{"class_name":"Concatenate","config":{"name":"block35_6_mixed","trainable":true,"dtype":"float32","axis":3},"name":"block35_6_mixed","inbound_nodes":[[["activation_42",0,0,{}],["activation_44",0,0,{}],["activation_47",0,0,{}]]]},{"class_name":"Conv2D","config":{"name":"block35_6_conv","trainable":true,"dtype":"float32","filters":320,"kernel_size":[1,1],"strides":[1,1],"padding":"same","data_format":"channels_last","dilation_rate":[1,1],"groups":1,"activation":"linear","use_bias":true,"kernel_initializer":{"class_name":"GlorotUniform","config":{"seed":null}},"bias_initializer":{"class_name":"Zeros","config":{}},"kernel_regularizer":null,"bias_regularizer":null,"activity_regularizer":null,"kernel_constraint":null,"bias_constraint":null},"name":"block35_6_conv","inbound_nodes":[[["block35_6_mixed",0,0,{}]]]},{"class_name":"CustomScaleLayer","config":{"name":"custom_scale_layer_5","trainable":true,"dtype":"float32","scale":0.17},"name":"custom_scale_layer_5","inbound_nodes":[[["block35_5_ac",0,0,{}],["block35_6_conv",0,0,{}]]]},{"class_name":"Activation","config":{"name":"block35_6_ac","trainable":true,"dtype":"float32","activation":"relu"},"name":"block35_6_ac","inbound_nodes":[[["custom_scale_layer_5",0,0,{}]]]},{"class_name":"Conv2D","config":{"name":"conv2d_51","trainable":true,"dtype":"float32","filters":32,"kernel_size":[1,1],"strides":[1,1],"padding":"same","data_format":"channels_last","dilation_rate":[1,1],"groups":1,"activation":"linear","use_bias":false,"kernel_initializer":{"class_name":"GlorotUniform","config":{"seed":null}},"bias_initializer":{"class_name":"Zeros","config":{}},"kernel_regularizer":null,"bias_regularizer":null,"activity_regularizer":null,"kernel_constraint":null,"bias_constraint":null},"name":"conv2d_51","inbound_nodes":[[["block35_6_ac",0,0,{}]]]},{"class_name":"BatchNormalization","config":{"name":"batch_normalization_51","trainable":true,"dtype":"float32","axis":3,"momentum":0.99,"epsilon":0.001,"center":true,"scale":false,"beta_initializer":{"class_name":"Zeros","config":{}},"gamma_initializer":{"class_name":"Ones","config":{}},"moving_mean_initializer":{"class_name":"Zeros","config":{}},"moving_variance_initializer":{"class_name":"Ones","config":{}},"beta_regularizer":null,"gamma_regularizer":null,"beta_constraint":null,"gamma_constraint":null},"name":"batch_normalization_51","inbound_nodes":[[["conv2d_51",0,0,{}]]]},{"class_name":"Activation","config":{"name":"activation_51","trainable":true,"dtype":"float32","activation":"relu"},"name":"activation_51","inbound_nodes":[[["batch_normalization_51",0,0,{}]]]},{"class_name":"Conv2D","config":{"name":"conv2d_49","trainable":true,"dtype":"float32","filters":32,"kernel_size":[1,1],"strides":[1,1],"padding":"same","data_format":"channels_last","dilation_rate":[1,1],"groups":1,"activation":"linear","use_bias":false,"kernel_initializer":{"class_name":"GlorotUniform","config":{"seed":null}},"bias_initializer":{"class_name":"Zeros","config":{}},"kernel_regularizer":null,"bias_regularizer":null,"activity_regularizer":null,"kernel_constraint":null,"bias_constraint":null},"name":"conv2d_49","inbound_nodes":[[["block35_6_ac",0,0,{}]]]},{"class_name":"Conv2D","config":{"name":"conv2d_52","trainable":true,"dtype":"float32","filters":48,"kernel_size":[3,3],"strides":[1,1],"padding":"same","data_format":"channels_last","dilation_rate":[1,1],"groups":1,"activation":"linear","use_bias":false,"kernel_initializer":{"class_name":"GlorotUniform","config":{"seed":null}},"bias_initializer":{"class_name":"Zeros","config":{}},"kernel_regularizer":null,"bias_regularizer":null,"activity_regularizer":null,"kernel_constraint":null,"bias_constraint":null},"name":"conv2d_52","inbound_nodes":[[["activation_51",0,0,{}]]]},{"class_name":"BatchNormalization","config":{"name":"batch_normalization_49","trainable":true,"dtype":"float32","axis":3,"momentum":0.99,"epsilon":0.001,"center":true,"scale":false,"beta_initializer":{"class_name":"Zeros","config":{}},"gamma_initializer":{"class_name":"Ones","config":{}},"moving_mean_initializer":{"class_name":"Zeros","config":{}},"moving_variance_initializer":{"class_name":"Ones","config":{}},"beta_regularizer":null,"gamma_regularizer":null,"beta_constraint":null,"gamma_constraint":null},"name":"batch_normalization_49","inbound_nodes":[[["conv2d_49",0,0,{}]]]},{"class_name":"BatchNormalization","config":{"name":"batch_normalization_52","trainable":true,"dtype":"float32","axis":3,"momentum":0.99,"epsilon":0.001,"center":true,"scale":false,"beta_initializer":{"class_name":"Zeros","config":{}},"gamma_initializer":{"class_name":"Ones","config":{}},"moving_mean_initializer":{"class_name":"Zeros","config":{}},"moving_variance_initializer":{"class_name":"Ones","config":{}},"beta_regularizer":null,"gamma_regularizer":null,"beta_constraint":null,"gamma_constraint":null},"name":"batch_normalization_52","inbound_nodes":[[["conv2d_52",0,0,{}]]]},{"class_name":"Activation","config":{"name":"activation_49","trainable":true,"dtype":"float32","activation":"relu"},"name":"activation_49","inbound_nodes":[[["batch_normalization_49",0,0,{}]]]},{"class_name":"Activation","config":{"name":"activation_52","trainable":true,"dtype":"float32","activation":"relu"},"name":"activation_52","inbound_nodes":[[["batch_normalization_52",0,0,{}]]]},{"class_name":"Conv2D","config":{"name":"conv2d_48","trainable":true,"dtype":"float32","filters":32,"kernel_size":[1,1],"strides":[1,1],"padding":"same","data_format":"channels_last","dilation_rate":[1,1],"groups":1,"activation":"linear","use_bias":false,"kernel_initializer":{"class_name":"GlorotUniform","config":{"seed":null}},"bias_initializer":{"class_name":"Zeros","config":{}},"kernel_regularizer":null,"bias_regularizer":null,"activity_regularizer":null,"kernel_constraint":null,"bias_constraint":null},"name":"conv2d_48","inbound_nodes":[[["block35_6_ac",0,0,{}]]]},{"class_name":"Conv2D","config":{"name":"conv2d_50","trainable":true,"dtype":"float32","filters":32,"kernel_size":[3,3],"strides":[1,1],"padding":"same","data_format":"channels_last","dilation_rate":[1,1],"groups":1,"activation":"linear","use_bias":false,"kernel_initializer":{"class_name":"GlorotUniform","config":{"seed":null}},"bias_initializer":{"class_name":"Zeros","config":{}},"kernel_regularizer":null,"bias_regularizer":null,"activity_regularizer":null,"kernel_constraint":null,"bias_constraint":null},"name":"conv2d_50","inbound_nodes":[[["activation_49",0,0,{}]]]},{"class_name":"Conv2D","config":{"name":"conv2d_53","trainable":true,"dtype":"float32","filters":64,"kernel_size":[3,3],"strides":[1,1],"padding":"same","data_format":"channels_last","dilation_rate":[1,1],"groups":1,"activation":"linear","use_bias":false,"kernel_initializer":{"class_name":"GlorotUniform","config":{"seed":null}},"bias_initializer":{"class_name":"Zeros","config":{}},"kernel_regularizer":null,"bias_regularizer":null,"activity_regularizer":null,"kernel_constraint":null,"bias_constraint":null},"name":"conv2d_53","inbound_nodes":[[["activation_52",0,0,{}]]]},{"class_name":"BatchNormalization","config":{"name":"batch_normalization_48","trainable":true,"dtype":"float32","axis":3,"momentum":0.99,"epsilon":0.001,"center":true,"scale":false,"beta_initializer":{"class_name":"Zeros","config":{}},"gamma_initializer":{"class_name":"Ones","config":{}},"moving_mean_initializer":{"class_name":"Zeros","config":{}},"moving_variance_initializer":{"class_name":"Ones","config":{}},"beta_regularizer":null,"gamma_regularizer":null,"beta_constraint":null,"gamma_constraint":null},"name":"batch_normalization_48","inbound_nodes":[[["conv2d_48",0,0,{}]]]},{"class_name":"BatchNormalization","config":{"name":"batch_normalization_50","trainable":true,"dtype":"float32","axis":3,"momentum":0.99,"epsilon":0.001,"center":true,"scale":false,"beta_initializer":{"class_name":"Zeros","config":{}},"gamma_initializer":{"class_name":"Ones","config":{}},"moving_mean_initializer":{"class_name":"Zeros","config":{}},"moving_variance_initializer":{"class_name":"Ones","config":{}},"beta_regularizer":null,"gamma_regularizer":null,"beta_constraint":null,"gamma_constraint":null},"name":"batch_normalization_50","inbound_nodes":[[["conv2d_50",0,0,{}]]]},{"class_name":"BatchNormalization","config":{"name":"batch_normalization_53","trainable":true,"dtype":"float32","axis":3,"momentum":0.99,"epsilon":0.001,"center":true,"scale":false,"beta_initializer":{"class_name":"Zeros","config":{}},"gamma_initializer":{"class_name":"Ones","config":{}},"moving_mean_initializer":{"class_name":"Zeros","config":{}},"moving_variance_initializer":{"class_name":"Ones","config":{}},"beta_regularizer":null,"gamma_regularizer":null,"beta_constraint":null,"gamma_constraint":null},"name":"batch_normalization_53","inbound_nodes":[[["conv2d_53",0,0,{}]]]},{"class_name":"Activation","config":{"name":"activation_48","trainable":true,"dtype":"float32","activation":"relu"},"name":"activation_48","inbound_nodes":[[["batch_normalization_48",0,0,{}]]]},{"class_name":"Activation","config":{"name":"activation_50","trainable":true,"dtype":"float32","activation":"relu"},"name":"activation_50","inbound_nodes":[[["batch_normalization_50",0,0,{}]]]},{"class_name":"Activation","config":{"name":"activation_53","trainable":true,"dtype":"float32","activation":"relu"},"name":"activation_53","inbound_nodes":[[["batch_normalization_53",0,0,{}]]]},{"class_name":"Concatenate","config":{"name":"block35_7_mixed","trainable":true,"dtype":"float32","axis":3},"name":"block35_7_mixed","inbound_nodes":[[["activation_48",0,0,{}],["activation_50",0,0,{}],["activation_53",0,0,{}]]]},{"class_name":"Conv2D","config":{"name":"block35_7_conv","trainable":true,"dtype":"float32","filters":320,"kernel_size":[1,1],"strides":[1,1],"padding":"same","data_format":"channels_last","dilation_rate":[1,1],"groups":1,"activation":"linear","use_bias":true,"kernel_initializer":{"class_name":"GlorotUniform","config":{"seed":null}},"bias_initializer":{"class_name":"Zeros","config":{}},"kernel_regularizer":null,"bias_regularizer":null,"activity_regularizer":null,"kernel_constraint":null,"bias_constraint":null},"name":"block35_7_conv","inbound_nodes":[[["block35_7_mixed",0,0,{}]]]},{"class_name":"CustomScaleLayer","config":{"name":"custom_scale_layer_6","trainable":true,"dtype":"float32","scale":0.17},"name":"custom_scale_layer_6","inbound_nodes":[[["block35_6_ac",0,0,{}],["block35_7_conv",0,0,{}]]]},{"class_name":"Activation","config":{"name":"block35_7_ac","trainable":true,"dtype":"float32","activation":"relu"},"name":"block35_7_ac","inbound_nodes":[[["custom_scale_layer_6",0,0,{}]]]},{"class_name":"Conv2D","config":{"name":"conv2d_57","trainable":true,"dtype":"float32","filters":32,"kernel_size":[1,1],"strides":[1,1],"padding":"same","data_format":"channels_last","dilation_rate":[1,1],"groups":1,"activation":"linear","use_bias":false,"kernel_initializer":{"class_name":"GlorotUniform","config":{"seed":null}},"bias_initializer":{"class_name":"Zeros","config":{}},"kernel_regularizer":null,"bias_regularizer":null,"activity_regularizer":null,"kernel_constraint":null,"bias_constraint":null},"name":"conv2d_57","inbound_nodes":[[["block35_7_ac",0,0,{}]]]},{"class_name":"BatchNormalization","config":{"name":"batch_normalization_57","trainable":true,"dtype":"float32","axis":3,"momentum":0.99,"epsilon":0.001,"center":true,"scale":false,"beta_initializer":{"class_name":"Zeros","config":{}},"gamma_initializer":{"class_name":"Ones","config":{}},"moving_mean_initializer":{"class_name":"Zeros","config":{}},"moving_variance_initializer":{"class_name":"Ones","config":{}},"beta_regularizer":null,"gamma_regularizer":null,"beta_constraint":null,"gamma_constraint":null},"name":"batch_normalization_57","inbound_nodes":[[["conv2d_57",0,0,{}]]]},{"class_name":"Activation","config":{"name":"activation_57","trainable":true,"dtype":"float32","activation":"relu"},"name":"activation_57","inbound_nodes":[[["batch_normalization_57",0,0,{}]]]},{"class_name":"Conv2D","config":{"name":"conv2d_55","trainable":true,"dtype":"float32","filters":32,"kernel_size":[1,1],"strides":[1,1],"padding":"same","data_format":"channels_last","dilation_rate":[1,1],"groups":1,"activation":"linear","use_bias":false,"kernel_initializer":{"class_name":"GlorotUniform","config":{"seed":null}},"bias_initializer":{"class_name":"Zeros","config":{}},"kernel_regularizer":null,"bias_regularizer":null,"activity_regularizer":null,"kernel_constraint":null,"bias_constraint":null},"name":"conv2d_55","inbound_nodes":[[["block35_7_ac",0,0,{}]]]},{"class_name":"Conv2D","config":{"name":"conv2d_58","trainable":true,"dtype":"float32","filters":48,"kernel_size":[3,3],"strides":[1,1],"padding":"same","data_format":"channels_last","dilation_rate":[1,1],"groups":1,"activation":"linear","use_bias":false,"kernel_initializer":{"class_name":"GlorotUniform","config":{"seed":null}},"bias_initializer":{"class_name":"Zeros","config":{}},"kernel_regularizer":null,"bias_regularizer":null,"activity_regularizer":null,"kernel_constraint":null,"bias_constraint":null},"name":"conv2d_58","inbound_nodes":[[["activation_57",0,0,{}]]]},{"class_name":"BatchNormalization","config":{"name":"batch_normalization_55","trainable":true,"dtype":"float32","axis":3,"momentum":0.99,"epsilon":0.001,"center":true,"scale":false,"beta_initializer":{"class_name":"Zeros","config":{}},"gamma_initializer":{"class_name":"Ones","config":{}},"moving_mean_initializer":{"class_name":"Zeros","config":{}},"moving_variance_initializer":{"class_name":"Ones","config":{}},"beta_regularizer":null,"gamma_regularizer":null,"beta_constraint":null,"gamma_constraint":null},"name":"batch_normalization_55","inbound_nodes":[[["conv2d_55",0,0,{}]]]},{"class_name":"BatchNormalization","config":{"name":"batch_normalization_58","trainable":true,"dtype":"float32","axis":3,"momentum":0.99,"epsilon":0.001,"center":true,"scale":false,"beta_initializer":{"class_name":"Zeros","config":{}},"gamma_initializer":{"class_name":"Ones","config":{}},"moving_mean_initializer":{"class_name":"Zeros","config":{}},"moving_variance_initializer":{"class_name":"Ones","config":{}},"beta_regularizer":null,"gamma_regularizer":null,"beta_constraint":null,"gamma_constraint":null},"name":"batch_normalization_58","inbound_nodes":[[["conv2d_58",0,0,{}]]]},{"class_name":"Activation","config":{"name":"activation_55","trainable":true,"dtype":"float32","activation":"relu"},"name":"activation_55","inbound_nodes":[[["batch_normalization_55",0,0,{}]]]},{"class_name":"Activation","config":{"name":"activation_58","trainable":true,"dtype":"float32","activation":"relu"},"name":"activation_58","inbound_nodes":[[["batch_normalization_58",0,0,{}]]]},{"class_name":"Conv2D","config":{"name":"conv2d_54","trainable":true,"dtype":"float32","filters":32,"kernel_size":[1,1],"strides":[1,1],"padding":"same","data_format":"channels_last","dilation_rate":[1,1],"groups":1,"activation":"linear","use_bias":false,"kernel_initializer":{"class_name":"GlorotUniform","config":{"seed":null}},"bias_initializer":{"class_name":"Zeros","config":{}},"kernel_regularizer":null,"bias_regularizer":null,"activity_regularizer":null,"kernel_constraint":null,"bias_constraint":null},"name":"conv2d_54","inbound_nodes":[[["block35_7_ac",0,0,{}]]]},{"class_name":"Conv2D","config":{"name":"conv2d_56","trainable":true,"dtype":"float32","filters":32,"kernel_size":[3,3],"strides":[1,1],"padding":"same","data_format":"channels_last","dilation_rate":[1,1],"groups":1,"activation":"linear","use_bias":false,"kernel_initializer":{"class_name":"GlorotUniform","config":{"seed":null}},"bias_initializer":{"class_name":"Zeros","config":{}},"kernel_regularizer":null,"bias_regularizer":null,"activity_regularizer":null,"kernel_constraint":null,"bias_constraint":null},"name":"conv2d_56","inbound_nodes":[[["activation_55",0,0,{}]]]},{"class_name":"Conv2D","config":{"name":"conv2d_59","trainable":true,"dtype":"float32","filters":64,"kernel_size":[3,3],"strides":[1,1],"padding":"same","data_format":"channels_last","dilation_rate":[1,1],"groups":1,"activation":"linear","use_bias":false,"kernel_initializer":{"class_name":"GlorotUniform","config":{"seed":null}},"bias_initializer":{"class_name":"Zeros","config":{}},"kernel_regularizer":null,"bias_regularizer":null,"activity_regularizer":null,"kernel_constraint":null,"bias_constraint":null},"name":"conv2d_59","inbound_nodes":[[["activation_58",0,0,{}]]]},{"class_name":"BatchNormalization","config":{"name":"batch_normalization_54","trainable":true,"dtype":"float32","axis":3,"momentum":0.99,"epsilon":0.001,"center":true,"scale":false,"beta_initializer":{"class_name":"Zeros","config":{}},"gamma_initializer":{"class_name":"Ones","config":{}},"moving_mean_initializer":{"class_name":"Zeros","config":{}},"moving_variance_initializer":{"class_name":"Ones","config":{}},"beta_regularizer":null,"gamma_regularizer":null,"beta_constraint":null,"gamma_constraint":null},"name":"batch_normalization_54","inbound_nodes":[[["conv2d_54",0,0,{}]]]},{"class_name":"BatchNormalization","config":{"name":"batch_normalization_56","trainable":true,"dtype":"float32","axis":3,"momentum":0.99,"epsilon":0.001,"center":true,"scale":false,"beta_initializer":{"class_name":"Zeros","config":{}},"gamma_initializer":{"class_name":"Ones","config":{}},"moving_mean_initializer":{"class_name":"Zeros","config":{}},"moving_variance_initializer":{"class_name":"Ones","config":{}},"beta_regularizer":null,"gamma_regularizer":null,"beta_constraint":null,"gamma_constraint":null},"name":"batch_normalization_56","inbound_nodes":[[["conv2d_56",0,0,{}]]]},{"class_name":"BatchNormalization","config":{"name":"batch_normalization_59","trainable":true,"dtype":"float32","axis":3,"momentum":0.99,"epsilon":0.001,"center":true,"scale":false,"beta_initializer":{"class_name":"Zeros","config":{}},"gamma_initializer":{"class_name":"Ones","config":{}},"moving_mean_initializer":{"class_name":"Zeros","config":{}},"moving_variance_initializer":{"class_name":"Ones","config":{}},"beta_regularizer":null,"gamma_regularizer":null,"beta_constraint":null,"gamma_constraint":null},"name":"batch_normalization_59","inbound_nodes":[[["conv2d_59",0,0,{}]]]},{"class_name":"Activation","config":{"name":"activation_54","trainable":true,"dtype":"float32","activation":"relu"},"name":"activation_54","inbound_nodes":[[["batch_normalization_54",0,0,{}]]]},{"class_name":"Activation","config":{"name":"activation_56","trainable":true,"dtype":"float32","activation":"relu"},"name":"activation_56","inbound_nodes":[[["batch_normalization_56",0,0,{}]]]},{"class_name":"Activation","config":{"name":"activation_59","trainable":true,"dtype":"float32","activation":"relu"},"name":"activation_59","inbound_nodes":[[["batch_normalization_59",0,0,{}]]]},{"class_name":"Concatenate","config":{"name":"block35_8_mixed","trainable":true,"dtype":"float32","axis":3},"name":"block35_8_mixed","inbound_nodes":[[["activation_54",0,0,{}],["activation_56",0,0,{}],["activation_59",0,0,{}]]]},{"class_name":"Conv2D","config":{"name":"block35_8_conv","trainable":true,"dtype":"float32","filters":320,"kernel_size":[1,1],"strides":[1,1],"padding":"same","data_format":"channels_last","dilation_rate":[1,1],"groups":1,"activation":"linear","use_bias":true,"kernel_initializer":{"class_name":"GlorotUniform","config":{"seed":null}},"bias_initializer":{"class_name":"Zeros","config":{}},"kernel_regularizer":null,"bias_regularizer":null,"activity_regularizer":null,"kernel_constraint":null,"bias_constraint":null},"name":"block35_8_conv","inbound_nodes":[[["block35_8_mixed",0,0,{}]]]},{"class_name":"CustomScaleLayer","config":{"name":"custom_scale_layer_7","trainable":true,"dtype":"float32","scale":0.17},"name":"custom_scale_layer_7","inbound_nodes":[[["block35_7_ac",0,0,{}],["block35_8_conv",0,0,{}]]]},{"class_name":"Activation","config":{"name":"block35_8_ac","trainable":true,"dtype":"float32","activation":"relu"},"name":"block35_8_ac","inbound_nodes":[[["custom_scale_layer_7",0,0,{}]]]},{"class_name":"Conv2D","config":{"name":"conv2d_63","trainable":true,"dtype":"float32","filters":32,"kernel_size":[1,1],"strides":[1,1],"padding":"same","data_format":"channels_last","dilation_rate":[1,1],"groups":1,"activation":"linear","use_bias":false,"kernel_initializer":{"class_name":"GlorotUniform","config":{"seed":null}},"bias_initializer":{"class_name":"Zeros","config":{}},"kernel_regularizer":null,"bias_regularizer":null,"activity_regularizer":null,"kernel_constraint":null,"bias_constraint":null},"name":"conv2d_63","inbound_nodes":[[["block35_8_ac",0,0,{}]]]},{"class_name":"BatchNormalization","config":{"name":"batch_normalization_63","trainable":true,"dtype":"float32","axis":3,"momentum":0.99,"epsilon":0.001,"center":true,"scale":false,"beta_initializer":{"class_name":"Zeros","config":{}},"gamma_initializer":{"class_name":"Ones","config":{}},"moving_mean_initializer":{"class_name":"Zeros","config":{}},"moving_variance_initializer":{"class_name":"Ones","config":{}},"beta_regularizer":null,"gamma_regularizer":null,"beta_constraint":null,"gamma_constraint":null},"name":"batch_normalization_63","inbound_nodes":[[["conv2d_63",0,0,{}]]]},{"class_name":"Activation","config":{"name":"activation_63","trainable":true,"dtype":"float32","activation":"relu"},"name":"activation_63","inbound_nodes":[[["batch_normalization_63",0,0,{}]]]},{"class_name":"Conv2D","config":{"name":"conv2d_61","trainable":true,"dtype":"float32","filters":32,"kernel_size":[1,1],"strides":[1,1],"padding":"same","data_format":"channels_last","dilation_rate":[1,1],"groups":1,"activation":"linear","use_bias":false,"kernel_initializer":{"class_name":"GlorotUniform","config":{"seed":null}},"bias_initializer":{"class_name":"Zeros","config":{}},"kernel_regularizer":null,"bias_regularizer":null,"activity_regularizer":null,"kernel_constraint":null,"bias_constraint":null},"name":"conv2d_61","inbound_nodes":[[["block35_8_ac",0,0,{}]]]},{"class_name":"Conv2D","config":{"name":"conv2d_64","trainable":true,"dtype":"float32","filters":48,"kernel_size":[3,3],"strides":[1,1],"padding":"same","data_format":"channels_last","dilation_rate":[1,1],"groups":1,"activation":"linear","use_bias":false,"kernel_initializer":{"class_name":"GlorotUniform","config":{"seed":null}},"bias_initializer":{"class_name":"Zeros","config":{}},"kernel_regularizer":null,"bias_regularizer":null,"activity_regularizer":null,"kernel_constraint":null,"bias_constraint":null},"name":"conv2d_64","inbound_nodes":[[["activation_63",0,0,{}]]]},{"class_name":"BatchNormalization","config":{"name":"batch_normalization_61","trainable":true,"dtype":"float32","axis":3,"momentum":0.99,"epsilon":0.001,"center":true,"scale":false,"beta_initializer":{"class_name":"Zeros","config":{}},"gamma_initializer":{"class_name":"Ones","config":{}},"moving_mean_initializer":{"class_name":"Zeros","config":{}},"moving_variance_initializer":{"class_name":"Ones","config":{}},"beta_regularizer":null,"gamma_regularizer":null,"beta_constraint":null,"gamma_constraint":null},"name":"batch_normalization_61","inbound_nodes":[[["conv2d_61",0,0,{}]]]},{"class_name":"BatchNormalization","config":{"name":"batch_normalization_64","trainable":true,"dtype":"float32","axis":3,"momentum":0.99,"epsilon":0.001,"center":true,"scale":false,"beta_initializer":{"class_name":"Zeros","config":{}},"gamma_initializer":{"class_name":"Ones","config":{}},"moving_mean_initializer":{"class_name":"Zeros","config":{}},"moving_variance_initializer":{"class_name":"Ones","config":{}},"beta_regularizer":null,"gamma_regularizer":null,"beta_constraint":null,"gamma_constraint":null},"name":"batch_normalization_64","inbound_nodes":[[["conv2d_64",0,0,{}]]]},{"class_name":"Activation","config":{"name":"activation_61","trainable":true,"dtype":"float32","activation":"relu"},"name":"activation_61","inbound_nodes":[[["batch_normalization_61",0,0,{}]]]},{"class_name":"Activation","config":{"name":"activation_64","trainable":true,"dtype":"float32","activation":"relu"},"name":"activation_64","inbound_nodes":[[["batch_normalization_64",0,0,{}]]]},{"class_name":"Conv2D","config":{"name":"conv2d_60","trainable":true,"dtype":"float32","filters":32,"kernel_size":[1,1],"strides":[1,1],"padding":"same","data_format":"channels_last","dilation_rate":[1,1],"groups":1,"activation":"linear","use_bias":false,"kernel_initializer":{"class_name":"GlorotUniform","config":{"seed":null}},"bias_initializer":{"class_name":"Zeros","config":{}},"kernel_regularizer":null,"bias_regularizer":null,"activity_regularizer":null,"kernel_constraint":null,"bias_constraint":null},"name":"conv2d_60","inbound_nodes":[[["block35_8_ac",0,0,{}]]]},{"class_name":"Conv2D","config":{"name":"conv2d_62","trainable":true,"dtype":"float32","filters":32,"kernel_size":[3,3],"strides":[1,1],"padding":"same","data_format":"channels_last","dilation_rate":[1,1],"groups":1,"activation":"linear","use_bias":false,"kernel_initializer":{"class_name":"GlorotUniform","config":{"seed":null}},"bias_initializer":{"class_name":"Zeros","config":{}},"kernel_regularizer":null,"bias_regularizer":null,"activity_regularizer":null,"kernel_constraint":null,"bias_constraint":null},"name":"conv2d_62","inbound_nodes":[[["activation_61",0,0,{}]]]},{"class_name":"Conv2D","config":{"name":"conv2d_65","trainable":true,"dtype":"float32","filters":64,"kernel_size":[3,3],"strides":[1,1],"padding":"same","data_format":"channels_last","dilation_rate":[1,1],"groups":1,"activation":"linear","use_bias":false,"kernel_initializer":{"class_name":"GlorotUniform","config":{"seed":null}},"bias_initializer":{"class_name":"Zeros","config":{}},"kernel_regularizer":null,"bias_regularizer":null,"activity_regularizer":null,"kernel_constraint":null,"bias_constraint":null},"name":"conv2d_65","inbound_nodes":[[["activation_64",0,0,{}]]]},{"class_name":"BatchNormalization","config":{"name":"batch_normalization_60","trainable":true,"dtype":"float32","axis":3,"momentum":0.99,"epsilon":0.001,"center":true,"scale":false,"beta_initializer":{"class_name":"Zeros","config":{}},"gamma_initializer":{"class_name":"Ones","config":{}},"moving_mean_initializer":{"class_name":"Zeros","config":{}},"moving_variance_initializer":{"class_name":"Ones","config":{}},"beta_regularizer":null,"gamma_regularizer":null,"beta_constraint":null,"gamma_constraint":null},"name":"batch_normalization_60","inbound_nodes":[[["conv2d_60",0,0,{}]]]},{"class_name":"BatchNormalization","config":{"name":"batch_normalization_62","trainable":true,"dtype":"float32","axis":3,"momentum":0.99,"epsilon":0.001,"center":true,"scale":false,"beta_initializer":{"class_name":"Zeros","config":{}},"gamma_initializer":{"class_name":"Ones","config":{}},"moving_mean_initializer":{"class_name":"Zeros","config":{}},"moving_variance_initializer":{"class_name":"Ones","config":{}},"beta_regularizer":null,"gamma_regularizer":null,"beta_constraint":null,"gamma_constraint":null},"name":"batch_normalization_62","inbound_nodes":[[["conv2d_62",0,0,{}]]]},{"class_name":"BatchNormalization","config":{"name":"batch_normalization_65","trainable":true,"dtype":"float32","axis":3,"momentum":0.99,"epsilon":0.001,"center":true,"scale":false,"beta_initializer":{"class_name":"Zeros","config":{}},"gamma_initializer":{"class_name":"Ones","config":{}},"moving_mean_initializer":{"class_name":"Zeros","config":{}},"moving_variance_initializer":{"class_name":"Ones","config":{}},"beta_regularizer":null,"gamma_regularizer":null,"beta_constraint":null,"gamma_constraint":null},"name":"batch_normalization_65","inbound_nodes":[[["conv2d_65",0,0,{}]]]},{"class_name":"Activation","config":{"name":"activation_60","trainable":true,"dtype":"float32","activation":"relu"},"name":"activation_60","inbound_nodes":[[["batch_normalization_60",0,0,{}]]]},{"class_name":"Activation","config":{"name":"activation_62","trainable":true,"dtype":"float32","activation":"relu"},"name":"activation_62","inbound_nodes":[[["batch_normalization_62",0,0,{}]]]},{"class_name":"Activation","config":{"name":"activation_65","trainable":true,"dtype":"float32","activation":"relu"},"name":"activation_65","inbound_nodes":[[["batch_normalization_65",0,0,{}]]]},{"class_name":"Concatenate","config":{"name":"block35_9_mixed","trainable":true,"dtype":"float32","axis":3},"name":"block35_9_mixed","inbound_nodes":[[["activation_60",0,0,{}],["activation_62",0,0,{}],["activation_65",0,0,{}]]]},{"class_name":"Conv2D","config":{"name":"block35_9_conv","trainable":true,"dtype":"float32","filters":320,"kernel_size":[1,1],"strides":[1,1],"padding":"same","data_format":"channels_last","dilation_rate":[1,1],"groups":1,"activation":"linear","use_bias":true,"kernel_initializer":{"class_name":"GlorotUniform","config":{"seed":null}},"bias_initializer":{"class_name":"Zeros","config":{}},"kernel_regularizer":null,"bias_regularizer":null,"activity_regularizer":null,"kernel_constraint":null,"bias_constraint":null},"name":"block35_9_conv","inbound_nodes":[[["block35_9_mixed",0,0,{}]]]},{"class_name":"CustomScaleLayer","config":{"name":"custom_scale_layer_8","trainable":true,"dtype":"float32","scale":0.17},"name":"custom_scale_layer_8","inbound_nodes":[[["block35_8_ac",0,0,{}],["block35_9_conv",0,0,{}]]]},{"class_name":"Activation","config":{"name":"block35_9_ac","trainable":true,"dtype":"float32","activation":"relu"},"name":"block35_9_ac","inbound_nodes":[[["custom_scale_layer_8",0,0,{}]]]},{"class_name":"Conv2D","config":{"name":"conv2d_69","trainable":true,"dtype":"float32","filters":32,"kernel_size":[1,1],"strides":[1,1],"padding":"same","data_format":"channels_last","dilation_rate":[1,1],"groups":1,"activation":"linear","use_bias":false,"kernel_initializer":{"class_name":"GlorotUniform","config":{"seed":null}},"bias_initializer":{"class_name":"Zeros","config":{}},"kernel_regularizer":null,"bias_regularizer":null,"activity_regularizer":null,"kernel_constraint":null,"bias_constraint":null},"name":"conv2d_69","inbound_nodes":[[["block35_9_ac",0,0,{}]]]},{"class_name":"BatchNormalization","config":{"name":"batch_normalization_69","trainable":true,"dtype":"float32","axis":3,"momentum":0.99,"epsilon":0.001,"center":true,"scale":false,"beta_initializer":{"class_name":"Zeros","config":{}},"gamma_initializer":{"class_name":"Ones","config":{}},"moving_mean_initializer":{"class_name":"Zeros","config":{}},"moving_variance_initializer":{"class_name":"Ones","config":{}},"beta_regularizer":null,"gamma_regularizer":null,"beta_constraint":null,"gamma_constraint":null},"name":"batch_normalization_69","inbound_nodes":[[["conv2d_69",0,0,{}]]]},{"class_name":"Activation","config":{"name":"activation_69","trainable":true,"dtype":"float32","activation":"relu"},"name":"activation_69","inbound_nodes":[[["batch_normalization_69",0,0,{}]]]},{"class_name":"Conv2D","config":{"name":"conv2d_67","trainable":true,"dtype":"float32","filters":32,"kernel_size":[1,1],"strides":[1,1],"padding":"same","data_format":"channels_last","dilation_rate":[1,1],"groups":1,"activation":"linear","use_bias":false,"kernel_initializer":{"class_name":"GlorotUniform","config":{"seed":null}},"bias_initializer":{"class_name":"Zeros","config":{}},"kernel_regularizer":null,"bias_regularizer":null,"activity_regularizer":null,"kernel_constraint":null,"bias_constraint":null},"name":"conv2d_67","inbound_nodes":[[["block35_9_ac",0,0,{}]]]},{"class_name":"Conv2D","config":{"name":"conv2d_70","trainable":true,"dtype":"float32","filters":48,"kernel_size":[3,3],"strides":[1,1],"padding":"same","data_format":"channels_last","dilation_rate":[1,1],"groups":1,"activation":"linear","use_bias":false,"kernel_initializer":{"class_name":"GlorotUniform","config":{"seed":null}},"bias_initializer":{"class_name":"Zeros","config":{}},"kernel_regularizer":null,"bias_regularizer":null,"activity_regularizer":null,"kernel_constraint":null,"bias_constraint":null},"name":"conv2d_70","inbound_nodes":[[["activation_69",0,0,{}]]]},{"class_name":"BatchNormalization","config":{"name":"batch_normalization_67","trainable":true,"dtype":"float32","axis":3,"momentum":0.99,"epsilon":0.001,"center":true,"scale":false,"beta_initializer":{"class_name":"Zeros","config":{}},"gamma_initializer":{"class_name":"Ones","config":{}},"moving_mean_initializer":{"class_name":"Zeros","config":{}},"moving_variance_initializer":{"class_name":"Ones","config":{}},"beta_regularizer":null,"gamma_regularizer":null,"beta_constraint":null,"gamma_constraint":null},"name":"batch_normalization_67","inbound_nodes":[[["conv2d_67",0,0,{}]]]},{"class_name":"BatchNormalization","config":{"name":"batch_normalization_70","trainable":true,"dtype":"float32","axis":3,"momentum":0.99,"epsilon":0.001,"center":true,"scale":false,"beta_initializer":{"class_name":"Zeros","config":{}},"gamma_initializer":{"class_name":"Ones","config":{}},"moving_mean_initializer":{"class_name":"Zeros","config":{}},"moving_variance_initializer":{"class_name":"Ones","config":{}},"beta_regularizer":null,"gamma_regularizer":null,"beta_constraint":null,"gamma_constraint":null},"name":"batch_normalization_70","inbound_nodes":[[["conv2d_70",0,0,{}]]]},{"class_name":"Activation","config":{"name":"activation_67","trainable":true,"dtype":"float32","activation":"relu"},"name":"activation_67","inbound_nodes":[[["batch_normalization_67",0,0,{}]]]},{"class_name":"Activation","config":{"name":"activation_70","trainable":true,"dtype":"float32","activation":"relu"},"name":"activation_70","inbound_nodes":[[["batch_normalization_70",0,0,{}]]]},{"class_name":"Conv2D","config":{"name":"conv2d_66","trainable":true,"dtype":"float32","filters":32,"kernel_size":[1,1],"strides":[1,1],"padding":"same","data_format":"channels_last","dilation_rate":[1,1],"groups":1,"activation":"linear","use_bias":false,"kernel_initializer":{"class_name":"GlorotUniform","config":{"seed":null}},"bias_initializer":{"class_name":"Zeros","config":{}},"kernel_regularizer":null,"bias_regularizer":null,"activity_regularizer":null,"kernel_constraint":null,"bias_constraint":null},"name":"conv2d_66","inbound_nodes":[[["block35_9_ac",0,0,{}]]]},{"class_name":"Conv2D","config":{"name":"conv2d_68","trainable":true,"dtype":"float32","filters":32,"kernel_size":[3,3],"strides":[1,1],"padding":"same","data_format":"channels_last","dilation_rate":[1,1],"groups":1,"activation":"linear","use_bias":false,"kernel_initializer":{"class_name":"GlorotUniform","config":{"seed":null}},"bias_initializer":{"class_name":"Zeros","config":{}},"kernel_regularizer":null,"bias_regularizer":null,"activity_regularizer":null,"kernel_constraint":null,"bias_constraint":null},"name":"conv2d_68","inbound_nodes":[[["activation_67",0,0,{}]]]},{"class_name":"Conv2D","config":{"name":"conv2d_71","trainable":true,"dtype":"float32","filters":64,"kernel_size":[3,3],"strides":[1,1],"padding":"same","data_format":"channels_last","dilation_rate":[1,1],"groups":1,"activation":"linear","use_bias":false,"kernel_initializer":{"class_name":"GlorotUniform","config":{"seed":null}},"bias_initializer":{"class_name":"Zeros","config":{}},"kernel_regularizer":null,"bias_regularizer":null,"activity_regularizer":null,"kernel_constraint":null,"bias_constraint":null},"name":"conv2d_71","inbound_nodes":[[["activation_70",0,0,{}]]]},{"class_name":"BatchNormalization","config":{"name":"batch_normalization_66","trainable":true,"dtype":"float32","axis":3,"momentum":0.99,"epsilon":0.001,"center":true,"scale":false,"beta_initializer":{"class_name":"Zeros","config":{}},"gamma_initializer":{"class_name":"Ones","config":{}},"moving_mean_initializer":{"class_name":"Zeros","config":{}},"moving_variance_initializer":{"class_name":"Ones","config":{}},"beta_regularizer":null,"gamma_regularizer":null,"beta_constraint":null,"gamma_constraint":null},"name":"batch_normalization_66","inbound_nodes":[[["conv2d_66",0,0,{}]]]},{"class_name":"BatchNormalization","config":{"name":"batch_normalization_68","trainable":true,"dtype":"float32","axis":3,"momentum":0.99,"epsilon":0.001,"center":true,"scale":false,"beta_initializer":{"class_name":"Zeros","config":{}},"gamma_initializer":{"class_name":"Ones","config":{}},"moving_mean_initializer":{"class_name":"Zeros","config":{}},"moving_variance_initializer":{"class_name":"Ones","config":{}},"beta_regularizer":null,"gamma_regularizer":null,"beta_constraint":null,"gamma_constraint":null},"name":"batch_normalization_68","inbound_nodes":[[["conv2d_68",0,0,{}]]]},{"class_name":"BatchNormalization","config":{"name":"batch_normalization_71","trainable":true,"dtype":"float32","axis":3,"momentum":0.99,"epsilon":0.001,"center":true,"scale":false,"beta_initializer":{"class_name":"Zeros","config":{}},"gamma_initializer":{"class_name":"Ones","config":{}},"moving_mean_initializer":{"class_name":"Zeros","config":{}},"moving_variance_initializer":{"class_name":"Ones","config":{}},"beta_regularizer":null,"gamma_regularizer":null,"beta_constraint":null,"gamma_constraint":null},"name":"batch_normalization_71","inbound_nodes":[[["conv2d_71",0,0,{}]]]},{"class_name":"Activation","config":{"name":"activation_66","trainable":true,"dtype":"float32","activation":"relu"},"name":"activation_66","inbound_nodes":[[["batch_normalization_66",0,0,{}]]]},{"class_name":"Activation","config":{"name":"activation_68","trainable":true,"dtype":"float32","activation":"relu"},"name":"activation_68","inbound_nodes":[[["batch_normalization_68",0,0,{}]]]},{"class_name":"Activation","config":{"name":"activation_71","trainable":true,"dtype":"float32","activation":"relu"},"name":"activation_71","inbound_nodes":[[["batch_normalization_71",0,0,{}]]]},{"class_name":"Concatenate","config":{"name":"block35_10_mixed","trainable":true,"dtype":"float32","axis":3},"name":"block35_10_mixed","inbound_nodes":[[["activation_66",0,0,{}],["activation_68",0,0,{}],["activation_71",0,0,{}]]]},{"class_name":"Conv2D","config":{"name":"block35_10_conv","trainable":true,"dtype":"float32","filters":320,"kernel_size":[1,1],"strides":[1,1],"padding":"same","data_format":"channels_last","dilation_rate":[1,1],"groups":1,"activation":"linear","use_bias":true,"kernel_initializer":{"class_name":"GlorotUniform","config":{"seed":null}},"bias_initializer":{"class_name":"Zeros","config":{}},"kernel_regularizer":null,"bias_regularizer":null,"activity_regularizer":null,"kernel_constraint":null,"bias_constraint":null},"name":"block35_10_conv","inbound_nodes":[[["block35_10_mixed",0,0,{}]]]},{"class_name":"CustomScaleLayer","config":{"name":"custom_scale_layer_9","trainable":true,"dtype":"float32","scale":0.17},"name":"custom_scale_layer_9","inbound_nodes":[[["block35_9_ac",0,0,{}],["block35_10_conv",0,0,{}]]]},{"class_name":"Activation","config":{"name":"block35_10_ac","trainable":true,"dtype":"float32","activation":"relu"},"name":"block35_10_ac","inbound_nodes":[[["custom_scale_layer_9",0,0,{}]]]},{"class_name":"Conv2D","config":{"name":"conv2d_73","trainable":true,"dtype":"float32","filters":256,"kernel_size":[1,1],"strides":[1,1],"padding":"same","data_format":"channels_last","dilation_rate":[1,1],"groups":1,"activation":"linear","use_bias":false,"kernel_initializer":{"class_name":"GlorotUniform","config":{"seed":null}},"bias_initializer":{"class_name":"Zeros","config":{}},"kernel_regularizer":null,"bias_regularizer":null,"activity_regularizer":null,"kernel_constraint":null,"bias_constraint":null},"name":"conv2d_73","inbound_nodes":[[["block35_10_ac",0,0,{}]]]},{"class_name":"BatchNormalization","config":{"name":"batch_normalization_73","trainable":true,"dtype":"float32","axis":3,"momentum":0.99,"epsilon":0.001,"center":true,"scale":false,"beta_initializer":{"class_name":"Zeros","config":{}},"gamma_initializer":{"class_name":"Ones","config":{}},"moving_mean_initializer":{"class_name":"Zeros","config":{}},"moving_variance_initializer":{"class_name":"Ones","config":{}},"beta_regularizer":null,"gamma_regularizer":null,"beta_constraint":null,"gamma_constraint":null},"name":"batch_normalization_73","inbound_nodes":[[["conv2d_73",0,0,{}]]]},{"class_name":"Activation","config":{"name":"activation_73","trainable":true,"dtype":"float32","activation":"relu"},"name":"activation_73","inbound_nodes":[[["batch_normalization_73",0,0,{}]]]},{"class_name":"Conv2D","config":{"name":"conv2d_74","trainable":true,"dtype":"float32","filters":256,"kernel_size":[3,3],"strides":[1,1],"padding":"same","data_format":"channels_last","dilation_rate":[1,1],"groups":1,"activation":"linear","use_bias":false,"kernel_initializer":{"class_name":"GlorotUniform","config":{"seed":null}},"bias_initializer":{"class_name":"Zeros","config":{}},"kernel_regularizer":null,"bias_regularizer":null,"activity_regularizer":null,"kernel_constraint":null,"bias_constraint":null},"name":"conv2d_74","inbound_nodes":[[["activation_73",0,0,{}]]]},{"class_name":"BatchNormalization","config":{"name":"batch_normalization_74","trainable":true,"dtype":"float32","axis":3,"momentum":0.99,"epsilon":0.001,"center":true,"scale":false,"beta_initializer":{"class_name":"Zeros","config":{}},"gamma_initializer":{"class_name":"Ones","config":{}},"moving_mean_initializer":{"class_name":"Zeros","config":{}},"moving_variance_initializer":{"class_name":"Ones","config":{}},"beta_regularizer":null,"gamma_regularizer":null,"beta_constraint":null,"gamma_constraint":null},"name":"batch_normalization_74","inbound_nodes":[[["conv2d_74",0,0,{}]]]},{"class_name":"Activation","config":{"name":"activation_74","trainable":true,"dtype":"float32","activation":"relu"},"name":"activation_74","inbound_nodes":[[["batch_normalization_74",0,0,{}]]]},{"class_name":"Conv2D","config":{"name":"conv2d_72","trainable":true,"dtype":"float32","filters":384,"kernel_size":[3,3],"strides":[2,2],"padding":"valid","data_format":"channels_last","dilation_rate":[1,1],"groups":1,"activation":"linear","use_bias":false,"kernel_initializer":{"class_name":"GlorotUniform","config":{"seed":null}},"bias_initializer":{"class_name":"Zeros","config":{}},"kernel_regularizer":null,"bias_regularizer":null,"activity_regularizer":null,"kernel_constraint":null,"bias_constraint":null},"name":"conv2d_72","inbound_nodes":[[["block35_10_ac",0,0,{}]]]},{"class_name":"Conv2D","config":{"name":"conv2d_75","trainable":true,"dtype":"float32","filters":384,"kernel_size":[3,3],"strides":[2,2],"padding":"valid","data_format":"channels_last","dilation_rate":[1,1],"groups":1,"activation":"linear","use_bias":false,"kernel_initializer":{"class_name":"GlorotUniform","config":{"seed":null}},"bias_initializer":{"class_name":"Zeros","config":{}},"kernel_regularizer":null,"bias_regularizer":null,"activity_regularizer":null,"kernel_constraint":null,"bias_constraint":null},"name":"conv2d_75","inbound_nodes":[[["activation_74",0,0,{}]]]},{"class_name":"BatchNormalization","config":{"name":"batch_normalization_72","trainable":true,"dtype":"float32","axis":3,"momentum":0.99,"epsilon":0.001,"center":true,"scale":false,"beta_initializer":{"class_name":"Zeros","config":{}},"gamma_initializer":{"class_name":"Ones","config":{}},"moving_mean_initializer":{"class_name":"Zeros","config":{}},"moving_variance_initializer":{"class_name":"Ones","config":{}},"beta_regularizer":null,"gamma_regularizer":null,"beta_constraint":null,"gamma_constraint":null},"name":"batch_normalization_72","inbound_nodes":[[["conv2d_72",0,0,{}]]]},{"class_name":"BatchNormalization","config":{"name":"batch_normalization_75","trainable":true,"dtype":"float32","axis":3,"momentum":0.99,"epsilon":0.001,"center":true,"scale":false,"beta_initializer":{"class_name":"Zeros","config":{}},"gamma_initializer":{"class_name":"Ones","config":{}},"moving_mean_initializer":{"class_name":"Zeros","config":{}},"moving_variance_initializer":{"class_name":"Ones","config":{}},"beta_regularizer":null,"gamma_regularizer":null,"beta_constraint":null,"gamma_constraint":null},"name":"batch_normalization_75","inbound_nodes":[[["conv2d_75",0,0,{}]]]},{"class_name":"Activation","config":{"name":"activation_72","trainable":true,"dtype":"float32","activation":"relu"},"name":"activation_72","inbound_nodes":[[["batch_normalization_72",0,0,{}]]]},{"class_name":"Activation","config":{"name":"activation_75","trainable":true,"dtype":"float32","activation":"relu"},"name":"activation_75","inbound_nodes":[[["batch_normalization_75",0,0,{}]]]},{"class_name":"MaxPooling2D","config":{"name":"max_pooling2d_2","trainable":true,"dtype":"float32","pool_size":[3,3],"padding":"valid","strides":[2,2],"data_format":"channels_last"},"name":"max_pooling2d_2","inbound_nodes":[[["block35_10_ac",0,0,{}]]]},{"class_name":"Concatenate","config":{"name":"mixed_6a","trainable":true,"dtype":"float32","axis":3},"name":"mixed_6a","inbound_nodes":[[["activation_72",0,0,{}],["activation_75",0,0,{}],["max_pooling2d_2",0,0,{}]]]},{"class_name":"Conv2D","config":{"name":"conv2d_77","trainable":true,"dtype":"float32","filters":128,"kernel_size":[1,1],"strides":[1,1],"padding":"same","data_format":"channels_last","dilation_rate":[1,1],"groups":1,"activation":"linear","use_bias":false,"kernel_initializer":{"class_name":"GlorotUniform","config":{"seed":null}},"bias_initializer":{"class_name":"Zeros","config":{}},"kernel_regularizer":null,"bias_regularizer":null,"activity_regularizer":null,"kernel_constraint":null,"bias_constraint":null},"name":"conv2d_77","inbound_nodes":[[["mixed_6a",0,0,{}]]]},{"class_name":"BatchNormalization","config":{"name":"batch_normalization_77","trainable":true,"dtype":"float32","axis":3,"momentum":0.99,"epsilon":0.001,"center":true,"scale":false,"beta_initializer":{"class_name":"Zeros","config":{}},"gamma_initializer":{"class_name":"Ones","config":{}},"moving_mean_initializer":{"class_name":"Zeros","config":{}},"moving_variance_initializer":{"class_name":"Ones","config":{}},"beta_regularizer":null,"gamma_regularizer":null,"beta_constraint":null,"gamma_constraint":null},"name":"batch_normalization_77","inbound_nodes":[[["conv2d_77",0,0,{}]]]},{"class_name":"Activation","config":{"name":"activation_77","trainable":true,"dtype":"float32","activation":"relu"},"name":"activation_77","inbound_nodes":[[["batch_normalization_77",0,0,{}]]]},{"class_name":"Conv2D","config":{"name":"conv2d_78","trainable":true,"dtype":"float32","filters":160,"kernel_size":[1,7],"strides":[1,1],"padding":"same","data_format":"channels_last","dilation_rate":[1,1],"groups":1,"activation":"linear","use_bias":false,"kernel_initializer":{"class_name":"GlorotUniform","config":{"seed":null}},"bias_initializer":{"class_name":"Zeros","config":{}},"kernel_regularizer":null,"bias_regularizer":null,"activity_regularizer":null,"kernel_constraint":null,"bias_constraint":null},"name":"conv2d_78","inbound_nodes":[[["activation_77",0,0,{}]]]},{"class_name":"BatchNormalization","config":{"name":"batch_normalization_78","trainable":true,"dtype":"float32","axis":3,"momentum":0.99,"epsilon":0.001,"center":true,"scale":false,"beta_initializer":{"class_name":"Zeros","config":{}},"gamma_initializer":{"class_name":"Ones","config":{}},"moving_mean_initializer":{"class_name":"Zeros","config":{}},"moving_variance_initializer":{"class_name":"Ones","config":{}},"beta_regularizer":null,"gamma_regularizer":null,"beta_constraint":null,"gamma_constraint":null},"name":"batch_normalization_78","inbound_nodes":[[["conv2d_78",0,0,{}]]]},{"class_name":"Activation","config":{"name":"activation_78","trainable":true,"dtype":"float32","activation":"relu"},"name":"activation_78","inbound_nodes":[[["batch_normalization_78",0,0,{}]]]},{"class_name":"Conv2D","config":{"name":"conv2d_76","trainable":true,"dtype":"float32","filters":192,"kernel_size":[1,1],"strides":[1,1],"padding":"same","data_format":"channels_last","dilation_rate":[1,1],"groups":1,"activation":"linear","use_bias":false,"kernel_initializer":{"class_name":"GlorotUniform","config":{"seed":null}},"bias_initializer":{"class_name":"Zeros","config":{}},"kernel_regularizer":null,"bias_regularizer":null,"activity_regularizer":null,"kernel_constraint":null,"bias_constraint":null},"name":"conv2d_76","inbound_nodes":[[["mixed_6a",0,0,{}]]]},{"class_name":"Conv2D","config":{"name":"conv2d_79","trainable":true,"dtype":"float32","filters":192,"kernel_size":[7,1],"strides":[1,1],"padding":"same","data_format":"channels_last","dilation_rate":[1,1],"groups":1,"activation":"linear","use_bias":false,"kernel_initializer":{"class_name":"GlorotUniform","config":{"seed":null}},"bias_initializer":{"class_name":"Zeros","config":{}},"kernel_regularizer":null,"bias_regularizer":null,"activity_regularizer":null,"kernel_constraint":null,"bias_constraint":null},"name":"conv2d_79","inbound_nodes":[[["activation_78",0,0,{}]]]},{"class_name":"BatchNormalization","config":{"name":"batch_normalization_76","trainable":true,"dtype":"float32","axis":3,"momentum":0.99,"epsilon":0.001,"center":true,"scale":false,"beta_initializer":{"class_name":"Zeros","config":{}},"gamma_initializer":{"class_name":"Ones","config":{}},"moving_mean_initializer":{"class_name":"Zeros","config":{}},"moving_variance_initializer":{"class_name":"Ones","config":{}},"beta_regularizer":null,"gamma_regularizer":null,"beta_constraint":null,"gamma_constraint":null},"name":"batch_normalization_76","inbound_nodes":[[["conv2d_76",0,0,{}]]]},{"class_name":"BatchNormalization","config":{"name":"batch_normalization_79","trainable":true,"dtype":"float32","axis":3,"momentum":0.99,"epsilon":0.001,"center":true,"scale":false,"beta_initializer":{"class_name":"Zeros","config":{}},"gamma_initializer":{"class_name":"Ones","config":{}},"moving_mean_initializer":{"class_name":"Zeros","config":{}},"moving_variance_initializer":{"class_name":"Ones","config":{}},"beta_regularizer":null,"gamma_regularizer":null,"beta_constraint":null,"gamma_constraint":null},"name":"batch_normalization_79","inbound_nodes":[[["conv2d_79",0,0,{}]]]},{"class_name":"Activation","config":{"name":"activation_76","trainable":true,"dtype":"float32","activation":"relu"},"name":"activation_76","inbound_nodes":[[["batch_normalization_76",0,0,{}]]]},{"class_name":"Activation","config":{"name":"activation_79","trainable":true,"dtype":"float32","activation":"relu"},"name":"activation_79","inbound_nodes":[[["batch_normalization_79",0,0,{}]]]},{"class_name":"Concatenate","config":{"name":"block17_1_mixed","trainable":true,"dtype":"float32","axis":3},"name":"block17_1_mixed","inbound_nodes":[[["activation_76",0,0,{}],["activation_79",0,0,{}]]]},{"class_name":"Conv2D","config":{"name":"block17_1_conv","trainable":true,"dtype":"float32","filters":1088,"kernel_size":[1,1],"strides":[1,1],"padding":"same","data_format":"channels_last","dilation_rate":[1,1],"groups":1,"activation":"linear","use_bias":true,"kernel_initializer":{"class_name":"GlorotUniform","config":{"seed":null}},"bias_initializer":{"class_name":"Zeros","config":{}},"kernel_regularizer":null,"bias_regularizer":null,"activity_regularizer":null,"kernel_constraint":null,"bias_constraint":null},"name":"block17_1_conv","inbound_nodes":[[["block17_1_mixed",0,0,{}]]]},{"class_name":"CustomScaleLayer","config":{"name":"custom_scale_layer_10","trainable":true,"dtype":"float32","scale":0.1},"name":"custom_scale_layer_10","inbound_nodes":[[["mixed_6a",0,0,{}],["block17_1_conv",0,0,{}]]]},{"class_name":"Activation","config":{"name":"block17_1_ac","trainable":true,"dtype":"float32","activation":"relu"},"name":"block17_1_ac","inbound_nodes":[[["custom_scale_layer_10",0,0,{}]]]},{"class_name":"Conv2D","config":{"name":"conv2d_81","trainable":true,"dtype":"float32","filters":128,"kernel_size":[1,1],"strides":[1,1],"padding":"same","data_format":"channels_last","dilation_rate":[1,1],"groups":1,"activation":"linear","use_bias":false,"kernel_initializer":{"class_name":"GlorotUniform","config":{"seed":null}},"bias_initializer":{"class_name":"Zeros","config":{}},"kernel_regularizer":null,"bias_regularizer":null,"activity_regularizer":null,"kernel_constraint":null,"bias_constraint":null},"name":"conv2d_81","inbound_nodes":[[["block17_1_ac",0,0,{}]]]},{"class_name":"BatchNormalization","config":{"name":"batch_normalization_81","trainable":true,"dtype":"float32","axis":3,"momentum":0.99,"epsilon":0.001,"center":true,"scale":false,"beta_initializer":{"class_name":"Zeros","config":{}},"gamma_initializer":{"class_name":"Ones","config":{}},"moving_mean_initializer":{"class_name":"Zeros","config":{}},"moving_variance_initializer":{"class_name":"Ones","config":{}},"beta_regularizer":null,"gamma_regularizer":null,"beta_constraint":null,"gamma_constraint":null},"name":"batch_normalization_81","inbound_nodes":[[["conv2d_81",0,0,{}]]]},{"class_name":"Activation","config":{"name":"activation_81","trainable":true,"dtype":"float32","activation":"relu"},"name":"activation_81","inbound_nodes":[[["batch_normalization_81",0,0,{}]]]},{"class_name":"Conv2D","config":{"name":"conv2d_82","trainable":true,"dtype":"float32","filters":160,"kernel_size":[1,7],"strides":[1,1],"padding":"same","data_format":"channels_last","dilation_rate":[1,1],"groups":1,"activation":"linear","use_bias":false,"kernel_initializer":{"class_name":"GlorotUniform","config":{"seed":null}},"bias_initializer":{"class_name":"Zeros","config":{}},"kernel_regularizer":null,"bias_regularizer":null,"activity_regularizer":null,"kernel_constraint":null,"bias_constraint":null},"name":"conv2d_82","inbound_nodes":[[["activation_81",0,0,{}]]]},{"class_name":"BatchNormalization","config":{"name":"batch_normalization_82","trainable":true,"dtype":"float32","axis":3,"momentum":0.99,"epsilon":0.001,"center":true,"scale":false,"beta_initializer":{"class_name":"Zeros","config":{}},"gamma_initializer":{"class_name":"Ones","config":{}},"moving_mean_initializer":{"class_name":"Zeros","config":{}},"moving_variance_initializer":{"class_name":"Ones","config":{}},"beta_regularizer":null,"gamma_regularizer":null,"beta_constraint":null,"gamma_constraint":null},"name":"batch_normalization_82","inbound_nodes":[[["conv2d_82",0,0,{}]]]},{"class_name":"Activation","config":{"name":"activation_82","trainable":true,"dtype":"float32","activation":"relu"},"name":"activation_82","inbound_nodes":[[["batch_normalization_82",0,0,{}]]]},{"class_name":"Conv2D","config":{"name":"conv2d_80","trainable":true,"dtype":"float32","filters":192,"kernel_size":[1,1],"strides":[1,1],"padding":"same","data_format":"channels_last","dilation_rate":[1,1],"groups":1,"activation":"linear","use_bias":false,"kernel_initializer":{"class_name":"GlorotUniform","config":{"seed":null}},"bias_initializer":{"class_name":"Zeros","config":{}},"kernel_regularizer":null,"bias_regularizer":null,"activity_regularizer":null,"kernel_constraint":null,"bias_constraint":null},"name":"conv2d_80","inbound_nodes":[[["block17_1_ac",0,0,{}]]]},{"class_name":"Conv2D","config":{"name":"conv2d_83","trainable":true,"dtype":"float32","filters":192,"kernel_size":[7,1],"strides":[1,1],"padding":"same","data_format":"channels_last","dilation_rate":[1,1],"groups":1,"activation":"linear","use_bias":false,"kernel_initializer":{"class_name":"GlorotUniform","config":{"seed":null}},"bias_initializer":{"class_name":"Zeros","config":{}},"kernel_regularizer":null,"bias_regularizer":null,"activity_regularizer":null,"kernel_constraint":null,"bias_constraint":null},"name":"conv2d_83","inbound_nodes":[[["activation_82",0,0,{}]]]},{"class_name":"BatchNormalization","config":{"name":"batch_normalization_80","trainable":true,"dtype":"float32","axis":3,"momentum":0.99,"epsilon":0.001,"center":true,"scale":false,"beta_initializer":{"class_name":"Zeros","config":{}},"gamma_initializer":{"class_name":"Ones","config":{}},"moving_mean_initializer":{"class_name":"Zeros","config":{}},"moving_variance_initializer":{"class_name":"Ones","config":{}},"beta_regularizer":null,"gamma_regularizer":null,"beta_constraint":null,"gamma_constraint":null},"name":"batch_normalization_80","inbound_nodes":[[["conv2d_80",0,0,{}]]]},{"class_name":"BatchNormalization","config":{"name":"batch_normalization_83","trainable":true,"dtype":"float32","axis":3,"momentum":0.99,"epsilon":0.001,"center":true,"scale":false,"beta_initializer":{"class_name":"Zeros","config":{}},"gamma_initializer":{"class_name":"Ones","config":{}},"moving_mean_initializer":{"class_name":"Zeros","config":{}},"moving_variance_initializer":{"class_name":"Ones","config":{}},"beta_regularizer":null,"gamma_regularizer":null,"beta_constraint":null,"gamma_constraint":null},"name":"batch_normalization_83","inbound_nodes":[[["conv2d_83",0,0,{}]]]},{"class_name":"Activation","config":{"name":"activation_80","trainable":true,"dtype":"float32","activation":"relu"},"name":"activation_80","inbound_nodes":[[["batch_normalization_80",0,0,{}]]]},{"class_name":"Activation","config":{"name":"activation_83","trainable":true,"dtype":"float32","activation":"relu"},"name":"activation_83","inbound_nodes":[[["batch_normalization_83",0,0,{}]]]},{"class_name":"Concatenate","config":{"name":"block17_2_mixed","trainable":true,"dtype":"float32","axis":3},"name":"block17_2_mixed","inbound_nodes":[[["activation_80",0,0,{}],["activation_83",0,0,{}]]]},{"class_name":"Conv2D","config":{"name":"block17_2_conv","trainable":true,"dtype":"float32","filters":1088,"kernel_size":[1,1],"strides":[1,1],"padding":"same","data_format":"channels_last","dilation_rate":[1,1],"groups":1,"activation":"linear","use_bias":true,"kernel_initializer":{"class_name":"GlorotUniform","config":{"seed":null}},"bias_initializer":{"class_name":"Zeros","config":{}},"kernel_regularizer":null,"bias_regularizer":null,"activity_regularizer":null,"kernel_constraint":null,"bias_constraint":null},"name":"block17_2_conv","inbound_nodes":[[["block17_2_mixed",0,0,{}]]]},{"class_name":"CustomScaleLayer","config":{"name":"custom_scale_layer_11","trainable":true,"dtype":"float32","scale":0.1},"name":"custom_scale_layer_11","inbound_nodes":[[["block17_1_ac",0,0,{}],["block17_2_conv",0,0,{}]]]},{"class_name":"Activation","config":{"name":"block17_2_ac","trainable":true,"dtype":"float32","activation":"relu"},"name":"block17_2_ac","inbound_nodes":[[["custom_scale_layer_11",0,0,{}]]]},{"class_name":"Conv2D","config":{"name":"conv2d_85","trainable":true,"dtype":"float32","filters":128,"kernel_size":[1,1],"strides":[1,1],"padding":"same","data_format":"channels_last","dilation_rate":[1,1],"groups":1,"activation":"linear","use_bias":false,"kernel_initializer":{"class_name":"GlorotUniform","config":{"seed":null}},"bias_initializer":{"class_name":"Zeros","config":{}},"kernel_regularizer":null,"bias_regularizer":null,"activity_regularizer":null,"kernel_constraint":null,"bias_constraint":null},"name":"conv2d_85","inbound_nodes":[[["block17_2_ac",0,0,{}]]]},{"class_name":"BatchNormalization","config":{"name":"batch_normalization_85","trainable":true,"dtype":"float32","axis":3,"momentum":0.99,"epsilon":0.001,"center":true,"scale":false,"beta_initializer":{"class_name":"Zeros","config":{}},"gamma_initializer":{"class_name":"Ones","config":{}},"moving_mean_initializer":{"class_name":"Zeros","config":{}},"moving_variance_initializer":{"class_name":"Ones","config":{}},"beta_regularizer":null,"gamma_regularizer":null,"beta_constraint":null,"gamma_constraint":null},"name":"batch_normalization_85","inbound_nodes":[[["conv2d_85",0,0,{}]]]},{"class_name":"Activation","config":{"name":"activation_85","trainable":true,"dtype":"float32","activation":"relu"},"name":"activation_85","inbound_nodes":[[["batch_normalization_85",0,0,{}]]]},{"class_name":"Conv2D","config":{"name":"conv2d_86","trainable":true,"dtype":"float32","filters":160,"kernel_size":[1,7],"strides":[1,1],"padding":"same","data_format":"channels_last","dilation_rate":[1,1],"groups":1,"activation":"linear","use_bias":false,"kernel_initializer":{"class_name":"GlorotUniform","config":{"seed":null}},"bias_initializer":{"class_name":"Zeros","config":{}},"kernel_regularizer":null,"bias_regularizer":null,"activity_regularizer":null,"kernel_constraint":null,"bias_constraint":null},"name":"conv2d_86","inbound_nodes":[[["activation_85",0,0,{}]]]},{"class_name":"BatchNormalization","config":{"name":"batch_normalization_86","trainable":true,"dtype":"float32","axis":3,"momentum":0.99,"epsilon":0.001,"center":true,"scale":false,"beta_initializer":{"class_name":"Zeros","config":{}},"gamma_initializer":{"class_name":"Ones","config":{}},"moving_mean_initializer":{"class_name":"Zeros","config":{}},"moving_variance_initializer":{"class_name":"Ones","config":{}},"beta_regularizer":null,"gamma_regularizer":null,"beta_constraint":null,"gamma_constraint":null},"name":"batch_normalization_86","inbound_nodes":[[["conv2d_86",0,0,{}]]]},{"class_name":"Activation","config":{"name":"activation_86","trainable":true,"dtype":"float32","activation":"relu"},"name":"activation_86","inbound_nodes":[[["batch_normalization_86",0,0,{}]]]},{"class_name":"Conv2D","config":{"name":"conv2d_84","trainable":true,"dtype":"float32","filters":192,"kernel_size":[1,1],"strides":[1,1],"padding":"same","data_format":"channels_last","dilation_rate":[1,1],"groups":1,"activation":"linear","use_bias":false,"kernel_initializer":{"class_name":"GlorotUniform","config":{"seed":null}},"bias_initializer":{"class_name":"Zeros","config":{}},"kernel_regularizer":null,"bias_regularizer":null,"activity_regularizer":null,"kernel_constraint":null,"bias_constraint":null},"name":"conv2d_84","inbound_nodes":[[["block17_2_ac",0,0,{}]]]},{"class_name":"Conv2D","config":{"name":"conv2d_87","trainable":true,"dtype":"float32","filters":192,"kernel_size":[7,1],"strides":[1,1],"padding":"same","data_format":"channels_last","dilation_rate":[1,1],"groups":1,"activation":"linear","use_bias":false,"kernel_initializer":{"class_name":"GlorotUniform","config":{"seed":null}},"bias_initializer":{"class_name":"Zeros","config":{}},"kernel_regularizer":null,"bias_regularizer":null,"activity_regularizer":null,"kernel_constraint":null,"bias_constraint":null},"name":"conv2d_87","inbound_nodes":[[["activation_86",0,0,{}]]]},{"class_name":"BatchNormalization","config":{"name":"batch_normalization_84","trainable":true,"dtype":"float32","axis":3,"momentum":0.99,"epsilon":0.001,"center":true,"scale":false,"beta_initializer":{"class_name":"Zeros","config":{}},"gamma_initializer":{"class_name":"Ones","config":{}},"moving_mean_initializer":{"class_name":"Zeros","config":{}},"moving_variance_initializer":{"class_name":"Ones","config":{}},"beta_regularizer":null,"gamma_regularizer":null,"beta_constraint":null,"gamma_constraint":null},"name":"batch_normalization_84","inbound_nodes":[[["conv2d_84",0,0,{}]]]},{"class_name":"BatchNormalization","config":{"name":"batch_normalization_87","trainable":true,"dtype":"float32","axis":3,"momentum":0.99,"epsilon":0.001,"center":true,"scale":false,"beta_initializer":{"class_name":"Zeros","config":{}},"gamma_initializer":{"class_name":"Ones","config":{}},"moving_mean_initializer":{"class_name":"Zeros","config":{}},"moving_variance_initializer":{"class_name":"Ones","config":{}},"beta_regularizer":null,"gamma_regularizer":null,"beta_constraint":null,"gamma_constraint":null},"name":"batch_normalization_87","inbound_nodes":[[["conv2d_87",0,0,{}]]]},{"class_name":"Activation","config":{"name":"activation_84","trainable":true,"dtype":"float32","activation":"relu"},"name":"activation_84","inbound_nodes":[[["batch_normalization_84",0,0,{}]]]},{"class_name":"Activation","config":{"name":"activation_87","trainable":true,"dtype":"float32","activation":"relu"},"name":"activation_87","inbound_nodes":[[["batch_normalization_87",0,0,{}]]]},{"class_name":"Concatenate","config":{"name":"block17_3_mixed","trainable":true,"dtype":"float32","axis":3},"name":"block17_3_mixed","inbound_nodes":[[["activation_84",0,0,{}],["activation_87",0,0,{}]]]},{"class_name":"Conv2D","config":{"name":"block17_3_conv","trainable":true,"dtype":"float32","filters":1088,"kernel_size":[1,1],"strides":[1,1],"padding":"same","data_format":"channels_last","dilation_rate":[1,1],"groups":1,"activation":"linear","use_bias":true,"kernel_initializer":{"class_name":"GlorotUniform","config":{"seed":null}},"bias_initializer":{"class_name":"Zeros","config":{}},"kernel_regularizer":null,"bias_regularizer":null,"activity_regularizer":null,"kernel_constraint":null,"bias_constraint":null},"name":"block17_3_conv","inbound_nodes":[[["block17_3_mixed",0,0,{}]]]},{"class_name":"CustomScaleLayer","config":{"name":"custom_scale_layer_12","trainable":true,"dtype":"float32","scale":0.1},"name":"custom_scale_layer_12","inbound_nodes":[[["block17_2_ac",0,0,{}],["block17_3_conv",0,0,{}]]]},{"class_name":"Activation","config":{"name":"block17_3_ac","trainable":true,"dtype":"float32","activation":"relu"},"name":"block17_3_ac","inbound_nodes":[[["custom_scale_layer_12",0,0,{}]]]},{"class_name":"Conv2D","config":{"name":"conv2d_89","trainable":true,"dtype":"float32","filters":128,"kernel_size":[1,1],"strides":[1,1],"padding":"same","data_format":"channels_last","dilation_rate":[1,1],"groups":1,"activation":"linear","use_bias":false,"kernel_initializer":{"class_name":"GlorotUniform","config":{"seed":null}},"bias_initializer":{"class_name":"Zeros","config":{}},"kernel_regularizer":null,"bias_regularizer":null,"activity_regularizer":null,"kernel_constraint":null,"bias_constraint":null},"name":"conv2d_89","inbound_nodes":[[["block17_3_ac",0,0,{}]]]},{"class_name":"BatchNormalization","config":{"name":"batch_normalization_89","trainable":true,"dtype":"float32","axis":3,"momentum":0.99,"epsilon":0.001,"center":true,"scale":false,"beta_initializer":{"class_name":"Zeros","config":{}},"gamma_initializer":{"class_name":"Ones","config":{}},"moving_mean_initializer":{"class_name":"Zeros","config":{}},"moving_variance_initializer":{"class_name":"Ones","config":{}},"beta_regularizer":null,"gamma_regularizer":null,"beta_constraint":null,"gamma_constraint":null},"name":"batch_normalization_89","inbound_nodes":[[["conv2d_89",0,0,{}]]]},{"class_name":"Activation","config":{"name":"activation_89","trainable":true,"dtype":"float32","activation":"relu"},"name":"activation_89","inbound_nodes":[[["batch_normalization_89",0,0,{}]]]},{"class_name":"Conv2D","config":{"name":"conv2d_90","trainable":true,"dtype":"float32","filters":160,"kernel_size":[1,7],"strides":[1,1],"padding":"same","data_format":"channels_last","dilation_rate":[1,1],"groups":1,"activation":"linear","use_bias":false,"kernel_initializer":{"class_name":"GlorotUniform","config":{"seed":null}},"bias_initializer":{"class_name":"Zeros","config":{}},"kernel_regularizer":null,"bias_regularizer":null,"activity_regularizer":null,"kernel_constraint":null,"bias_constraint":null},"name":"conv2d_90","inbound_nodes":[[["activation_89",0,0,{}]]]},{"class_name":"BatchNormalization","config":{"name":"batch_normalization_90","trainable":true,"dtype":"float32","axis":3,"momentum":0.99,"epsilon":0.001,"center":true,"scale":false,"beta_initializer":{"class_name":"Zeros","config":{}},"gamma_initializer":{"class_name":"Ones","config":{}},"moving_mean_initializer":{"class_name":"Zeros","config":{}},"moving_variance_initializer":{"class_name":"Ones","config":{}},"beta_regularizer":null,"gamma_regularizer":null,"beta_constraint":null,"gamma_constraint":null},"name":"batch_normalization_90","inbound_nodes":[[["conv2d_90",0,0,{}]]]},{"class_name":"Activation","config":{"name":"activation_90","trainable":true,"dtype":"float32","activation":"relu"},"name":"activation_90","inbound_nodes":[[["batch_normalization_90",0,0,{}]]]},{"class_name":"Conv2D","config":{"name":"conv2d_88","trainable":true,"dtype":"float32","filters":192,"kernel_size":[1,1],"strides":[1,1],"padding":"same","data_format":"channels_last","dilation_rate":[1,1],"groups":1,"activation":"linear","use_bias":false,"kernel_initializer":{"class_name":"GlorotUniform","config":{"seed":null}},"bias_initializer":{"class_name":"Zeros","config":{}},"kernel_regularizer":null,"bias_regularizer":null,"activity_regularizer":null,"kernel_constraint":null,"bias_constraint":null},"name":"conv2d_88","inbound_nodes":[[["block17_3_ac",0,0,{}]]]},{"class_name":"Conv2D","config":{"name":"conv2d_91","trainable":true,"dtype":"float32","filters":192,"kernel_size":[7,1],"strides":[1,1],"padding":"same","data_format":"channels_last","dilation_rate":[1,1],"groups":1,"activation":"linear","use_bias":false,"kernel_initializer":{"class_name":"GlorotUniform","config":{"seed":null}},"bias_initializer":{"class_name":"Zeros","config":{}},"kernel_regularizer":null,"bias_regularizer":null,"activity_regularizer":null,"kernel_constraint":null,"bias_constraint":null},"name":"conv2d_91","inbound_nodes":[[["activation_90",0,0,{}]]]},{"class_name":"BatchNormalization","config":{"name":"batch_normalization_88","trainable":true,"dtype":"float32","axis":3,"momentum":0.99,"epsilon":0.001,"center":true,"scale":false,"beta_initializer":{"class_name":"Zeros","config":{}},"gamma_initializer":{"class_name":"Ones","config":{}},"moving_mean_initializer":{"class_name":"Zeros","config":{}},"moving_variance_initializer":{"class_name":"Ones","config":{}},"beta_regularizer":null,"gamma_regularizer":null,"beta_constraint":null,"gamma_constraint":null},"name":"batch_normalization_88","inbound_nodes":[[["conv2d_88",0,0,{}]]]},{"class_name":"BatchNormalization","config":{"name":"batch_normalization_91","trainable":true,"dtype":"float32","axis":3,"momentum":0.99,"epsilon":0.001,"center":true,"scale":false,"beta_initializer":{"class_name":"Zeros","config":{}},"gamma_initializer":{"class_name":"Ones","config":{}},"moving_mean_initializer":{"class_name":"Zeros","config":{}},"moving_variance_initializer":{"class_name":"Ones","config":{}},"beta_regularizer":null,"gamma_regularizer":null,"beta_constraint":null,"gamma_constraint":null},"name":"batch_normalization_91","inbound_nodes":[[["conv2d_91",0,0,{}]]]},{"class_name":"Activation","config":{"name":"activation_88","trainable":true,"dtype":"float32","activation":"relu"},"name":"activation_88","inbound_nodes":[[["batch_normalization_88",0,0,{}]]]},{"class_name":"Activation","config":{"name":"activation_91","trainable":true,"dtype":"float32","activation":"relu"},"name":"activation_91","inbound_nodes":[[["batch_normalization_91",0,0,{}]]]},{"class_name":"Concatenate","config":{"name":"block17_4_mixed","trainable":true,"dtype":"float32","axis":3},"name":"block17_4_mixed","inbound_nodes":[[["activation_88",0,0,{}],["activation_91",0,0,{}]]]},{"class_name":"Conv2D","config":{"name":"block17_4_conv","trainable":true,"dtype":"float32","filters":1088,"kernel_size":[1,1],"strides":[1,1],"padding":"same","data_format":"channels_last","dilation_rate":[1,1],"groups":1,"activation":"linear","use_bias":true,"kernel_initializer":{"class_name":"GlorotUniform","config":{"seed":null}},"bias_initializer":{"class_name":"Zeros","config":{}},"kernel_regularizer":null,"bias_regularizer":null,"activity_regularizer":null,"kernel_constraint":null,"bias_constraint":null},"name":"block17_4_conv","inbound_nodes":[[["block17_4_mixed",0,0,{}]]]},{"class_name":"CustomScaleLayer","config":{"name":"custom_scale_layer_13","trainable":true,"dtype":"float32","scale":0.1},"name":"custom_scale_layer_13","inbound_nodes":[[["block17_3_ac",0,0,{}],["block17_4_conv",0,0,{}]]]},{"class_name":"Activation","config":{"name":"block17_4_ac","trainable":true,"dtype":"float32","activation":"relu"},"name":"block17_4_ac","inbound_nodes":[[["custom_scale_layer_13",0,0,{}]]]},{"class_name":"Conv2D","config":{"name":"conv2d_93","trainable":true,"dtype":"float32","filters":128,"kernel_size":[1,1],"strides":[1,1],"padding":"same","data_format":"channels_last","dilation_rate":[1,1],"groups":1,"activation":"linear","use_bias":false,"kernel_initializer":{"class_name":"GlorotUniform","config":{"seed":null}},"bias_initializer":{"class_name":"Zeros","config":{}},"kernel_regularizer":null,"bias_regularizer":null,"activity_regularizer":null,"kernel_constraint":null,"bias_constraint":null},"name":"conv2d_93","inbound_nodes":[[["block17_4_ac",0,0,{}]]]},{"class_name":"BatchNormalization","config":{"name":"batch_normalization_93","trainable":true,"dtype":"float32","axis":3,"momentum":0.99,"epsilon":0.001,"center":true,"scale":false,"beta_initializer":{"class_name":"Zeros","config":{}},"gamma_initializer":{"class_name":"Ones","config":{}},"moving_mean_initializer":{"class_name":"Zeros","config":{}},"moving_variance_initializer":{"class_name":"Ones","config":{}},"beta_regularizer":null,"gamma_regularizer":null,"beta_constraint":null,"gamma_constraint":null},"name":"batch_normalization_93","inbound_nodes":[[["conv2d_93",0,0,{}]]]},{"class_name":"Activation","config":{"name":"activation_93","trainable":true,"dtype":"float32","activation":"relu"},"name":"activation_93","inbound_nodes":[[["batch_normalization_93",0,0,{}]]]},{"class_name":"Conv2D","config":{"name":"conv2d_94","trainable":true,"dtype":"float32","filters":160,"kernel_size":[1,7],"strides":[1,1],"padding":"same","data_format":"channels_last","dilation_rate":[1,1],"groups":1,"activation":"linear","use_bias":false,"kernel_initializer":{"class_name":"GlorotUniform","config":{"seed":null}},"bias_initializer":{"class_name":"Zeros","config":{}},"kernel_regularizer":null,"bias_regularizer":null,"activity_regularizer":null,"kernel_constraint":null,"bias_constraint":null},"name":"conv2d_94","inbound_nodes":[[["activation_93",0,0,{}]]]},{"class_name":"BatchNormalization","config":{"name":"batch_normalization_94","trainable":true,"dtype":"float32","axis":3,"momentum":0.99,"epsilon":0.001,"center":true,"scale":false,"beta_initializer":{"class_name":"Zeros","config":{}},"gamma_initializer":{"class_name":"Ones","config":{}},"moving_mean_initializer":{"class_name":"Zeros","config":{}},"moving_variance_initializer":{"class_name":"Ones","config":{}},"beta_regularizer":null,"gamma_regularizer":null,"beta_constraint":null,"gamma_constraint":null},"name":"batch_normalization_94","inbound_nodes":[[["conv2d_94",0,0,{}]]]},{"class_name":"Activation","config":{"name":"activation_94","trainable":true,"dtype":"float32","activation":"relu"},"name":"activation_94","inbound_nodes":[[["batch_normalization_94",0,0,{}]]]},{"class_name":"Conv2D","config":{"name":"conv2d_92","trainable":true,"dtype":"float32","filters":192,"kernel_size":[1,1],"strides":[1,1],"padding":"same","data_format":"channels_last","dilation_rate":[1,1],"groups":1,"activation":"linear","use_bias":false,"kernel_initializer":{"class_name":"GlorotUniform","config":{"seed":null}},"bias_initializer":{"class_name":"Zeros","config":{}},"kernel_regularizer":null,"bias_regularizer":null,"activity_regularizer":null,"kernel_constraint":null,"bias_constraint":null},"name":"conv2d_92","inbound_nodes":[[["block17_4_ac",0,0,{}]]]},{"class_name":"Conv2D","config":{"name":"conv2d_95","trainable":true,"dtype":"float32","filters":192,"kernel_size":[7,1],"strides":[1,1],"padding":"same","data_format":"channels_last","dilation_rate":[1,1],"groups":1,"activation":"linear","use_bias":false,"kernel_initializer":{"class_name":"GlorotUniform","config":{"seed":null}},"bias_initializer":{"class_name":"Zeros","config":{}},"kernel_regularizer":null,"bias_regularizer":null,"activity_regularizer":null,"kernel_constraint":null,"bias_constraint":null},"name":"conv2d_95","inbound_nodes":[[["activation_94",0,0,{}]]]},{"class_name":"BatchNormalization","config":{"name":"batch_normalization_92","trainable":true,"dtype":"float32","axis":3,"momentum":0.99,"epsilon":0.001,"center":true,"scale":false,"beta_initializer":{"class_name":"Zeros","config":{}},"gamma_initializer":{"class_name":"Ones","config":{}},"moving_mean_initializer":{"class_name":"Zeros","config":{}},"moving_variance_initializer":{"class_name":"Ones","config":{}},"beta_regularizer":null,"gamma_regularizer":null,"beta_constraint":null,"gamma_constraint":null},"name":"batch_normalization_92","inbound_nodes":[[["conv2d_92",0,0,{}]]]},{"class_name":"BatchNormalization","config":{"name":"batch_normalization_95","trainable":true,"dtype":"float32","axis":3,"momentum":0.99,"epsilon":0.001,"center":true,"scale":false,"beta_initializer":{"class_name":"Zeros","config":{}},"gamma_initializer":{"class_name":"Ones","config":{}},"moving_mean_initializer":{"class_name":"Zeros","config":{}},"moving_variance_initializer":{"class_name":"Ones","config":{}},"beta_regularizer":null,"gamma_regularizer":null,"beta_constraint":null,"gamma_constraint":null},"name":"batch_normalization_95","inbound_nodes":[[["conv2d_95",0,0,{}]]]},{"class_name":"Activation","config":{"name":"activation_92","trainable":true,"dtype":"float32","activation":"relu"},"name":"activation_92","inbound_nodes":[[["batch_normalization_92",0,0,{}]]]},{"class_name":"Activation","config":{"name":"activation_95","trainable":true,"dtype":"float32","activation":"relu"},"name":"activation_95","inbound_nodes":[[["batch_normalization_95",0,0,{}]]]},{"class_name":"Concatenate","config":{"name":"block17_5_mixed","trainable":true,"dtype":"float32","axis":3},"name":"block17_5_mixed","inbound_nodes":[[["activation_92",0,0,{}],["activation_95",0,0,{}]]]},{"class_name":"Conv2D","config":{"name":"block17_5_conv","trainable":true,"dtype":"float32","filters":1088,"kernel_size":[1,1],"strides":[1,1],"padding":"same","data_format":"channels_last","dilation_rate":[1,1],"groups":1,"activation":"linear","use_bias":true,"kernel_initializer":{"class_name":"GlorotUniform","config":{"seed":null}},"bias_initializer":{"class_name":"Zeros","config":{}},"kernel_regularizer":null,"bias_regularizer":null,"activity_regularizer":null,"kernel_constraint":null,"bias_constraint":null},"name":"block17_5_conv","inbound_nodes":[[["block17_5_mixed",0,0,{}]]]},{"class_name":"CustomScaleLayer","config":{"name":"custom_scale_layer_14","trainable":true,"dtype":"float32","scale":0.1},"name":"custom_scale_layer_14"…
:{"min":-0.26374322175979614,"dtype":"uint8","scale":0.0026838832041796517}},{"name":"batch_normalization_138/beta","shape":[160],"dtype":"float32","quantization":{"min":-1.7049839496612549,"dtype":"uint8","scale":0.007691423331989962}},{"name":"batch_normalization_138/moving_mean","shape":[160],"dtype":"float32","quantization":{"min":-0.5960583686828613,"dtype":"uint8","scale":0.004668239986195284}},{"name":"batch_normalization_138/moving_variance","shape":[160],"dtype":"float32","quantization":{"min":0.030751589685678482,"dtype":"uint8","scale":0.0016580511395837747}},{"name":"conv2d_136/kernel","shape":[1,1,1088,192],"dtype":"float32","quantization":{"min":-0.1555718332529068,"dtype":"uint8","scale":0.0017201403192445344}},{"name":"conv2d_139/kernel","shape":[7,1,160,192],"dtype":"float32","quantization":{"min":-0.18164537847042084,"dtype":"uint8","scale":0.0019224917771769505}},{"name":"batch_normalization_136/beta","shape":[192],"dtype":"float32","quantization":{"min":-1.4427746534347534,"dtype":"uint8","scale":0.0055049877248558345}},{"name":"batch_normalization_136/moving_mean","shape":[192],"dtype":"float32","quantization":{"min":-0.3163723349571228,"dtype":"uint8","scale":0.002315203816282983}},{"name":"batch_normalization_136/moving_variance","shape":[192],"dtype":"float32","quantization":{"min":0.0026528085581958294,"dtype":"uint8","scale":8.027316345011486e-05}},{"name":"batch_normalization_139/beta","shape":[192],"dtype":"float32","quantization":{"min":-1.2218856811523438,"dtype":"uint8","scale":0.005147670822985032}},{"name":"batch_normalization_139/moving_mean","shape":[192],"dtype":"float32","quantization":{"min":-0.874432384967804,"dtype":"uint8","scale":0.007451549932068469}},{"name":"batch_normalization_139/moving_variance","shape":[192],"dtype":"float32","quantization":{"min":0.08620001375675201,"dtype":"uint8","scale":0.002699632212227466}},{"name":"block17_16_conv/kernel","shape":[1,1,384,1088],"dtype":"float32","quantization":{"min":-0.37795132398605347,"dtype":"uint8","scale":0.0030994333472906376}},{"name":"block17_16_conv/bias","shape":[1088],"dtype":"float32","quantization":{"min":-1.4070945978164673,"dtype":"uint8","scale":0.008574193365433637}},{"name":"conv2d_141/kernel","shape":[1,1,1088,128],"dtype":"float32","quantization":{"min":-0.4369316101074219,"dtype":"uint8","scale":0.003421316894830442}},{"name":"batch_normalization_141/beta","shape":[128],"dtype":"float32","quantization":{"min":-2.0068271160125732,"dtype":"uint8","scale":0.00959132757841372}},{"name":"batch_normalization_141/moving_mean","shape":[128],"dtype":"float32","quantization":{"min":-0.2764269709587097,"dtype":"uint8","scale":0.002639608757168639}},{"name":"batch_normalization_141/moving_variance","shape":[128],"dtype":"float32","quantization":{"min":0.004813922569155693,"dtype":"uint8","scale":0.00041756575160166795}},{"name":"conv2d_142/kernel","shape":[1,7,128,160],"dtype":"float32","quantization":{"min":-0.23762246966362,"dtype":"uint8","scale":0.0026522145551793716}},{"name":"batch_normalization_142/beta","shape":[160],"dtype":"float32","quantization":{"min":-1.7753267288208008,"dtype":"uint8","scale":0.009338636725556617}},{"name":"batch_normalization_142/moving_mean","shape":[160],"dtype":"float32","quantization":{"min":-0.9068983793258667,"dtype":"uint8","scale":0.005997742858587527}},{"name":"batch_normalization_142/moving_variance","shape":[160],"dtype":"float32","quantization":{"min":0.024480735883116722,"dtype":"uint8","scale":0.0016867560279719969}},{"name":"conv2d_140/kernel","shape":[1,1,1088,192],"dtype":"float32","quantization":{"min":-0.13640280067920685,"dtype":"uint8","scale":0.0014528252330480837}},{"name":"conv2d_143/kernel","shape":[7,1,160,192],"dtype":"float32","quantization":{"min":-0.22495028376579285,"dtype":"uint8","scale":0.0026268395723081104}},{"name":"batch_normalization_140/beta","shape":[192],"dtype":"float32","quantization":{"min":-1.5134015083312988,"dtype":"uint8","scale":0.0051510838901295385}},{"name":"batch_normalization_140/moving_mean","shape":[192],"dtype":"float32","quantization":{"min":-0.28289327025413513,"dtype":"uint8","scale":0.001737486673336403}},{"name":"batch_normalization_140/moving_variance","shape":[192],"dtype":"float32","quantization":{"min":0.0030170411337167025,"dtype":"uint8","scale":3.416527190483084e-05}},{"name":"batch_normalization_143/beta","shape":[192],"dtype":"float32","quantization":{"min":-1.158744215965271,"dtype":"uint8","scale":0.0041594831966886335}},{"name":"batch_normalization_143/moving_mean","shape":[192],"dtype":"float32","quantization":{"min":-1.1697005033493042,"dtype":"uint8","scale":0.007218442009944542}},{"name":"batch_normalization_143/moving_variance","shape":[192],"dtype":"float32","quantization":{"min":0.09607349336147308,"dtype":"uint8","scale":0.002707798165433547}},{"name":"block17_17_conv/kernel","shape":[1,1,384,1088],"dtype":"float32","quantization":{"min":-0.3951059579849243,"dtype":"uint8","scale":0.0031261265277862547}},{"name":"block17_17_conv/bias","shape":[1088],"dtype":"float32","quantization":{"min":-1.1596232652664185,"dtype":"uint8","scale":0.007736493559444652}},{"name":"conv2d_145/kernel","shape":[1,1,1088,128],"dtype":"float32","quantization":{"min":-0.46880778670310974,"dtype":"uint8","scale":0.003626761833826701}},{"name":"batch_normalization_145/beta","shape":[128],"dtype":"float32","quantization":{"min":-2.2883143424987793,"dtype":"uint8","scale":0.010476235665527045}},{"name":"batch_normalization_145/moving_mean","shape":[128],"dtype":"float32","quantization":{"min":-0.2841220200061798,"dtype":"uint8","scale":0.0031929300111882826}},{"name":"batch_normalization_145/moving_variance","shape":[128],"dtype":"float32","quantization":{"min":0.004362958017736673,"dtype":"uint8","scale":0.0004996193883319695}},{"name":"conv2d_146/kernel","shape":[1,7,128,160],"dtype":"float32","quantization":{"min":-0.23137354850769043,"dtype":"uint8","scale":0.0037565518827999337}},{"name":"batch_normalization_146/beta","shape":[160],"dtype":"float32","quantization":{"min":-1.9177021980285645,"dtype":"uint8","scale":0.013080804955725576}},{"name":"batch_normalization_146/moving_mean","shape":[160],"dtype":"float32","quantization":{"min":-0.7399123907089233,"dtype":"uint8","scale":0.006768931594549441}},{"name":"batch_normalization_146/moving_variance","shape":[160],"dtype":"float32","quantization":{"min":0.04402206093072891,"dtype":"uint8","scale":0.003836012909225389}},{"name":"conv2d_144/kernel","shape":[1,1,1088,192],"dtype":"float32","quantization":{"min":-0.17783109843730927,"dtype":"uint8","scale":0.0019528125431023393}},{"name":"conv2d_147/kernel","shape":[7,1,160,192],"dtype":"float32","quantization":{"min":-0.36332499980926514,"dtype":"uint8","scale":0.002996328531527052}},{"name":"batch_normalization_144/beta","shape":[192],"dtype":"float32","quantization":{"min":-1.479826807975769,"dtype":"uint8","scale":0.006090074485423518}},{"name":"batch_normalization_144/moving_mean","shape":[192],"dtype":"float32","quantization":{"min":-0.2903616428375244,"dtype":"uint8","scale":0.0027685081257539635}},{"name":"batch_normalization_144/moving_variance","shape":[192],"dtype":"float32","quantization":{"min":0.002953061368316412,"dtype":"uint8","scale":8.122547182674501e-05}},{"name":"batch_normalization_147/beta","shape":[192],"dtype":"float32","quantization":{"min":-1.202654242515564,"dtype":"uint8","scale":0.0070253603598650766}},{"name":"batch_normalization_147/moving_mean","shape":[192],"dtype":"float32","quantization":{"min":-2.4275810718536377,"dtype":"uint8","scale":0.014734713236490886}},{"name":"batch_normalization_147/moving_variance","shape":[192],"dtype":"float32","quantization":{"min":0.1054074615240097,"dtype":"uint8","scale":0.004692854191742691}},{"name":"block17_18_conv/kernel","shape":[1,1,384,1088],"dtype":"float32","quantization":{"min":-0.4562820494174957,"dtype":"uint8","scale":0.003421637824937409}},{"name":"block17_18_conv/bias","shape":[1088],"dtype":"float32","quantization":{"min":-2.3835928440093994,"dtype":"uint8","scale":0.01202369951734356}},{"name":"conv2d_149/kernel","shape":[1,1,1088,128],"dtype":"float32","quantization":{"min":-0.1957848072052002,"dtype":"uint8","scale":0.002457307834251254}},{"name":"batch_normalization_149/beta","shape":[128],"dtype":"float32","quantization":{"min":-1.956362009048462,"dtype":"uint8","scale":0.006821491613107569}},{"name":"batch_normalization_149/moving_mean","shape":[128],"dtype":"float32","quantization":{"min":-0.30102360248565674,"dtype":"uint8","scale":0.001548771735499887}},{"name":"batch_normalization_149/moving_variance","shape":[128],"dtype":"float32","quantization":{"min":0.005427185446023941,"dtype":"uint8","scale":5.647423951064839e-05}},{"name":"conv2d_150/kernel","shape":[1,7,128,160],"dtype":"float32","quantization":{"min":-0.14654169976711273,"dtype":"uint8","scale":0.001957236376463198}},{"name":"batch_normalization_150/beta","shape":[160],"dtype":"float32","quantization":{"min":-1.7653321027755737,"dtype":"uint8","scale":0.007812815086514342}},{"name":"batch_normalization_150/moving_mean","shape":[160],"dtype":"float32","quantization":{"min":-0.2007983922958374,"dtype":"uint8","scale":0.0018153911712122898}},{"name":"batch_normalization_150/moving_variance","shape":[160],"dtype":"float32","quantization":{"min":0.029982225969433784,"dtype":"uint8","scale":0.0005831439632411096}},{"name":"conv2d_148/kernel","shape":[1,1,1088,192],"dtype":"float32","quantization":{"min":-0.15375018119812012,"dtype":"uint8","scale":0.0018729715955023672}},{"name":"conv2d_151/kernel","shape":[7,1,160,192],"dtype":"float32","quantization":{"min":-0.1111125722527504,"dtype":"uint8","scale":0.0016513993050537858}},{"name":"batch_normalization_148/beta","shape":[192],"dtype":"float32","quantization":{"min":-1.9360628128051758,"dtype":"uint8","scale":0.0076930547315700384}},{"name":"batch_normalization_148/moving_mean","shape":[192],"dtype":"float32","quantization":{"min":-0.3538646101951599,"dtype":"uint8","scale":0.0036353258525623996}},{"name":"batch_normalization_148/moving_variance","shape":[192],"dtype":"float32","quantization":{"min":0.0022540970239788294,"dtype":"uint8","scale":9.917662040713955e-05}},{"name":"batch_normalization_151/beta","shape":[192],"dtype":"float32","quantization":{"min":-1.2225216627120972,"dtype":"uint8","scale":0.004127212540776122}},{"name":"batch_normalization_151/moving_mean","shape":[192],"dtype":"float32","quantization":{"min":-1.0301790237426758,"dtype":"uint8","scale":0.0065226568895227766}},{"name":"batch_normalization_151/moving_variance","shape":[192],"dtype":"float32","quantization":{"min":0.15364283323287964,"dtype":"uint8","scale":0.0017213847122940363}},{"name":"block17_19_conv/kernel","shape":[1,1,384,1088],"dtype":"float32","quantization":{"min":-0.34785887598991394,"dtype":"uint8","scale":0.0028866173005571553}},{"name":"block17_19_conv/bias","shape":[1088],"dtype":"float32","quantization":{"min":-0.8833999633789062,"dtype":"uint8","scale":0.006749627636928184}},{"name":"conv2d_153/kernel","shape":[1,1,1088,128],"dtype":"float32","quantization":{"min":-0.4262719750404358,"dtype":"uint8","scale":0.003305118341071933}},{"name":"batch_normalization_153/beta","shape":[128],"dtype":"float32","quantization":{"min":-2.1228339672088623,"dtype":"uint8","scale":0.009435163292230344}},{"name":"batch_normalization_153/moving_mean","shape":[128],"dtype":"float32","quantization":{"min":-0.3217044770717621,"dtype":"uint8","scale":0.0029779642235999012}},{"name":"batch_normalization_153/moving_variance","shape":[128],"dtype":"float32","quantization":{"min":0.004458364099264145,"dtype":"uint8","scale":0.0002254866940133712}},{"name":"conv2d_154/kernel","shape":[1,7,128,160],"dtype":"float32","quantization":{"min":-0.2379586398601532,"dtype":"uint8","scale":0.003276613529990701}},{"name":"batch_normalization_154/beta","shape":[160],"dtype":"float32","quantization":{"min":-1.4274358749389648,"dtype":"uint8","scale":0.00808129076864205}},{"name":"batch_normalization_154/moving_mean","shape":[160],"dtype":"float32","quantization":{"min":-0.2606261968612671,"dtype":"uint8","scale":0.002815480208864399}},{"name":"batch_normalization_154/moving_variance","shape":[160],"dtype":"float32","quantization":{"min":0.028801681473851204,"dtype":"uint8","scale":0.0009422288148426542}},{"name":"conv2d_152/kernel","shape":[1,1,1088,192],"dtype":"float32","quantization":{"min":-0.1907743662595749,"dtype":"uint8","scale":0.0023262515371921017}},{"name":"conv2d_155/kernel","shape":[7,1,160,192],"dtype":"float32","quantization":{"min":-0.17675742506980896,"dtype":"uint8","scale":0.0025626679261525473}},{"name":"batch_normalization_152/beta","shape":[192],"dtype":"float32","quantization":{"min":-1.4877588748931885,"dtype":"uint8","scale":0.007246088397269155}},{"name":"batch_normalization_152/moving_mean","shape":[192],"dtype":"float32","quantization":{"min":-0.3889116942882538,"dtype":"uint8","scale":0.0024566975878734213}},{"name":"batch_normalization_152/moving_variance","shape":[192],"dtype":"float32","quantization":{"min":0.0018659090856090188,"dtype":"uint8","scale":5.566722247749567e-05}},{"name":"batch_normalization_155/beta","shape":[192],"dtype":"float32","quantization":{"min":-0.7969709634780884,"dtype":"uint8","scale":0.0038297647939008824}},{"name":"batch_normalization_155/moving_mean","shape":[192],"dtype":"float32","quantization":{"min":-0.8301212191581726,"dtype":"uint8","scale":0.009413985411326091}},{"name":"batch_normalization_155/moving_variance","shape":[192],"dtype":"float32","quantization":{"min":0.11451417952775955,"dtype":"uint8","scale":0.0028636918056244944}},{"name":"block17_20_conv/kernel","shape":[1,1,384,1088],"dtype":"float32","quantization":{"min":-0.4384547472000122,"dtype":"uint8","scale":0.0035322688373864864}},{"name":"block17_20_conv/bias","shape":[1088],"dtype":"float32","quantization":{"min":-3.198301076889038,"dtype":"uint8","scale":0.01581833198958752}},{"name":"conv2d_160/kernel","shape":[1,1,1088,256],"dtype":"float32","quantization":{"min":-0.1915804147720337,"dtype":"uint8","scale":0.0019151389598846436}},{"name":"batch_normalization_160/beta","shape":[256],"dtype":"float32","quantization":{"min":-1.631799340248108,"dtype":"uint8","scale":0.007290730581564062}},{"name":"batch_normalization_160/moving_mean","shape":[256],"dtype":"float32","quantization":{"min":-0.20275425910949707,"dtype":"uint8","scale":0.0010090600480051602}},{"name":"batch_normalization_160/moving_variance","shape":[256],"dtype":"float32","quantization":{"min":0.001587447477504611,"dtype":"uint8","scale":0.000155283274202078}},{"name":"conv2d_156/kernel","shape":[1,1,1088,256],"dtype":"float32","quantization":{"min":-0.12272987514734268,"dtype":"uint8","scale":0.0017870233631601521}},{"name":"conv2d_158/kernel","shape":[1,1,1088,256],"dtype":"float32","quantization":{"min":-0.1170775443315506,"dtype":"uint8","scale":0.001645317323067609}},{"name":"conv2d_161/kernel","shape":[3,3,256,288],"dtype":"float32","quantization":{"min":-0.060108404606580734,"dtype":"uint8","scale":0.0007852478208495122}},{"name":"batch_normalization_156/beta","shape":[256],"dtype":"float32","quantization":{"min":-1.1843256950378418,"dtype":"uint8","scale":0.005698473897634768}},{"name":"batch_normalization_156/moving_mean","shape":[256],"dtype":"float32","quantization":{"min":-0.26934897899627686,"dtype":"uint8","scale":0.0024762567351846133}},{"name":"batch_normalization_156/moving_variance","shape":[256],"dtype":"float32","quantization":{"min":0.0020758090540766716,"dtype":"uint8","scale":0.0003442903542343308}},{"name":"batch_normalization_158/beta","shape":[256],"dtype":"float32","quantization":{"min":-1.1972168684005737,"dtype":"uint8","scale":0.005294189383001888}},{"name":"batch_normalization_158/moving_mean","shape":[256],"dtype":"float32","quantization":{"min":-0.22578933835029602,"dtype":"uint8","scale":0.00175439014154322}},{"name":"batch_normalization_158/moving_variance","shape":[256],"dtype":"float32","quantization":{"min":0.0017252519028261304,"dtype":"uint8","scale":0.00023849441752056864}},{"name":"batch_normalization_161/beta","shape":[288],"dtype":"float32","quantization":{"min":-1.029106616973877,"dtype":"uint8","scale":0.005615725470524208}},{"name":"batch_normalization_161/moving_mean","shape":[288],"dtype":"float32","quantization":{"min":-0.5846643447875977,"dtype":"uint8","scale":0.005043838538375555}},{"name":"batch_normalization_161/moving_variance","shape":[288],"dtype":"float32","quantization":{"min":0.04919853061437607,"dtype":"uint8","scale":0.001292565085139929}},{"name":"conv2d_157/kernel","shape":[3,3,256,384],"dtype":"float32","quantization":{"min":-0.12849679589271545,"dtype":"uint8","scale":0.0008939873061928094}},{"name":"conv2d_159/kernel","shape":[3,3,256,288],"dtype":"float32","quantization":{"min":-0.12552279233932495,"dtype":"uint8","scale":0.0009607532152942583}},{"name":"conv2d_162/kernel","shape":[3,3,288,320],"dtype":"float32","quantization":{"min":-0.06783084571361542,"dtype":"uint8","scale":0.0006294568087540421}},{"name":"batch_normalization_157/beta","shape":[384],"dtype":"float32","quantization":{"min":-2.0583441257476807,"dtype":"uint8","scale":0.005695902132520489}},{"name":"batch_normalization_157/moving_mean","shape":[384],"dtype":"float32","quantization":{"min":-2.294163942337036,"dtype":"uint8","scale":0.007990871808108162}},{"name":"batch_normalization_157/moving_variance","shape":[384],"dtype":"float32","quantization":{"min":0.1898757964372635,"dtype":"uint8","scale":0.004904086624874788}},{"name":"batch_normalization_159/beta","shape":[288],"dtype":"float32","quantization":{"min":-2.455396890640259,"dtype":"uint8","scale":0.005465362586227118}},{"name":"batch_normalization_159/moving_mean","shape":[288],"dtype":"float32","quantization":{"min":-2.015132188796997,"dtype":"uint8","scale":0.007578969790655024}},{"name":"batch_normalization_159/moving_variance","shape":[288],"dtype":"float32","quantization":{"min":0.16822880506515503,"dtype":"uint8","scale":0.005727700859892602}},{"name":"batch_normalization_162/beta","shape":[320],"dtype":"float32","quantization":{"min":-1.8886526823043823,"dtype":"uint8","scale":0.00423505049125821}},{"name":"batch_normalization_162/moving_mean","shape":[320],"dtype":"float32","quantization":{"min":-3.445549488067627,"dtype":"uint8","scale":0.013334038269286062}},{"name":"batch_normalization_162/moving_variance","shape":[320],"dtype":"float32","quantization":{"min":0.0013100940268486738,"dtype":"uint8","scale":0.03394508087624083}},{"name":"conv2d_164/kernel","shape":[1,1,2080,192],"dtype":"float32","quantization":{"min":-0.15434050559997559,"dtype":"uint8","scale":0.0016219154292461918}},{"name":"batch_normalization_164/beta","shape":[192],"dtype":"float32","quantization":{"min":-1.2529513835906982,"dtype":"uint8","scale":0.007074583277982824}},{"name":"batch_normalization_164/moving_mean","shape":[192],"dtype":"float32","quantization":{"min":-0.233944833278656,"dtype":"uint8","scale":0.0020064193828433167}},{"name":"batch_normalization_164/moving_variance","shape":[192],"dtype":"float32","quantization":{"min":0.003658692818135023,"dtype":"uint8","scale":0.00019360263740607336}},{"name":"conv2d_165/kernel","shape":[1,3,192,224],"dtype":"float32","quantization":{"min":-0.18981555104255676,"dtype":"uint8","scale":0.001988744618845921}},{"name":"batch_normalization_165/beta","shape":[224],"dtype":"float32","quantization":{"min":-0.7682551741600037,"dtype":"uint8","scale":0.007779114152870926}},{"name":"batch_normalization_165/moving_mean","shape":[224],"dtype":"float32","quantization":{"min":-0.5175812840461731,"dtype":"uint8","scale":0.003715153652078965}},{"name":"batch_normalization_165/moving_variance","shape":[224],"dtype":"float32","quantization":{"min":0.015393614768981934,"dtype":"uint8","scale":0.0006065697062249278}},{"name":"conv2d_163/kernel","shape":[1,1,2080,192],"dtype":"float32","quantization":{"min":-0.10743076354265213,"dtype":"uint8","scale":0.0011798527018696654}},{"name":"conv2d_166/kernel","shape":[3,1,224,256],"dtype":"float32","quantization":{"min":-0.19293494522571564,"dtype":"uint8","scale":0.001674534701833538}},{"name":"batch_normalization_163/beta","shape":[192],"dtype":"float32","quantization":{"min":-1.4105979204177856,"dtype":"uint8","scale":0.005405948851622787}},{"name":"batch_normalization_163/moving_mean","shape":[192],"dtype":"float32","quantization":{"min":-0.5026240348815918,"dtype":"uint8","scale":0.004429869090809542}},{"name":"batch_normalization_163/moving_variance","shape":[192],"dtype":"float32","quantization":{"min":0.003688984317705035,"dtype":"uint8","scale":0.00012020889176603626}},{"name":"batch_normalization_166/beta","shape":[256],"dtype":"float32","quantization":{"min":-1.5180155038833618,"dtype":"uint8","scale":0.004673602183659872}},{"name":"batch_normalization_166/moving_mean","shape":[256],"dtype":"float32","quantization":{"min":-0.9552590250968933,"dtype":"uint8","scale":0.006308486181146958}},{"name":"batch_normalization_166/moving_variance","shape":[256],"dtype":"float32","quantization":{"min":0.04432346299290657,"dtype":"uint8","scale":0.001350502100060968}},{"name":"block8_1_conv/kernel","shape":[1,1,448,2080],"dtype":"float32","quantization":{"min":-0.1793106496334076,"dtype":"uint8","scale":0.0015152225891749064}},{"name":"block8_1_conv/bias","shape":[2080],"dtype":"float32","quantization":{"min":-0.8058528304100037,"dtype":"uint8","scale":0.005745808049744251}},{"name":"conv2d_168/kernel","shape":[1,1,2080,192],"dtype":"float32","quantization":{"min":-0.25845563411712646,"dtype":"uint8","scale":0.0021155752387701297}},{"name":"batch_normalization_168/beta","shape":[192],"dtype":"float32","quantization":{"min":-1.3113652467727661,"dtype":"uint8","scale":0.009374589546054017}},{"name":"batch_normalization_168/moving_mean","shape":[192],"dtype":"float32","quantization":{"min":-0.4307456612586975,"dtype":"uint8","scale":0.003031759168587479}},{"name":"batch_normalization_168/moving_variance","shape":[192],"dtype":"float32","quantization":{"min":0.003773732576519251,"dtype":"uint8","scale":0.00033163969386734216}},{"name":"conv2d_169/kernel","shape":[1,3,192,224],"dtype":"float32","quantization":{"min":-0.15725761651992798,"dtype":"uint8","scale":0.0014881311678418927}},{"name":"batch_normalization_169/beta","shape":[224],"dtype":"float32","quantization":{"min":-0.9347079992294312,"dtype":"uint8","scale":0.0066048159318811755}},{"name":"batch_normalization_169/moving_mean","shape":[224],"dtype":"float32","quantization":{"min":-0.3778609037399292,"dtype":"uint8","scale":0.0026678262972364237}},{"name":"batch_normalization_169/moving_variance","shape":[224],"dtype":"float32","quantization":{"min":0.012094772420823574,"dtype":"uint8","scale":0.0006005253021915753}},{"name":"conv2d_167/kernel","shape":[1,1,2080,192],"dtype":"float32","quantization":{"min":-0.10985912382602692,"dtype":"uint8","scale":0.0010888513396768008}},{"name":"conv2d_170/kernel","shape":[3,1,224,256],"dtype":"float32","quantization":{"min":-0.1659744828939438,"dtype":"uint8","scale":0.0014098636075562123}},{"name":"batch_normalization_167/beta","shape":[192],"dtype":"float32","quantization":{"min":-1.3996580839157104,"dtype":"uint8","scale":0.002688256899515788}},{"name":"batch_normalization_167/moving_mean","shape":[192],"dtype":"float32","quantization":{"min":-0.3976851999759674,"dtype":"uint8","scale":0.002190745461220835}},{"name":"batch_normalization_167/moving_variance","shape":[192],"dtype":"float32","quantization":{"min":0.0035364250652492046,"dtype":"uint8","scale":4.221458608905474e-05}},{"name":"batch_normalization_170/beta","shape":[256],"dtype":"float32","quantization":{"min":-1.4426195621490479,"dtype":"uint8","scale":0.005657159315388508}},{"name":"batch_normalization_170/moving_mean","shape":[256],"dtype":"float32","quantization":{"min":-0.7035096883773804,"dtype":"uint8","scale":0.0047088506175022495}},{"name":"batch_normalization_170/moving_variance","shape":[256],"dtype":"float32","quantization":{"min":0.03801080211997032,"dtype":"uint8","scale":0.00669955145202431}},{"name":"block8_2_conv/kernel","shape":[1,1,448,2080],"dtype":"float32","quantization":{"min":-0.2758243680000305,"dtype":"uint8","scale":0.0030151542495278753}},{"name":"block8_2_conv/bias","shape":[2080],"dtype":"float32","quantization":{"min":-0.7504220604896545,"dtype":"uint8","scale":0.006731587531519871}},{"name":"conv2d_172/kernel","shape":[1,1,2080,192],"dtype":"float32","quantization":{"min":-0.3972351849079132,"dtype":"uint8","scale":0.002812759315266329}},{"name":"batch_normalization_172/beta","shape":[192],"dtype":"float32","quantization":{"min":-1.5389944314956665,"dtype":"uint8","scale":0.007728246964660345}},{"name":"batch_normalization_172/moving_mean","shape":[192],"dtype":"float32","quantization":{"min":-0.29723548889160156,"dtype":"uint8","scale":0.0019497925744337194}},{"name":"batch_normalization_172/moving_variance","shape":[192],"dtype":"float32","quantization":{"min":0.005577897187322378,"dtype":"uint8","scale":0.00013082986697554588}},{"name":"conv2d_173/kernel","shape":[1,3,192,224],"dtype":"float32","quantization":{"min":-0.19270449876785278,"dtype":"uint8","scale":0.0019338677911197439}},{"name":"batch_normalization_173/beta","shape":[224],"dtype":"float32","quantization":{"min":-0.8730354905128479,"dtype":"uint8","scale":0.006247531900218889}},{"name":"batch_normalization_173/moving_mean","shape":[224],"dtype":"float32","quantization":{"min":-0.2481653392314911,"dtype":"uint8","scale":0.0015641857011645449}},{"name":"batch_normalization_173/moving_variance","shape":[224],"dtype":"float32","quantization":{"min":0.012331017293035984,"dtype":"uint8","scale":0.0005682832725784358}},{"name":"conv2d_171/kernel","shape":[1,1,2080,192],"dtype":"float32","quantization":{"min":-0.16332513093948364,"dtype":"uint8","scale":0.0013947213397306555}},{"name":"conv2d_174/kernel","shape":[3,1,224,256],"dtype":"float32","quantization":{"min":-0.11117732524871826,"dtype":"uint8","scale":0.0012393104095084994}},{"name":"batch_normalization_171/beta","shape":[192],"dtype":"float32","quantization":{"min":-1.4245688915252686,"dtype":"uint8","scale":0.0026715996218662635}},{"name":"batch_normalization_171/moving_mean","shape":[192],"dtype":"float32","quantization":{"min":-0.29986509680747986,"dtype":"uint8","scale":0.0019389226156122544}},{"name":"batch_normalization_171/moving_variance","shape":[192],"dtype":"float32","quantization":{"min":0.0035521488171070814,"dtype":"uint8","scale":7.014917848887397e-05}},{"name":"batch_normalization_174/beta","shape":[256],"dtype":"float32","quantization":{"min":-1.3397045135498047,"dtype":"uint8","scale":0.003427996354944566}},{"name":"batch_normalization_174/moving_mean","shape":[256],"dtype":"float32","quantization":{"min":-0.7052028775215149,"dtype":"uint8","scale":0.004848037981519512}},{"name":"batch_normalization_174/moving_variance","shape":[256],"dtype":"float32","quantization":{"min":0.050775185227394104,"dtype":"uint8","scale":0.001562179362072664}},{"name":"block8_3_conv/kernel","shape":[1,1,448,2080],"dtype":"float32","quantization":{"min":-0.19301696121692657,"dtype":"uint8","scale":0.001623226614559398}},{"name":"block8_3_conv/bias","shape":[2080],"dtype":"float32","quantization":{"min":-0.693814754486084,"dtype":"uint8","scale":0.004122504533505907}},{"name":"conv2d_176/kernel","shape":[1,1,2080,192],"dtype":"float32","quantization":{"min":-0.17864125967025757,"dtype":"uint8","scale":0.001957415716320861}},{"name":"batch_normalization_176/beta","shape":[192],"dtype":"float32","quantization":{"min":-1.6066607236862183,"dtype":"uint8","scale":0.005581176105667563}},{"name":"batch_normalization_176/moving_mean","shape":[192],"dtype":"float32","quantization":{"min":-0.2980445325374603,"dtype":"uint8","scale":0.0020148664712905883}},{"name":"batch_normalization_176/moving_variance","shape":[192],"dtype":"float32","quantization":{"min":0.006908642593771219,"dtype":"uint8","scale":0.00010027999934904715}},{"name":"conv2d_177/kernel","shape":[1,3,192,224],"dtype":"float32","quantization":{"min":-0.18569456040859222,"dtype":"uint8","scale":0.0014482033603331623}},{"name":"batch_normalization_177/beta","shape":[224],"dtype":"float32","quantization":{"min":-0.742051899433136,"dtype":"uint8","scale":0.005308720644782571}},{"name":"batch_normalization_177/moving_mean","shape":[224],"dtype":"float32","quantization":{"min":-0.1760597974061966,"dtype":"uint8","scale":0.0012576273258994607}},{"name":"batch_normalization_177/moving_variance","shape":[224],"dtype":"float32","quantization":{"min":0.011475312523543835,"dtype":"uint8","scale":0.00030352358213242363}},{"name":"conv2d_175/kernel","shape":[1,1,2080,192],"dtype":"float32","quantization":{"min":-0.09072273224592209,"dtype":"uint8","scale":0.0011436310176755867}},{"name":"conv2d_178/kernel","shape":[3,1,224,256],"dtype":"float32","quantization":{"min":-0.09072062373161316,"dtype":"uint8","scale":0.0011656863432304532}},{"name":"batch_normalization_175/beta","shape":[192],"dtype":"float32","quantization":{"min":-1.3498493432998657,"dtype":"uint8","scale":0.0027930023623447793}},{"name":"batch_normalization_175/moving_mean","shape":[192],"dtype":"float32","quantization":{"min":-0.2467781901359558,"dtype":"uint8","scale":0.0018102737618427651}},{"name":"batch_normalization_175/moving_variance","shape":[192],"dtype":"float32","quantization":{"min":0.004206654615700245,"dtype":"uint8","scale":6.901888797680536e-05}},{"name":"batch_normalization_178/beta","shape":[256],"dtype":"float32","quantization":{"min":-1.3884375095367432,"dtype":"uint8","scale":0.0030330812229829676}},{"name":"batch_normalization_178/moving_mean","shape":[256],"dtype":"float32","quantization":{"min":-0.60981285572052,"dtype":"uint8","scale":0.005783336536557067}},{"name":"batch_normalization_178/moving_variance","shape":[256],"dtype":"float32","quantization":{"min":0.0518973283469677,"dtype":"uint8","scale":0.0018157347306316973}},{"name":"block8_4_conv/kernel","shape":[1,1,448,2080],"dtype":"float32","quantization":{"min":-0.174077108502388,"dtype":"uint8","scale":0.0016999718605303297}},{"name":"block8_4_conv/bias","shape":[2080],"dtype":"float32","quantization":{"min":-0.6038466095924377,"dtype":"uint8","scale":0.0030411853509790757}},{"name":"conv2d_180/kernel","shape":[1,1,2080,192],"dtype":"float32","quantization":{"min":-0.12394969910383224,"dtype":"uint8","scale":0.0012761569782799365}},{"name":"batch_normalization_180/beta","shape":[192],"dtype":"float32","quantization":{"min":-1.58686363697052,"dtype":"uint8","scale":0.0038518045462814033}},{"name":"batch_normalization_180/moving_mean","shape":[192],"dtype":"float32","quantization":{"min":-0.2969094216823578,"dtype":"uint8","scale":0.0015889331990597295}},{"name":"batch_normalization_180/moving_variance","shape":[192],"dtype":"float32","quantization":{"min":0.007266499567776918,"dtype":"uint8","scale":0.00011490143506842502}},{"name":"conv2d_181/kernel","shape":[1,3,192,224],"dtype":"float32","quantization":{"min":-0.08822944015264511,"dtype":"uint8","scale":0.0010628210271106046}},{"name":"batch_normalization_181/beta","shape":[224],"dtype":"float32","quantization":{"min":-0.9876101016998291,"dtype":"uint8","scale":0.00419516560493731}},{"name":"batch_normalization_181/moving_mean","shape":[224],"dtype":"float32","quantization":{"min":-0.17786681652069092,"dtype":"uint8","scale":0.0010602839437185549}},{"name":"batch_normalization_181/moving_variance","shape":[224],"dtype":"float32","quantization":{"min":0.006774148903787136,"dtype":"uint8","scale":0.00026643898922438716}},{"name":"conv2d_179/kernel","shape":[1,1,2080,192],"dtype":"float32","quantization":{"min":-0.13553884625434875,"dtype":"uint8","scale":0.0018279746466991949}},{"name":"conv2d_182/kernel","shape":[3,1,224,256],"dtype":"float32","quantization":{"min":-0.06918882578611374,"dtype":"uint8","scale":0.0008183788727311527}},{"name":"batch_normalization_179/beta","shape":[192],"dtype":"float32","quantization":{"min":-1.264472246170044,"dtype":"uint8","scale":0.004361114548701866}},{"name":"batch_normalization_179/moving_mean","shape":[192],"dtype":"float32","quantization":{"min":-0.4088989794254303,"dtype":"uint8","scale":0.0029669318713393864}},{"name":"batch_normalization_179/moving_variance","shape":[192],"dtype":"float32","quantization":{"min":0.003825285006314516,"dtype":"uint8","scale":0.00019244531023443915}},{"name":"batch_normalization_182/beta","shape":[256],"dtype":"float32","quantization":{"min":-1.284337043762207,"dtype":"uint8","scale":0.002448541744082582}},{"name":"batch_normalization_182/moving_mean","shape":[256],"dtype":"float32","quantization":{"min":-0.6380355358123779,"dtype":"uint8","scale":0.00751494987338197}},{"name":"batch_normalization_182/moving_variance","shape":[256],"dtype":"float32","quantization":{"min":0.04318222403526306,"dtype":"uint8","scale":0.001364611176883473}},{"name":"block8_5_conv/kernel","shape":[1,1,448,2080],"dtype":"float32","quantization":{"min":-0.4871387779712677,"dtype":"uint8","scale":0.002807481148663689}},{"name":"block8_5_conv/bias","shape":[2080],"dtype":"float32","quantization":{"min":-0.5586639642715454,"dtype":"uint8","scale":0.002842362312709584}},{"name":"conv2d_184/kernel","shape":[1,1,2080,192],"dtype":"float32","quantization":{"min":-0.3234640657901764,"dtype":"uint8","scale":0.002424856611326629}},{"name":"batch_normalization_184/beta","shape":[192],"dtype":"float32","quantization":{"min":-1.365922451019287,"dtype":"uint8","scale":0.0068308075269063314}},{"name":"batch_normalization_184/moving_mean","shape":[192],"dtype":"float32","quantization":{"min":-0.30515238642692566,"dtype":"uint8","scale":0.0015274201245868908}},{"name":"batch_normalization_184/moving_variance","shape":[192],"dtype":"float32","quantization":{"min":0.0073081376031041145,"dtype":"uint8","scale":0.00020744902465273353}},{"name":"conv2d_185/kernel","shape":[1,3,192,224],"dtype":"float32","quantization":{"min":-0.25352200865745544,"dtype":"uint8","scale":0.003078514571283378}},{"name":"batch_normalization_185/beta","shape":[224],"dtype":"float32","quantization":{"min":-0.8136948943138123,"dtype":"uint8","scale":0.005921479533700382}},{"name":"batch_normalization_185/moving_mean","shape":[224],"dtype":"float32","quantization":{"min":-0.2963533103466034,"dtype":"uint8","scale":0.0020626182649649827}},{"name":"batch_normalization_185/moving_variance","shape":[224],"dtype":"float32","quantization":{"min":0.007783178705722094,"dtype":"uint8","scale":0.0005346912215007287}},{"name":"conv2d_183/kernel","shape":[1,1,2080,192],"dtype":"float32","quantization":{"min":-0.15800631046295166,"dtype":"uint8","scale":0.0014578458140878116}},{"name":"conv2d_186/kernel","shape":[3,1,224,256],"dtype":"float32","quantization":{"min":-0.1839861124753952,"dtype":"uint8","scale":0.001987601553692537}},{"name":"batch_normalization_183/beta","shape":[192],"dtype":"float32","quantization":{"min":-1.1210602521896362,"dtype":"uint8","scale":0.0037933010096643485}},{"name":"batch_normalization_183/moving_mean","shape":[192],"dtype":"float32","quantization":{"min":-0.23362037539482117,"dtype":"uint8","scale":0.003135205133288514}},{"name":"batch_normalization_183/moving_variance","shape":[192],"dtype":"float32","quantization":{"min":0.0030793058685958385,"dtype":"uint8","scale":0.0001539923853295691}},{"name":"batch_normalization_186/beta","shape":[256],"dtype":"float32","quantization":{"min":-1.0437099933624268,"dtype":"uint8","scale":0.003992703710408772}},{"name":"batch_normalization_186/moving_mean","shape":[256],"dtype":"float32","quantization":{"min":-0.7261978387832642,"dtype":"uint8","scale":0.006097291731366924}},{"name":"batch_normalization_186/moving_variance","shape":[256],"dtype":"float32","quantization":{"min":0.038291942328214645,"dtype":"uint8","scale":0.002829853416073556}},{"name":"block8_6_conv/kernel","shape":[1,1,448,2080],"dtype":"float32","quantization":{"min":-0.30755192041397095,"dtype":"uint8","scale":0.002735178260242238}},{"name":"block8_6_conv/bias","shape":[2080],"dtype":"float32","quantization":{"min":-0.5279656648635864,"dtype":"uint8","scale":0.003993742021859861}},{"name":"conv2d_188/kernel","shape":[1,1,2080,192],"dtype":"float32","quantization":{"min":-0.4491308927536011,"dtype":"uint8","scale":0.00312993514771555}},{"name":"batch_normalization_188/beta","shape":[192],"dtype":"float32","quantization":{"min":-1.6324328184127808,"dtype":"uint8","scale":0.007814238819421506}},{"name":"batch_normalization_188/moving_mean","shape":[192],"dtype":"float32","quantization":{"min":-0.37997063994407654,"dtype":"uint8","scale":0.0029230387771830837}},{"name":"batch_normalization_188/moving_variance","shape":[192],"dtype":"float32","quantization":{"min":0.008959736675024033,"dtype":"uint8","scale":0.00030615708115054114}},{"name":"conv2d_189/kernel","shape":[1,3,192,224],"dtype":"float32","quantization":{"min":-0.31480735540390015,"dtype":"uint8","scale":0.003035303190642712}},{"name":"batch_normalization_189/beta","shape":[224],"dtype":"float32","quantization":{"min":-1.0169576406478882,"dtype":"uint8","scale":0.007114876017850988}},{"name":"batch_normalization_189/moving_mean","shape":[224],"dtype":"float32","quantization":{"min":-0.26434436440467834,"dtype":"uint8","scale":0.0024424928076126995}},{"name":"batch_normalization_189/moving_variance","shape":[224],"dtype":"float32","quantization":{"min":0.006646974943578243,"dtype":"uint8","scale":0.0007610443796889454}},{"name":"conv2d_187/kernel","shape":[1,1,2080,192],"dtype":"float32","quantization":{"min":-0.1497991681098938,"dtype":"uint8","scale":0.0015241793557709338}},{"name":"conv2d_190/kernel","shape":[3,1,224,256],"dtype":"float32","quantization":{"min":-0.21495845913887024,"dtype":"uint8","scale":0.002142547976736929}},{"name":"batch_normalization_187/beta","shape":[192],"dtype":"float32","quantization":{"min":-1.2061392068862915,"dtype":"uint8","scale":0.003564529676063388}},{"name":"batch_normalization_187/moving_mean","shape":[192],"dtype":"float32","quantization":{"min":-0.205899178981781,"dtype":"uint8","scale":0.001249693188012815}},{"name":"batch_normalization_187/moving_variance","shape":[192],"dtype":"float32","quantization":{"min":0.0031659097876399755,"dtype":"uint8","scale":7.137255286615269e-05}},{"name":"batch_normalization_190/beta","shape":[256],"dtype":"float32","quantization":{"min":-0.9393672347068787,"dtype":"uint8","scale":0.004482190281737085}},{"name":"batch_normalization_190/moving_mean","shape":[256],"dtype":"float32","quantization":{"min":-0.8963473439216614,"dtype":"uint8","scale":0.010081899166107178}},{"name":"batch_normalization_190/moving_variance","shape":[256],"dtype":"float32","quantization":{"min":0.02858896180987358,"dtype":"uint8","scale":0.00159946383506644}},{"name":"block8_7_conv/kernel","shape":[1,1,448,2080],"dtype":"float32","quantization":{"min":-0.243534654378891,"dtype":"uint8","scale":0.0023321400670444263}},{"name":"block8_7_conv/bias","shape":[2080],"dtype":"float32","quantization":{"min":-0.49547576904296875,"dtype":"uint8","scale":0.007610597329981187}},{"name":"conv2d_192/kernel","shape":[1,1,2080,192],"dtype":"float32","quantization":{"min":-0.3085843324661255,"dtype":"uint8","scale":0.0030697297816183054}},{"name":"batch_normalization_192/beta","shape":[192],"dtype":"float32","quantization":{"min":-1.1226866245269775,"dtype":"uint8","scale":0.007947835968989951}},{"name":"batch_normalization_192/moving_mean","shape":[192],"dtype":"float32","quantization":{"min":-0.7221696376800537,"dtype":"uint8","scale":0.004521300629073498}},{"name":"batch_normalization_192/moving_variance","shape":[192],"dtype":"float32","quantization":{"min":0.006250008940696716,"dtype":"uint8","scale":0.0005359429354761161}},{"name":"conv2d_193/kernel","shape":[1,3,192,224],"dtype":"float32","quantization":{"min":-0.24970969557762146,"dtype":"uint8","scale":0.0019449976729411704}},{"name":"batch_normalization_193/beta","shape":[224],"dtype":"float32","quantization":{"min":-0.9198074340820312,"dtype":"uint8","scale":0.007805242257959703}},{"name":"batch_normalization_193/moving_mean","shape":[224],"dtype":"float32","quantization":{"min":-0.4084767997264862,"dtype":"uint8","scale":0.003392575184504191}},{"name":"batch_normalization_193/moving_variance","shape":[224],"dtype":"float32","quantization":{"min":0.013153579086065292,"dtype":"uint8","scale":0.0010113195023115943}},{"name":"conv2d_191/kernel","shape":[1,1,2080,192],"dtype":"float32","quantization":{"min":-0.13371257483959198,"dtype":"uint8","scale":0.0012924643123851103}},{"name":"conv2d_194/kernel","shape":[3,1,224,256],"dtype":"float32","quantization":{"min":-0.22195011377334595,"dtype":"uint8","scale":0.0017268095530715644}},{"name":"batch_normalization_191/beta","shape":[192],"dtype":"float32","quantization":{"min":-1.1359175443649292,"dtype":"uint8","scale":0.00436599906899181}},{"name":"batch_normalization_191/moving_mean","shape":[192],"dtype":"float32","quantization":{"min":-0.21249128878116608,"dtype":"uint8","scale":0.0017912956429462807}},{"name":"batch_normalization_191/moving_variance","shape":[192],"dtype":"float32","quantization":{"min":0.0035321838222444057,"dtype":"uint8","scale":0.00012970512148504165}},{"name":"batch_normalization_194/beta","shape":[256],"dtype":"float32","quantization":{"min":-0.9967246651649475,"dtype":"uint8","scale":0.004699553812251372}},{"name":"batch_normalization_194/moving_mean","shape":[256],"dtype":"float32","quantization":{"min":-0.9088479280471802,"dtype":"uint8","scale":0.007078662105635101}},{"name":"batch_normalization_194/moving_variance","shape":[256],"dtype":"float32","quantization":{"min":0.034752991050481796,"dtype":"uint8","scale":0.0033489336131834516}},{"name":"block8_8_conv/kernel","shape":[1,1,448,2080],"dtype":"float32","quantization":{"min":-0.248292475938797,"dtype":"uint8","scale":0.002380608927969839}},{"name":"block8_8_conv/bias","shape":[2080],"dtype":"float32","quantization":{"min":-0.48002246022224426,"dtype":"uint8","scale":0.004839269437041937}},{"name":"conv2d_196/kernel","shape":[1,1,2080,192],"dtype":"float32","quantization":{"min":-0.3723334074020386,"dtype":"uint8","scale":0.0029017504523782167}},{"name":"batch_normalization_196/beta","shape":[192],"dtype":"float32","quantization":{"min":-1.5360032320022583,"dtype":"uint8","scale":0.010286464878157073}},{"name":"batch_normalization_196/moving_mean","shape":[192],"dtype":"float32","quantization":{"min":-0.5902806520462036,"dtype":"uint8","scale":0.0056140488269282324}},{"name":"batch_normalization_196/moving_variance","shape":[192],"dtype":"float32","quantization":{"min":0.005630876868963242,"dtype":"uint8","scale":0.0006810426273766686}},{"name":"conv2d_197/kernel","shape":[1,3,192,224],"dtype":"float32","quantization":{"min":-0.2719666659832001,"dtype":"uint8","scale":0.0028354661137449974}},{"name":"batch_normalization_197/beta","shape":[224],"dtype":"float32","quantization":{"min":-1.05805504322052,"dtype":"uint8","scale":0.01186670789531633}},{"name":"batch_normalization_197/moving_mean","shape":[224],"dtype":"float32","quantization":{"min":-0.8416480422019958,"dtype":"uint8","scale":0.005933186119677974}},{"name":"batch_normalization_197/moving_variance","shape":[224],"dtype":"float32","quantization":{"min":0.01894683949649334,"dtype":"uint8","scale":0.004187686485694904}},{"name":"conv2d_195/kernel","shape":[1,1,2080,192],"dtype":"float32","quantization":{"min":-0.09872136265039444,"dtype":"uint8","scale":0.0012159172518580567}},{"name":"conv2d_198/kernel","shape":[3,1,224,256],"dtype":"float32","quantization":{"min":-0.2961796820163727,"dtype":"uint8","scale":0.0021729655125561883}},{"name":"batch_normalization_195/beta","shape":[192],"dtype":"float32","quantization":{"min":-1.1937930583953857,"dtype":"uint8","scale":0.005586097637812297}},{"name":"batch_normalization_195/moving_mean","shape":[192],"dtype":"float32","quantization":{"min":-0.26208385825157166,"dtype":"uint8","scale":0.0022078290873882816}},{"name":"batch_normalization_195/moving_variance","shape":[192],"dtype":"float32","quantization":{"min":0.003684635041281581,"dtype":"uint8","scale":0.000122414621542774}},{"name":"batch_normalization_198/beta","shape":[256],"dtype":"float32","quantization":{"min":-1.235389232635498,"dtype":"uint8","scale":0.0077706470209009506}},{"name":"batch_normalization_198/moving_mean","shape":[256],"dtype":"float32","quantization":{"min":-0.9650412201881409,"dtype":"uint8","scale":0.006098315061307421}},{"name":"batch_normalization_198/moving_variance","shape":[256],"dtype":"float32","quantization":{"min":0.0397818461060524,"dtype":"uint8","scale":0.011582919516984154}},{"name":"block8_9_conv/kernel","shape":[1,1,448,2080],"dtype":"float32","quantization":{"min":-0.3366548418998718,"dtype":"uint8","scale":0.00320052936965344}},{"name":"block8_9_conv/bias","shape":[2080],"dtype":"float32","quantization":{"min":-3.3655543327331543,"dtype":"uint8","scale":0.01803754264233159}},{"name":"conv2d_200/kernel","shape":[1,1,2080,192],"dtype":"float32","quantization":{"min":-0.34420451521873474,"dtype":"uint8","scale":0.0025481322232414694}},{"name":"batch_normalization_200/beta","shape":[192],"dtype":"float32","quantization":{"min":-1.9321401119232178,"dtype":"uint8","scale":0.011058502571255553}},{"name":"batch_normalization_200/moving_mean","shape":[192],"dtype":"float32","quantization":{"min":-0.580655038356781,"dtype":"uint8","scale":0.0029746853837779924}},{"name":"batch_normalization_200/moving_variance","shape":[192],"dtype":"float32","quantization":{"min":0.0034836784470826387,"dtype":"uint8","scale":0.0018811181653290987}},{"name":"conv2d_201/kernel","shape":[1,3,192,224],"dtype":"float32","quantization":{"min":-0.21572290360927582,"dtype":"uint8","scale":0.0021621805195714914}},{"name":"batch_normalization_201/beta","shape":[224],"dtype":"float32","quantization":{"min":-1.6599372625350952,"dtype":"uint8","scale":0.010335058324477252}},{"name":"batch_normalization_201/moving_mean","shape":[224],"dtype":"float32","quantization":{"min":-0.3789016008377075,"dtype":"uint8","scale":0.0028091594284656}},{"name":"batch_normalization_201/moving_variance","shape":[224],"dtype":"float32","quantization":{"min":0.008616932667791843,"dtype":"uint8","scale":0.001874466470497496}},{"name":"conv2d_199/kernel","shape":[1,1,2080,192],"dtype":"float32","quantization":{"min":-0.3660550117492676,"dtype":"uint8","scale":0.0022810810921238918}},{"name":"conv2d_202/kernel","shape":[3,1,224,256],"dtype":"float32","quantization":{"min":-0.23032213747501373,"dtype":"uint8","scale":0.0017700250826629938}},{"name":"batch_normalization_199/beta","shape":[192],"dtype":"float32","quantization":{"min":-3.885143280029297,"dtype":"uint8","scale":0.013027699320924048}},{"name":"batch_normalization_199/moving_mean","shape":[192],"dtype":"float32","quantization":{"min":-0.3441053032875061,"dtype":"uint8","scale":0.0014822511258078556}},{"name":"batch_normalization_199/moving_variance","shape":[192],"dtype":"float32","quantization":{"min":0.002875287551432848,"dtype":"uint8","scale":0.0006733447733316936}},{"name":"batch_normalization_202/beta","shape":[256],"dtype":"float32","quantization":{"min":-2.0520431995391846,"dtype":"uint8","scale":0.006817387482699226}},{"name":"batch_normalization_202/moving_mean","shape":[256],"dtype":"float32","quantization":{"min":-1.549005150794983,"dtype":"uint8","scale":0.006407548779366063}},{"name":"batch_normalization_202/moving_variance","shape":[256],"dtype":"float32","quantization":{"min":4.756920413129251e-10,"dtype":"uint8","scale":0.011352726055598542}},{"name":"block8_10_conv/kernel","shape":[1,1,448,2080],"dtype":"float32","quantization":{"min":-0.33006495237350464,"dtype":"uint8","scale":0.0023273181681539496}},{"name":"block8_10_conv/bias","shape":[2080],"dtype":"float32","quantization":{"min":-0.0052964654751122,"dtype":"uint8","scale":3.876588216014937e-05}},{"name":"conv_7b/kernel","shape":[1,1,2080,1536],"dtype":"float32","quantization":{"min":-0.10134311020374298,"dtype":"uint8","scale":0.0023140033670500213}},{"name":"conv_7b_bn/beta","shape":[1536],"dtype":"float32","quantization":{"min":-0.2083890736103058,"dtype":"uint8","scale":0.0010965027937702104}},{"name":"conv_7b_bn/moving_mean","shape":[1536],"dtype":"float32","quantization":{"min":-0.13293704390525818,"dtype":"uint8","scale":0.0010550900417215683}},{"name":"conv_7b_bn/moving_variance","shape":[1536],"dtype":"float32","quantization":{"min":0.0061814752407372,"dtype":"uint8","scale":0.0008245184853234712}},{"name":"batch_normalization_203/gamma","shape":[1536],"dtype":"float32","quantization":{"min":0.966528058052063,"dtype":"uint8","scale":0.00023361795088824104}},{"name":"batch_normalization_203/beta","shape":[1536],"dtype":"float32","quantization":{"min":-0.13761202991008759,"dtype":"uint8","scale":0.001035382817773258}},{"name":"batch_normalization_203/moving_mean","shape":[1536],"dtype":"float32","quantization":{"min":0.4192446172237396,"dtype":"uint8","scale":0.011531176870944453}},{"name":"batch_normalization_203/moving_variance","shape":[1536],"dtype":"float32","quantization":{"min":0.11801855266094208,"dtype":"uint8","scale":0.02165555048222635}},{"name":"dense/kernel","shape":[1536,256],"dtype":"float32","quantization":{"min":-0.03301776200532913,"dtype":"uint8","scale":0.00026440481637038436}},{"name":"dense/bias","shape":[256],"dtype":"float32","quantization":{"min":-6.75302271702094e-06,"dtype":"uint8","scale":4.551224193681835e-08}},{"name":"dense_1/kernel","shape":[256,4],"dtype":"float32","quantization":{"min":-0.2078597992658615,"dtype":"uint8","scale":0.0018661476233426263}},{"name":"dense_1/bias","shape":[4],"dtype":"float32","quantization":{"min":-0.01485269982367754,"dtype":"uint8","scale":0.00010090474331495808}}]}]}