{"modelTopology":{"class_name":"Sequential","config":{"name":"sequential","layers":[{"class_name":"InputLayer","config":{"batch_input_shape":[null,224,224,3],"dtype":"float32","sparse":false,"ragged":false,"name":"inception_resnet_v2_input"}},{"class_name":"Model","config":{"name":"inception_resnet_v2","trainable":true,"layers":[{"class_name":"InputLayer","config":{"batch_input_shape":[null,224,224,3],"dtype":"float32","sparse":false,"ragged":false,"name":"input_1"},"name":"input_1","inbound_nodes":[]},{"class_name":"Conv2D","config":{"name":"conv2d","trainable":true,"dtype":"float32","filters":32,"kernel_size":[3,3],"strides":[2,2],"padding":"valid","data_format":"channels_last","dilation_rate":[1,1],"groups":1,"activation":"linear","use_bias":false,"kernel_initializer":{"class_name":"GlorotUniform","config":{"seed":null}},"bias_initializer":{"class_name":"Zeros","config":{}},"kernel_regularizer":null,"bias_regularizer":null,"activity_regularizer":null,"kernel_constraint":null,"bias_constraint":null},"name":"conv2d","inbound_nodes":[[["input_1",0,0,{}]]]},{"class_name":"BatchNormalization","config":{"name":"batch_normalization","trainable":true,"dtype":"float32","axis":3,"momentum":0.99,"epsilon":0.001,"center":true,"scale":false,"beta_initializer":{"class_name":"Zeros","config":{}},"gamma_initializer":{"class_name":"Ones","config":{}},"moving_mean_initializer":{"class_name":"Zeros","config":{}},"moving_variance_initializer":{"class_name":"Ones","config":{}},"beta_regularizer":null,"gamma_regularizer":null,"beta_constraint":null,"gamma_constraint":null},"name":"batch_normalization","inbound_nodes":[[["conv2d",0,0,{}]]]},{"class_name":"Activation","config":{"name":"activation","trainable":true,"dtype":"float32","activation":"relu"},"name":"activation","inbound_nodes":[[["batch_normalization",0,0,{}]]]},{"class_name":"Conv2D","config":{"name":"conv2d_1","trainable":true,"dtype":"float32","filters":32,"kernel_size":[3,3],"strides":[1,1],"padding":"valid","data_format":"channels_last","dilation_rate":[1,1],"groups":1,"activation":"linear","use_bias":false,"kernel_initializer":{"class_name":"GlorotUniform","config":{"seed":null}},"bias_initializer":{"class_name":"Zeros","config":{}},"kernel_regularizer":null,"bias_regularizer":null,"activity_regularizer":null,"kernel_constraint":null,"bias_constraint":null},"name":"conv2d_1","inbound_nodes":[[["activation",0,0,{}]]]},{"class_name":"BatchNormalization","config":{"name":"batch_normalization_1","trainable":true,"dtype":"float32","axis":3,"momentum":0.99,"epsilon":0.001,"center":true,"scale":false,"beta_initializer":{"class_name":"Zeros","config":{}},"gamma_initializer":{"class_name":"Ones","config":{}},"moving_mean_initializer":{"class_name":"Zeros","config":{}},"moving_variance_initializer":{"class_name":"Ones","config":{}},"beta_regularizer":null,"gamma_regularizer":null,"beta_constraint":null,"gamma_constraint":null},"name":"batch_normalization_1","inbound_nodes":[[["conv2d_1",0,0,{}]]]},{"class_name":"Activation","config":{"name":"activation_1","trainable":true,"dtype":"float32","activation":"relu"},"name":"activation_1","inbound_nodes":[[["batch_normalization_1",0,0,{}]]]},{"class_name":"Conv2D","config":{"name":"conv2d_2","trainable":true,"dtype":"float32","filters":64,"kernel_size":[3,3],"strides":[1,1],"padding":"same","data_format":"channels_last","dilation_rate":[1,1],"groups":1,"activation":"linear","use_bias":false,"kernel_initializer":{"class_name":"GlorotUniform","config":{"seed":null}},"bias_initializer":{"class_name":"Zeros","config":{}},"kernel_regularizer":null,"bias_regularizer":null,"activity_regularizer":null,"kernel_constraint":null,"bias_constraint":null},"name":"conv2d_2","inbound_nodes":[[["activation_1",0,0,{}]]]},{"class_name":"BatchNormalization","config":{"name":"batch_normalization_2","trainable":true,"dtype":"float32","axis":3,"momentum":0.99,"epsilon":0.001,"center":true,"scale":false,"beta_initializer":{"class_name":"Zeros","config":{}},"gamma_initializer":{"class_name":"Ones","config":{}},"moving_mean_initializer":{"class_name":"Zeros","config":{}},"moving_variance_initializer":{"class_name":"Ones","config":{}},"beta_regularizer":null,"gamma_regularizer":null,"beta_constraint":null,"gamma_constraint":null},"name":"batch_normalization_2","inbound_nodes":[[["conv2d_2",0,0,{}]]]},{"class_name":"Activation","config":{"name":"activation_2","trainable":true,"dtype":"float32","activation":"relu"},"name":"activation_2","inbound_nodes":[[["batch_normalization_2",0,0,{}]]]},{"class_name":"MaxPooling2D","config":{"name":"max_pooling2d","trainable":true,"dtype":"float32","pool_size":[3,3],"padding":"valid","strides":[2,2],"data_format":"channels_last"},"name":"max_pooling2d","inbound_nodes":[[["activation_2",0,0,{}]]]},{"class_name":"Conv2D","config":{"name":"conv2d_3","trainable":true,"dtype":"float32","filters":80,"kernel_size":[1,1],"strides":[1,1],"padding":"valid","data_format":"channels_last","dilation_rate":[1,1],"groups":1,"activation":"linear","use_bias":false,"kernel_initializer":{"class_name":"GlorotUniform","config":{"seed":null}},"bias_initializer":{"class_name":"Zeros","config":{}},"kernel_regularizer":null,"bias_regularizer":null,"activity_regularizer":null,"kernel_constraint":null,"bias_constraint":null},"name":"conv2d_3","inbound_nodes":[[["max_pooling2d",0,0,{}]]]},{"class_name":"BatchNormalization","config":{"name":"batch_normalization_3","trainable":true,"dtype":"float32","axis":3,"momentum":0.99,"epsilon":0.001,"center":true,"scale":false,"beta_initializer":{"class_name":"Zeros","config":{}},"gamma_initializer":{"class_name":"Ones","config":{}},"moving_mean_initializer":{"class_name":"Zeros","config":{}},"moving_variance_initializer":{"class_name":"Ones","config":{}},"beta_regularizer":null,"gamma_regularizer":null,"beta_constraint":null,"gamma_constraint":null},"name":"batch_normalization_3","inbound_nodes":[[["conv2d_3",0,0,{}]]]},{"class_name":"Activation","config":{"name":"activation_3","trainable":true,"dtype":"float32","activation":"relu"},"name":"activation_3","inbound_nodes":[[["batch_normalization_3",0,0,{}]]]},{"class_name":"Conv2D","config":{"name":"conv2d_4","trainable":true,"dtype":"float32","filters":192,"kernel_size":[3,3],"strides":[1,1],"padding":"valid","data_format":"channels_last","dilation_rate":[1,1],"groups":1,"activation":"linear","use_bias":false,"kernel_initializer":{"class_name":"GlorotUniform","config":{"seed":null}},"bias_initializer":{"class_name":"Zeros","config":{}},"kernel_regularizer":null,"bias_regularizer":null,"activity_regularizer":null,"kernel_constraint":null,"bias_constraint":null},"name":"conv2d_4","inbound_nodes":[[["activation_3",0,0,{}]]]},{"class_name":"BatchNormalization","config":{"name":"batch_normalization_4","trainable":true,"dtype":"float32","axis":3,"momentum":0.99,"epsilon":0.001,"center":true,"scale":false,"beta_initializer":{"class_name":"Zeros","config":{}},"gamma_initializer":{"class_name":"Ones","config":{}},"moving_mean_initializer":{"class_name":"Zeros","config":{}},"moving_variance_initializer":{"class_name":"Ones","config":{}},"beta_regularizer":null,"gamma_regularizer":null,"beta_constraint":null,"gamma_constraint":null},"name":"batch_normalization_4","inbound_nodes":[[["conv2d_4",0,0,{}]]]},{"class_name":"Activation","config":{"name":"activation_4","trainable":true,"dtype":"float32","activation":"relu"},"name":"activation_4","inbound_nodes":[[["batch_normalization_4",0,0,{}]]]},{"class_name":"MaxPooling2D","config":{"name":"max_pooling2d_1","trainable":true,"dtype":"float32","pool_size":[3,3],"padding":"valid","strides":[2,2],"data_format":"channels_last"},"name":"max_pooling2d_1","inbound_nodes":[[["activation_4",0,0,{}]]]},{"class_name":"Conv2D","config":{"name":"conv2d_8","trainable":true,"dtype":"float32","filters":64,"kernel_size":[1,1],"strides":[1,1],"padding":"same","data_format":"channels_last","dilation_rate":[1,1],"groups":1,"activation":"linear","use_bias":false,"kernel_initializer":{"class_name":"GlorotUniform","config":{"seed":null}},"bias_initializer":{"class_name":"Zeros","config":{}},"kernel_regularizer":null,"bias_regularizer":null,"activity_regularizer":null,"kernel_constraint":null,"bias_constraint":null},"name":"conv2d_8","inbound_nodes":[[["max_pooling2d_1",0,0,{}]]]},{"class_name":"BatchNormalization","config":{"name":"batch_normalization_8","trainable":true,"dtype":"float32","axis":3,"momentum":0.99,"epsilon":0.001,"center":true,"scale":false,"beta_initializer":{"class_name":"Zeros","config":{}},"gamma_initializer":{"class_name":"Ones","config":{}},"moving_mean_initializer":{"class_name":"Zeros","config":{}},"moving_variance_initializer":{"class_name":"Ones","config":{}},"beta_regularizer":null,"gamma_regularizer":null,"beta_constraint":null,"gamma_constraint":null},"name":"batch_normalization_8","inbound_nodes":[[["conv2d_8",0,0,{}]]]},{"class_name":"Activation","config":{"name":"activation_8","trainable":true,"dtype":"float32","activation":"relu"},"name":"activation_8","inbound_nodes":[[["batch_normalization_8",0,0,{}]]]},{"class_name":"Conv2D","config":{"name":"conv2d_6","trainable":true,"dtype":"float32","filters":48,"kernel_size":[1,1],"strides":[1,1],"padding":"same","data_format":"channels_last","dilation_rate":[1,1],"groups":1,"activation":"linear","use_bias":false,"kernel_initializer":{"class_name":"GlorotUniform","config":{"seed":null}},"bias_initializer":{"class_name":"Zeros","config":{}},"kernel_regularizer":null,"bias_regularizer":null,"activity_regularizer":null,"kernel_constraint":null,"bias_constraint":null},"name":"conv2d_6","inbound_nodes":[[["max_pooling2d_1",0,0,{}]]]},{"class_name":"Conv2D","config":{"name":"conv2d_9","trainable":true,"dtype":"float32","filters":96,"kernel_size":[3,3],"strides":[1,1],"padding":"same","data_format":"channels_last","dilation_rate":[1,1],"groups":1,"activation":"linear","use_bias":false,"kernel_initializer":{"class_name":"GlorotUniform","config":{"seed":null}},"bias_initializer":{"class_name":"Zeros","config":{}},"kernel_regularizer":null,"bias_regularizer":null,"activity_regularizer":null,"kernel_constraint":null,"bias_constraint":null},"name":"conv2d_9","inbound_nodes":[[["activation_8",0,0,{}]]]},{"class_name":"BatchNormalization","config":{"name":"batch_normalization_6","trainable":true,"dtype":"float32","axis":3,"momentum":0.99,"epsilon":0.001,"center":true,"scale":false,"beta_initializer":{"class_name":"Zeros","config":{}},"gamma_initializer":{"class_name":"Ones","config":{}},"moving_mean_initializer":{"class_name":"Zeros","config":{}},"moving_variance_initializer":{"class_name":"Ones","config":{}},"beta_regularizer":null,"gamma_regularizer":null,"beta_constraint":null,"gamma_constraint":null},"name":"batch_normalization_6","inbound_nodes":[[["conv2d_6",0,0,{}]]]},{"class_name":"BatchNormalization","config":{"name":"batch_normalization_9","trainable":true,"dtype":"float32","axis":3,"momentum":0.99,"epsilon":0.001,"center":true,"scale":false,"beta_initializer":{"class_name":"Zeros","config":{}},"gamma_initializer":{"class_name":"Ones","config":{}},"moving_mean_initializer":{"class_name":"Zeros","config":{}},"moving_variance_initializer":{"class_name":"Ones","config":{}},"beta_regularizer":null,"gamma_regularizer":null,"beta_constraint":null,"gamma_constraint":null},"name":"batch_normalization_9","inbound_nodes":[[["conv2d_9",0,0,{}]]]},{"class_name":"Activation","config":{"name":"activation_6","trainable":true,"dtype":"float32","activation":"relu"},"name":"activation_6","inbound_nodes":[[["batch_normalization_6",0,0,{}]]]},{"class_name":"Activation","config":{"name":"activation_9","trainable":true,"dtype":"float32","activation":"relu"},"name":"activation_9","inbound_nodes":[[["batch_normalization_9",0,0,{}]]]},{"class_name":"AveragePooling2D","config":{"name":"average_pooling2d","trainable":true,"dtype":"float32","pool_size":[3,3],"padding":"same","strides":[1,1],"data_format":"channels_last"},"name":"average_pooling2d","inbound_nodes":[[["max_pooling2d_1",0,0,{}]]]},{"class_name":"Conv2D","config":{"name":"conv2d_5","trainable":true,"dtype":"float32","filters":96,"kernel_size":[1,1],"strides":[1,1],"padding":"same","data_format":"channels_last","dilation_rate":[1,1],"groups":1,"activation":"linear","use_bias":false,"kernel_initializer":{"class_name":"GlorotUniform","config":{"seed":null}},"bias_initializer":{"class_name":"Zeros","config":{}},"kernel_regularizer":null,"bias_regularizer":null,"activity_regularizer":null,"kernel_constraint":null,"bias_constraint":null},"name":"conv2d_5","inbound_nodes":[[["max_pooling2d_1",0,0,{}]]]},{"class_name":"Conv2D","config":{"name":"conv2d_7","trainable":true,"dtype":"float32","filters":64,"kernel_size":[5,5],"strides":[1,1],"padding":"same","data_format":"channels_last","dilation_rate":[1,1],"groups":1,"activation":"linear","use_bias":false,"kernel_initializer":{"class_name":"GlorotUniform","config":{"seed":null}},"bias_initializer":{"class_name":"Zeros","config":{}},"kernel_regularizer":null,"bias_regularizer":null,"activity_regularizer":null,"kernel_constraint":null,"bias_constraint":null},"name":"conv2d_7","inbound_nodes":[[["activation_6",0,0,{}]]]},{"class_name":"Conv2D","config":{"name":"conv2d_10","trainable":true,"dtype":"float32","filters":96,"kernel_size":[3,3],"strides":[1,1],"padding":"same","data_format":"channels_last","dilation_rate":[1,1],"groups":1,"activation":"linear","use_bias":false,"kernel_initializer":{"class_name":"GlorotUniform","config":{"seed":null}},"bias_initializer":{"class_name":"Zeros","config":{}},"kernel_regularizer":null,"bias_regularizer":null,"activity_regularizer":null,"kernel_constraint":null,"bias_constraint":null},"name":"conv2d_10","inbound_nodes":[[["activation_9",0,0,{}]]]},{"class_name":"Conv2D","config":{"name":"conv2d_11","trainable":true,"dtype":"float32","filters":64,"kernel_size":[1,1],"strides":[1,1],"padding":"same","data_format":"channels_last","dilation_rate":[1,1],"groups":1,"activation":"linear","use_bias":false,"kernel_initializer":{"class_name":"GlorotUniform","config":{"seed":null}},"bias_initializer":{"class_name":"Zeros","config":{}},"kernel_regularizer":null,"bias_regularizer":null,"activity_regularizer":null,"kernel_constraint":null,"bias_constraint":null},"name":"conv2d_11","inbound_nodes":[[["average_pooling2d",0,0,{}]]]},{"class_name":"BatchNormalization","config":{"name":"batch_normalization_5","trainable":true,"dtype":"float32","axis":3,"momentum":0.99,"epsilon":0.001,"center":true,"scale":false,"beta_initializer":{"class_name":"Zeros","config":{}},"gamma_initializer":{"class_name":"Ones","config":{}},"moving_mean_initializer":{"class_name":"Zeros","config":{}},"moving_variance_initializer":{"class_name":"Ones","config":{}},"beta_regularizer":null,"gamma_regularizer":null,"beta_constraint":null,"gamma_constraint":null},"name":"batch_normalization_5","inbound_nodes":[[["conv2d_5",0,0,{}]]]},{"class_name":"BatchNormalization","config":{"name":"batch_normalization_7","trainable":true,"dtype":"float32","axis":3,"momentum":0.99,"epsilon":0.001,"center":true,"scale":false,"beta_initializer":{"class_name":"Zeros","config":{}},"gamma_initializer":{"class_name":"Ones","config":{}},"moving_mean_initializer":{"class_name":"Zeros","config":{}},"moving_variance_initializer":{"class_name":"Ones","config":{}},"beta_regularizer":null,"gamma_regularizer":null,"beta_constraint":null,"gamma_constraint":null},"name":"batch_normalization_7","inbound_nodes":[[["conv2d_7",0,0,{}]]]},{"class_name":"BatchNormalization","config":{"name":"batch_normalization_10","trainable":true,"dtype":"float32","axis":3,"momentum":0.99,"epsilon":0.001,"center":true,"scale":false,"beta_initializer":{"class_name":"Zeros","config":{}},"gamma_initializer":{"class_name":"Ones","config":{}},"moving_mean_initializer":{"class_name":"Zeros","config":{}},"moving_variance_initializer":{"class_name":"Ones","config":{}},"beta_regularizer":null,"gamma_regularizer":null,"beta_constraint":null,"gamma_constraint":null},"name":"batch_normalization_10","inbound_nodes":[[["conv2d_10",0,0,{}]]]},{"class_name":"BatchNormalization","config":{"name":"batch_normalization_11","trainable":true,"dtype":"float32","axis":3,"momentum":0.99,"epsilon":0.001,"center":true,"scale":false,"beta_initializer":{"class_name":"Zeros","config":{}},"gamma_initializer":{"class_name":"Ones","config":{}},"moving_mean_initializer":{"class_name":"Zeros","config":{}},"moving_variance_initializer":{"class_name":"Ones","config":{}},"beta_regularizer":null,"gamma_regularizer":null,"beta_constraint":null,"gamma_constraint":null},"name":"batch_normalization_11","inbound_nodes":[[["conv2d_11",0,0,{}]]]},{"class_name":"Activation","config":{"name":"activation_5","trainable":true,"dtype":"float32","activation":"relu"},"name":"activation_5","inbound_nodes":[[["batch_normalization_5",0,0,{}]]]},{"class_name":"Activation","config":{"name":"activation_7","trainable":true,"dtype":"float32","activation":"relu"},"name":"activation_7","inbound_nodes":[[["batch_normalization_7",0,0,{}]]]},{"class_name":"Activation","config":{"name":"activation_10","trainable":true,"dtype":"float32","activation":"relu"},"name":"activation_10","inbound_nodes":[[["batch_normalization_10",0,0,{}]]]},{"class_name":"Activation","config":{"name":"activation_11","trainable":true,"dtype":"float32","activation":"relu"},"name":"activation_11","inbound_nodes":[[["batch_normalization_11",0,0,{}]]]},{"class_name":"Concatenate","config":{"name":"mixed_5b","trainable":true,"dtype":"float32","axis":3},"name":"mixed_5b","inbound_nodes":[[["activation_5",0,0,{}],["activation_7",0,0,{}],["activation_10",0,0,{}],["activation_11",0,0,{}]]]},{"class_name":"Conv2D","config":{"name":"conv2d_15","trainable":true,"dtype":"float32","filters":32,"kernel_size":[1,1],"strides":[1,1],"padding":"same","data_format":"channels_last","dilation_rate":[1,1],"groups":1,"activation":"linear","use_bias":false,"kernel_initializer":{"class_name":"GlorotUniform","config":{"seed":null}},"bias_initializer":{"class_name":"Zeros","config":{}},"kernel_regularizer":null,"bias_regularizer":null,"activity_regularizer":null,"kernel_constraint":null,"bias_constraint":null},"name":"conv2d_15","inbound_nodes":[[["mixed_5b",0,0,{}]]]},{"class_name":"BatchNormalization","config":{"name":"batch_normalization_15","trainable":true,"dtype":"float32","axis":3,"momentum":0.99,"epsilon":0.001,"center":true,"scale":false,"beta_initializer":{"class_name":"Zeros","config":{}},"gamma_initializer":{"class_name":"Ones","config":{}},"moving_mean_initializer":{"class_name":"Zeros","config":{}},"moving_variance_initializer":{"class_name":"Ones","config":{}},"beta_regularizer":null,"gamma_regularizer":null,"beta_constraint":null,"gamma_constraint":null},"name":"batch_normalization_15","inbound_nodes":[[["conv2d_15",0,0,{}]]]},{"class_name":"Activation","config":{"name":"activation_15","trainable":true,"dtype":"float32","activation":"relu"},"name":"activation_15","inbound_nodes":[[["batch_normalization_15",0,0,{}]]]},{"class_name":"Conv2D","config":{"name":"conv2d_13","trainable":true,"dtype":"float32","filters":32,"kernel_size":[1,1],"strides":[1,1],"padding":"same","data_format":"channels_last","dilation_rate":[1,1],"groups":1,"activation":"linear","use_bias":false,"kernel_initializer":{"class_name":"GlorotUniform","config":{"seed":null}},"bias_initializer":{"class_name":"Zeros","config":{}},"kernel_regularizer":null,"bias_regularizer":null,"activity_regularizer":null,"kernel_constraint":null,"bias_constraint":null},"name":"conv2d_13","inbound_nodes":[[["mixed_5b",0,0,{}]]]},{"class_name":"Conv2D","config":{"name":"conv2d_16","trainable":true,"dtype":"float32","filters":48,"kernel_size":[3,3],"strides":[1,1],"padding":"same","data_format":"channels_last","dilation_rate":[1,1],"groups":1,"activation":"linear","use_bias":false,"kernel_initializer":{"class_name":"GlorotUniform","config":{"seed":null}},"bias_initializer":{"class_name":"Zeros","config":{}},"kernel_regularizer":null,"bias_regularizer":null,"activity_regularizer":null,"kernel_constraint":null,"bias_constraint":null},"name":"conv2d_16","inbound_nodes":[[["activation_15",0,0,{}]]]},{"class_name":"BatchNormalization","config":{"name":"batch_normalization_13","trainable":true,"dtype":"float32","axis":3,"momentum":0.99,"epsilon":0.001,"center":true,"scale":false,"beta_initializer":{"class_name":"Zeros","config":{}},"gamma_initializer":{"class_name":"Ones","config":{}},"moving_mean_initializer":{"class_name":"Zeros","config":{}},"moving_variance_initializer":{"class_name":"Ones","config":{}},"beta_regularizer":null,"gamma_regularizer":null,"beta_constraint":null,"gamma_constraint":null},"name":"batch_normalization_13","inbound_nodes":[[["conv2d_13",0,0,{}]]]},{"class_name":"BatchNormalization","config":{"name":"batch_normalization_16","trainable":true,"dtype":"float32","axis":3,"momentum":0.99,"epsilon":0.001,"center":true,"scale":false,"beta_initializer":{"class_name":"Zeros","config":{}},"gamma_initializer":{"class_name":"Ones","config":{}},"moving_mean_initializer":{"class_name":"Zeros","config":{}},"moving_variance_initializer":{"class_name":"Ones","config":{}},"beta_regularizer":null,"gamma_regularizer":null,"beta_constraint":null,"gamma_constraint":null},"name":"batch_normalization_16","inbound_nodes":[[["conv2d_16",0,0,{}]]]},{"class_name":"Activation","config":{"name":"activation_13","trainable":true,"dtype":"float32","activation":"relu"},"name":"activation_13","inbound_nodes":[[["batch_normalization_13",0,0,{}]]]},{"class_name":"Activation","config":{"name":"activation_16","trainable":true,"dtype":"float32","activation":"relu"},"name":"activation_16","inbound_nodes":[[["batch_normalization_16",0,0,{}]]]},{"class_name":"Conv2D","config":{"name":"conv2d_12","trainable":true,"dtype":"float32","filters":32,"kernel_size":[1,1],"strides":[1,1],"padding":"same","data_format":"channels_last","dilation_rate":[1,1],"groups":1,"activation":"linear","use_bias":false,"kernel_initializer":{"class_name":"GlorotUniform","config":{"seed":null}},"bias_initializer":{"class_name":"Zeros","config":{}},"kernel_regularizer":null,"bias_regularizer":null,"activity_regularizer":null,"kernel_constraint":null,"bias_constraint":null},"name":"conv2d_12","inbound_nodes":[[["mixed_5b",0,0,{}]]]},{"class_name":"Conv2D","config":{"name":"conv2d_14","trainable":true,"dtype":"float32","filters":32,"kernel_size":[3,3],"strides":[1,1],"padding":"same","data_format":"channels_last","dilation_rate":[1,1],"groups":1,"activation":"linear","use_bias":false,"kernel_initializer":{"class_name":"GlorotUniform","config":{"seed":null}},"bias_initializer":{"class_name":"Zeros","config":{}},"kernel_regularizer":null,"bias_regularizer":null,"activity_regularizer":null,"kernel_constraint":null,"bias_constraint":null},"name":"conv2d_14","inbound_nodes":[[["activation_13",0,0,{}]]]},{"class_name":"Conv2D","config":{"name":"conv2d_17","trainable":true,"dtype":"float32","filters":64,"kernel_size":[3,3],"strides":[1,1],"padding":"same","data_format":"channels_last","dilation_rate":[1,1],"groups":1,"activation":"linear","use_bias":false,"kernel_initializer":{"class_name":"GlorotUniform","config":{"seed":null}},"bias_initializer":{"class_name":"Zeros","config":{}},"kernel_regularizer":null,"bias_regularizer":null,"activity_regularizer":null,"kernel_constraint":null,"bias_constraint":null},"name":"conv2d_17","inbound_nodes":[[["activation_16",0,0,{}]]]},{"class_name":"BatchNormalization","config":{"name":"batch_normalization_12","trainable":true,"dtype":"float32","axis":3,"momentum":0.99,"epsilon":0.001,"center":true,"scale":false,"beta_initializer":{"class_name":"Zeros","config":{}},"gamma_initializer":{"class_name":"Ones","config":{}},"moving_mean_initializer":{"class_name":"Zeros","config":{}},"moving_variance_initializer":{"class_name":"Ones","config":{}},"beta_regularizer":null,"gamma_regularizer":null,"beta_constraint":null,"gamma_constraint":null},"name":"batch_normalization_12","inbound_nodes":[[["conv2d_12",0,0,{}]]]},{"class_name":"BatchNormalization","config":{"name":"batch_normalization_14","trainable":true,"dtype":"float32","axis":3,"momentum":0.99,"epsilon":0.001,"center":true,"scale":false,"beta_initializer":{"class_name":"Zeros","config":{}},"gamma_initializer":{"class_name":"Ones","config":{}},"moving_mean_initializer":{"class_name":"Zeros","config":{}},"moving_variance_initializer":{"class_name":"Ones","config":{}},"beta_regularizer":null,"gamma_regularizer":null,"beta_constraint":null,"gamma_constraint":null},"name":"batch_normalization_14","inbound_nodes":[[["conv2d_14",0,0,{}]]]},{"class_name":"BatchNormalization","config":{"name":"batch_normalization_17","trainable":true,"dtype":"float32","axis":3,"momentum":0.99,"epsilon":0.001,"center":true,"scale":false,"beta_initializer":{"class_name":"Zeros","config":{}},"gamma_initializer":{"class_name":"Ones","config":{}},"moving_mean_initializer":{"class_name":"Zeros","config":{}},"moving_variance_initializer":{"class_name":"Ones","config":{}},"beta_regularizer":null,"gamma_regularizer":null,"beta_constraint":null,"gamma_constraint":null},"name":"batch_normalization_17","inbound_nodes":[[["conv2d_17",0,0,{}]]]},{"class_name":"Activation","config":{"name":"activation_12","trainable":true,"dtype":"float32","activation":"relu"},"name":"activation_12","inbound_nodes":[[["batch_normalization_12",0,0,{}]]]},{"class_name":"Activation","config":{"name":"activation_14","trainable":true,"dtype":"float32","activation":"relu"},"name":"activation_14","inbound_nodes":[[["batch_normalization_14",0,0,{}]]]},{"class_name":"Activation","config":{"name":"activation_17","trainable":true,"dtype":"float32","activation":"relu"},"name":"activation_17","inbound_nodes":[[["batch_normalization_17",0,0,{}]]]},{"class_name":"Concatenate","config":{"name":"block35_1_mixed","trainable":true,"dtype":"float32","axis":3},"name":"block35_1_mixed","inbound_nodes":[[["activation_12",0,0,{}],["activation_14",0,0,{}],["activation_17",0,0,{}]]]},{"class_name":"Conv2D","config":{"name":"block35_1_conv","trainable":true,"dtype":"float32","filters":320,"kernel_size":[1,1],"strides":[1,1],"padding":"same","data_format":"channels_last","dilation_rate":[1,1],"groups":1,"activation":"linear","use_bias":true,"kernel_initializer":{"class_name":"GlorotUniform","config":{"seed":null}},"bias_initializer":{"class_name":"Zeros","config":{}},"kernel_regularizer":null,"bias_regularizer":null,"activity_regularizer":null,"kernel_constraint":null,"bias_constraint":null},"name":"block35_1_conv","inbound_nodes":[[["block35_1_mixed",0,0,{}]]]},{"class_name":"CustomScaleLayer","config":{"name":"custom_scale_layer","trainable":true,"dtype":"float32","scale":0.17},"name":"custom_scale_layer","inbound_nodes":[[["mixed_5b",0,0,{}],["block35_1_conv",0,0,{}]]]},{"class_name":"Activation","config":{"name":"block35_1_ac","trainable":true,"dtype":"float32","activation":"relu"},"name":"block35_1_ac","inbound_nodes":[[["custom_scale_layer",0,0,{}]]]},{"class_name":"Conv2D","config":{"name":"conv2d_21","trainable":true,"dtype":"float32","filters":32,"kernel_size":[1,1],"strides":[1,1],"padding":"same","data_format":"channels_last","dilation_rate":[1,1],"groups":1,"activation":"linear","use_bias":false,"kernel_initializer":{"class_name":"GlorotUniform","config":{"seed":null}},"bias_initializer":{"class_name":"Zeros","config":{}},"kernel_regularizer":null,"bias_regularizer":null,"activity_regularizer":null,"kernel_constraint":null,"bias_constraint":null},"name":"conv2d_21","inbound_nodes":[[["block35_1_ac",0,0,{}]]]},{"class_name":"BatchNormalization","config":{"name":"batch_normalization_21","trainable":true,"dtype":"float32","axis":3,"momentum":0.99,"epsilon":0.001,"center":true,"scale":false,"beta_initializer":{"class_name":"Zeros","config":{}},"gamma_initializer":{"class_name":"Ones","config":{}},"moving_mean_initializer":{"class_name":"Zeros","config":{}},"moving_variance_initializer":{"class_name":"Ones","config":{}},"beta_regularizer":null,"gamma_regularizer":null,"beta_constraint":null,"gamma_constraint":null},"name":"batch_normalization_21","inbound_nodes":[[["conv2d_21",0,0,{}]]]},{"class_name":"Activation","config":{"name":"activation_21","trainable":true,"dtype":"float32","activation":"relu"},"name":"activation_21","inbound_nodes":[[["batch_normalization_21",0,0,{}]]]},{"class_name":"Conv2D","config":{"name":"conv2d_19","trainable":true,"dtype":"float32","filters":32,"kernel_size":[1,1],"strides":[1,1],"padding":"same","data_format":"channels_last","dilation_rate":[1,1],"groups":1,"activation":"linear","use_bias":false,"kernel_initializer":{"class_name":"GlorotUniform","config":{"seed":null}},"bias_initializer":{"class_name":"Zeros","config":{}},"kernel_regularizer":null,"bias_regularizer":null,"activity_regularizer":null,"kernel_constraint":null,"bias_constraint":null},"name":"conv2d_19","inbound_nodes":[[["block35_1_ac",0,0,{}]]]},{"class_name":"Conv2D","config":{"name":"conv2d_22","trainable":true,"dtype":"float32","filters":48,"kernel_size":[3,3],"strides":[1,1],"padding":"same","data_format":"channels_last","dilation_rate":[1,1],"groups":1,"activation":"linear","use_bias":false,"kernel_initializer":{"class_name":"GlorotUniform","config":{"seed":null}},"bias_initializer":{"class_name":"Zeros","config":{}},"kernel_regularizer":null,"bias_regularizer":null,"activity_regularizer":null,"kernel_constraint":null,"bias_constraint":null},"name":"conv2d_22","inbound_nodes":[[["activation_21",0,0,{}]]]},{"class_name":"BatchNormalization","config":{"name":"batch_normalization_19","trainable":true,"dtype":"float32","axis":3,"momentum":0.99,"epsilon":0.001,"center":true,"scale":false,"beta_initializer":{"class_name":"Zeros","config":{}},"gamma_initializer":{"class_name":"Ones","config":{}},"moving_mean_initializer":{"class_name":"Zeros","config":{}},"moving_variance_initializer":{"class_name":"Ones","config":{}},"beta_regularizer":null,"gamma_regularizer":null,"beta_constraint":null,"gamma_constraint":null},"name":"batch_normalization_19","inbound_nodes":[[["conv2d_19",0,0,{}]]]},{"class_name":"BatchNormalization","config":{"name":"batch_normalization_22","trainable":true,"dtype":"float32","axis":3,"momentum":0.99,"epsilon":0.001,"center":true,"scale":false,"beta_initializer":{"class_name":"Zeros","config":{}},"gamma_initializer":{"class_name":"Ones","config":{}},"moving_mean_initializer":{"class_name":"Zeros","config":{}},"moving_variance_initializer":{"class_name":"Ones","config":{}},"beta_regularizer":null,"gamma_regularizer":null,"beta_constraint":null,"gamma_constraint":null},"name":"batch_normalization_22","inbound_nodes":[[["conv2d_22",0,0,{}]]]},{"class_name":"Activation","config":{"name":"activation_19","trainable":true,"dtype":"float32","activation":"relu"},"name":"activation_19","inbound_nodes":[[["batch_normalization_19",0,0,{}]]]},{"class_name":"Activation","config":{"name":"activation_22","trainable":true,"dtype":"float32","activation":"relu"},"name":"activation_22","inbound_nodes":[[["batch_normalization_22",0,0,{}]]]},{"class_name":"Conv2D","config":{"name":"conv2d_18","trainable":true,"dtype":"float32","filters":32,"kernel_size":[1,1],"strides":[1,1],"padding":"same","data_format":"channels_last","dilation_rate":[1,1],"groups":1,"activation":"linear","use_bias":false,"kernel_initializer":{"class_name":"GlorotUniform","config":{"seed":null}},"bias_initializer":{"class_name":"Zeros","config":{}},"kernel_regularizer":null,"bias_regularizer":null,"activity_regularizer":null,"kernel_constraint":null,"bias_constraint":null},"name":"conv2d_18","inbound_nodes":[[["block35_1_ac",0,0,{}]]]},{"class_name":"Conv2D","config":{"name":"conv2d_20","trainable":true,"dtype":"float32","filters":32,"kernel_size":[3,3],"strides":[1,1],"padding":"same","data_format":"channels_last","dilation_rate":[1,1],"groups":1,"activation":"linear","use_bias":false,"kernel_initializer":{"class_name":"GlorotUniform","config":{"seed":null}},"bias_initializer":{"class_name":"Zeros","config":{}},"kernel_regularizer":null,"bias_regularizer":null,"activity_regularizer":null,"kernel_constraint":null,"bias_constraint":null},"name":"conv2d_20","inbound_nodes":[[["activation_19",0,0,{}]]]},{"class_name":"Conv2D","config":{"name":"conv2d_23","trainable":true,"dtype":"float32","filters":64,"kernel_size":[3,3],"strides":[1,1],"padding":"same","data_format":"channels_last","dilation_rate":[1,1],"groups":1,"activation":"linear","use_bias":false,"kernel_initializer":{"class_name":"GlorotUniform","config":{"seed":null}},"bias_initializer":{"class_name":"Zeros","config":{}},"kernel_regularizer":null,"bias_regularizer":null,"activity_regularizer":null,"kernel_constraint":null,"bias_constraint":null},"name":"conv2d_23","inbound_nodes":[[["activation_22",0,0,{}]]]},{"class_name":"BatchNormalization","config":{"name":"batch_normalization_18","trainable":true,"dtype":"float32","axis":3,"momentum":0.99,"epsilon":0.001,"center":true,"scale":false,"beta_initializer":{"class_name":"Zeros","config":{}},"gamma_initializer":{"class_name":"Ones","config":{}},"moving_mean_initializer":{"class_name":"Zeros","config":{}},"moving_variance_initializer":{"class_name":"Ones","config":{}},"beta_regularizer":null,"gamma_regularizer":null,"beta_constraint":null,"gamma_constraint":null},"name":"batch_normalization_18","inbound_nodes":[[["conv2d_18",0,0,{}]]]},{"class_name":"BatchNormalization","config":{"name":"batch_normalization_20","trainable":true,"dtype":"float32","axis":3,"momentum":0.99,"epsilon":0.001,"center":true,"scale":false,"beta_initializer":{"class_name":"Zeros","config":{}},"gamma_initializer":{"class_name":"Ones","config":{}},"moving_mean_initializer":{"class_name":"Zeros","config":{}},"moving_variance_initializer":{"class_name":"Ones","config":{}},"beta_regularizer":null,"gamma_regularizer":null,"beta_constraint":null,"gamma_constraint":null},"name":"batch_normalization_20","inbound_nodes":[[["conv2d_20",0,0,{}]]]},{"class_name":"BatchNormalization","config":{"name":"batch_normalization_23","trainable":true,"dtype":"float32","axis":3,"momentum":0.99,"epsilon":0.001,"center":true,"scale":false,"beta_initializer":{"class_name":"Zeros","config":{}},"gamma_initializer":{"class_name":"Ones","config":{}},"moving_mean_initializer":{"class_name":"Zeros","config":{}},"moving_variance_initializer":{"class_name":"Ones","config":{}},"beta_regularizer":null,"gamma_regularizer":null,"beta_constraint":null,"gamma_constraint":null},"name":"batch_normalization_23","inbound_nodes":[[["conv2d_23",0,0,{}]]]},{"class_name":"Activation","config":{"name":"activation_18","trainable":true,"dtype":"float32","activation":"relu"},"name":"activation_18","inbound_nodes":[[["batch_normalization_18",0,0,{}]]]},{"class_name":"Activation","config":{"name":"activation_20","trainable":true,"dtype":"float32","activation":"relu"},"name":"activation_20","inbound_nodes":[[["batch_normalization_20",0,0,{}]]]},{"class_name":"Activation","config":{"name":"activation_23","trainable":true,"dtype":"float32","activation":"relu"},"name":"activation_23","inbound_nodes":[[["batch_normalization_23",0,0,{}]]]},{"class_name":"Concatenate","config":{"name":"block35_2_mixed","trainable":true,"dtype":"float32","axis":3},"name":"block35_2_mixed","inbound_nodes":[[["activation_18",0,0,{}],["activation_20",0,0,{}],["activation_23",0,0,{}]]]},{"class_name":"Conv2D","config":{"name":"block35_2_conv","trainable":true,"dtype":"float32","filters":320,"kernel_size":[1,1],"strides":[1,1],"padding":"same","data_format":"channels_last","dilation_rate":[1,1],"groups":1,"activation":"linear","use_bias":true,"kernel_initializer":{"class_name":"GlorotUniform","config":{"seed":null}},"bias_initializer":{"class_name":"Zeros","config":{}},"kernel_regularizer":null,"bias_regularizer":null,"activity_regularizer":null,"kernel_constraint":null,"bias_constraint":null},"name":"block35_2_conv","inbound_nodes":[[["block35_2_mixed",0,0,{}]]]},{"class_name":"CustomScaleLayer","config":{"name":"custom_scale_layer_1","trainable":true,"dtype":"float32","scale":0.17},"name":"custom_scale_layer_1","inbound_nodes":[[["block35_1_ac",0,0,{}],["block35_2_conv",0,0,{}]]]},{"class_name":"Activation","config":{"name":"block35_2_ac","trainable":true,"dtype":"float32","activation":"relu"},"name":"block35_2_ac","inbound_nodes":[[["custom_scale_layer_1",0,0,{}]]]},{"class_name":"Conv2D","config":{"name":"conv2d_27","trainable":true,"dtype":"float32","filters":32,"kernel_size":[1,1],"strides":[1,1],"padding":"same","data_format":"channels_last","dilation_rate":[1,1],"groups":1,"activation":"linear","use_bias":false,"kernel_initializer":{"class_name":"GlorotUniform","config":{"seed":null}},"bias_initializer":{"class_name":"Zeros","config":{}},"kernel_regularizer":null,"bias_regularizer":null,"activity_regularizer":null,"kernel_constraint":null,"bias_constraint":null},"name":"conv2d_27","inbound_nodes":[[["block35_2_ac",0,0,{}]]]},{"class_name":"BatchNormalization","config":{"name":"batch_normalization_27","trainable":true,"dtype":"float32","axis":3,"momentum":0.99,"epsilon":0.001,"center":true,"scale":false,"beta_initializer":{"class_name":"Zeros","config":{}},"gamma_initializer":{"class_name":"Ones","config":{}},"moving_mean_initializer":{"class_name":"Zeros","config":{}},"moving_variance_initializer":{"class_name":"Ones","config":{}},"beta_regularizer":null,"gamma_regularizer":null,"beta_constraint":null,"gamma_constraint":null},"name":"batch_normalization_27","inbound_nodes":[[["conv2d_27",0,0,{}]]]},{"class_name":"Activation","config":{"name":"activation_27","trainable":true,"dtype":"float32","activation":"relu"},"name":"activation_27","inbound_nodes":[[["batch_normalization_27",0,0,{}]]]},{"class_name":"Conv2D","config":{"name":"conv2d_25","trainable":true,"dtype":"float32","filters":32,"kernel_size":[1,1],"strides":[1,1],"padding":"same","data_format":"channels_last","dilation_rate":[1,1],"groups":1,"activation":"linear","use_bias":false,"kernel_initializer":{"class_name":"GlorotUniform","config":{"seed":null}},"bias_initializer":{"class_name":"Zeros","config":{}},"kernel_regularizer":null,"bias_regularizer":null,"activity_regularizer":null,"kernel_constraint":null,"bias_constraint":null},"name":"conv2d_25","inbound_nodes":[[["block35_2_ac",0,0,{}]]]},{"class_name":"Conv2D","config":{"name":"conv2d_28","trainable":true,"dtype":"float32","filters":48,"kernel_size":[3,3],"strides":[1,1],"padding":"same","data_format":"channels_last","dilation_rate":[1,1],"groups":1,"activation":"linear","use_bias":false,"kernel_initializer":{"class_name":"GlorotUniform","config":{"seed":null}},"bias_initializer":{"class_name":"Zeros","config":{}},"kernel_regularizer":null,"bias_regularizer":null,"activity_regularizer":null,"kernel_constraint":null,"bias_constraint":null},"name":"conv2d_28","inbound_nodes":[[["activation_27",0,0,{}]]]},{"class_name":"BatchNormalization","config":{"name":"batch_normalization_25","trainable":true,"dtype":"float32","axis":3,"momentum":0.99,"epsilon":0.001,"center":true,"scale":false,"beta_initializer":{"class_name":"Zeros","config":{}},"gamma_initializer":{"class_name":"Ones","config":{}},"moving_mean_initializer":{"class_name":"Zeros","config":{}},"moving_variance_initializer":{"class_name":"Ones","config":{}},"beta_regularizer":null,"gamma_regularizer":null,"beta_constraint":null,"gamma_constraint":null},"name":"batch_normalization_25","inbound_nodes":[[["conv2d_25",0,0,{}]]]},{"class_name":"BatchNormalization","config":{"name":"batch_normalization_28","trainable":true,"dtype":"float32","axis":3,"momentum":0.99,"epsilon":0.001,"center":true,"scale":false,"beta_initializer":{"class_name":"Zeros","config":{}},"gamma_initializer":{"class_name":"Ones","config":{}},"moving_mean_initializer":{"class_name":"Zeros","config":{}},"moving_variance_initializer":{"class_name":"Ones","config":{}},"beta_regularizer":null,"gamma_regularizer":null,"beta_constraint":null,"gamma_constraint":null},"name":"batch_normalization_28","inbound_nodes":[[["conv2d_28",0,0,{}]]]},{"class_name":"Activation","config":{"name":"activation_25","trainable":true,"dtype":"float32","activation":"relu"},"name":"activation_25","inbound_nodes":[[["batch_normalization_25",0,0,{}]]]},{"class_name":"Activation","config":{"name":"activation_28","trainable":true,"dtype":"float32","activation":"relu"},"name":"activation_28","inbound_nodes":[[["batch_normalization_28",0,0,{}]]]},{"class_name":"Conv2D","config":{"name":"conv2d_24","trainable":true,"dtype":"float32","filters":32,"kernel_size":[1,1],"strides":[1,1],"padding":"same","data_format":"channels_last","dilation_rate":[1,1],"groups":1,"activation":"linear","use_bias":false,"kernel_initializer":{"class_name":"GlorotUniform","config":{"seed":null}},"bias_initializer":{"class_name":"Zeros","config":{}},"kernel_regularizer":null,"bias_regularizer":null,"activity_regularizer":null,"kernel_constraint":null,"bias_constraint":null},"name":"conv2d_24","inbound_nodes":[[["block35_2_ac",0,0,{}]]]},{"class_name":"Conv2D","config":{"name":"conv2d_26","trainable":true,"dtype":"float32","filters":32,"kernel_size":[3,3],"strides":[1,1],"padding":"same","data_format":"channels_last","dilation_rate":[1,1],"groups":1,"activation":"linear","use_bias":false,"kernel_initializer":{"class_name":"GlorotUniform","config":{"seed":null}},"bias_initializer":{"class_name":"Zeros","config":{}},"kernel_regularizer":null,"bias_regularizer":null,"activity_regularizer":null,"kernel_constraint":null,"bias_constraint":null},"name":"conv2d_26","inbound_nodes":[[["activation_25",0,0,{}]]]},{"class_name":"Conv2D","config":{"name":"conv2d_29","trainable":true,"dtype":"float32","filters":64,"kernel_size":[3,3],"strides":[1,1],"padding":"same","data_format":"channels_last","dilation_rate":[1,1],"groups":1,"activation":"linear","use_bias":false,"kernel_initializer":{"class_name":"GlorotUniform","config":{"seed":null}},"bias_initializer":{"class_name":"Zeros","config":{}},"kernel_regularizer":null,"bias_regularizer":null,"activity_regularizer":null,"kernel_constraint":null,"bias_constraint":null},"name":"conv2d_29","inbound_nodes":[[["activation_28",0,0,{}]]]},{"class_name":"BatchNormalization","config":{"name":"batch_normalization_24","trainable":true,"dtype":"float32","axis":3,"momentum":0.99,"epsilon":0.001,"center":true,"scale":false,"beta_initializer":{"class_name":"Zeros","config":{}},"gamma_initializer":{"class_name":"Ones","config":{}},"moving_mean_initializer":{"class_name":"Zeros","config":{}},"moving_variance_initializer":{"class_name":"Ones","config":{}},"beta_regularizer":null,"gamma_regularizer":null,"beta_constraint":null,"gamma_constraint":null},"name":"batch_normalization_24","inbound_nodes":[[["conv2d_24",0,0,{}]]]},{"class_name":"BatchNormalization","config":{"name":"batch_normalization_26","trainable":true,"dtype":"float32","axis":3,"momentum":0.99,"epsilon":0.001,"center":true,"scale":false,"beta_initializer":{"class_name":"Zeros","config":{}},"gamma_initializer":{"class_name":"Ones","config":{}},"moving_mean_initializer":{"class_name":"Zeros","config":{}},"moving_variance_initializer":{"class_name":"Ones","config":{}},"beta_regularizer":null,"gamma_regularizer":null,"beta_constraint":null,"gamma_constraint":null},"name":"batch_normalization_26","inbound_nodes":[[["conv2d_26",0,0,{}]]]},{"class_name":"BatchNormalization","config":{"name":"batch_normalization_29","trainable":true,"dtype":"float32","axis":3,"momentum":0.99,"epsilon":0.001,"center":true,"scale":false,"beta_initializer":{"class_name":"Zeros","config":{}},"gamma_initializer":{"class_name":"Ones","config":{}},"moving_mean_initializer":{"class_name":"Zeros","config":{}},"moving_variance_initializer":{"class_name":"Ones","config":{}},"beta_regularizer":null,"gamma_regularizer":null,"beta_constraint":null,"gamma_constraint":null},"name":"batch_normalization_29","inbound_nodes":[[["conv2d_29",0,0,{}]]]},{"class_name":"Activation","config":{"name":"activation_24","trainable":true,"dtype":"float32","activation":"relu"},"name":"activation_24","inbound_nodes":[[["batch_normalization_24",0,0,{}]]]},{"class_name":"Activation","config":{"name":"activation_26","trainable":true,"dtype":"float32","activation":"relu"},"name":"activation_26","inbound_nodes":[[["batch_normalization_26",0,0,{}]]]},{"class_name":"Activation","config":{"name":"activation_29","trainable":true,"dtype":"float32","activation":"relu"},"name":"activation_29","inbound_nodes":[[["batch_normalization_29",0,0,{}]]]},{"class_name":"Concatenate","config":{"name":"block35_3_mixed","trainable":true,"dtype":"float32","axis":3},"name":"block35_3_mixed","inbound_nodes":[[["activation_24",0,0,{}],["activation_26",0,0,{}],["activation_29",0,0,{}]]]},{"class_name":"Conv2D","config":{"name":"block35_3_conv","trainable":true,"dtype":"float32","filters":320,"kernel_size":[1,1],"strides":[1,1],"padding":"same","data_format":"channels_last","dilation_rate":[1,1],"groups":1,"activation":"linear","use_bias":true,"kernel_initializer":{"class_name":"GlorotUniform","config":{"seed":null}},"bias_initializer":{"class_name":"Zeros","config":{}},"kernel_regularizer":null,"bias_regularizer":null,"activity_regularizer":null,"kernel_constraint":null,"bias_constraint":null},"name":"block35_3_conv","inbound_nodes":[[["block35_3_mixed",0,0,{}]]]},{"class_name":"CustomScaleLayer","config":{"name":"custom_scale_layer_2","trainable":true,"dtype":"float32","scale":0.17},"name":"custom_scale_layer_2","inbound_nodes":[[["block35_2_ac",0,0,{}],["block35_3_conv",0,0,{}]]]},{"class_name":"Activation","config":{"name":"block35_3_ac","trainable":true,"dtype":"float32","activation":"relu"},"name":"block35_3_ac","inbound_nodes":[[["custom_scale_layer_2",0,0,{}]]]},{"class_name":"Conv2D","config":{"name":"conv2d_33","trainable":true,"dtype":"float32","filters":32,"kernel_size":[1,1],"strides":[1,1],"padding":"same","data_format":"channels_last","dilation_rate":[1,1],"groups":1,"activation":"linear","use_bias":false,"kernel_initializer":{"class_name":"GlorotUniform","config":{"seed":null}},"bias_initializer":{"class_name":"Zeros","config":{}},"kernel_regularizer":null,"bias_regularizer":null,"activity_regularizer":null,"kernel_constraint":null,"bias_constraint":null},"name":"conv2d_33","inbound_nodes":[[["block35_3_ac",0,0,{}]]]},{"class_name":"BatchNormalization","config":{"name":"batch_normalization_33","trainable":true,"dtype":"float32","axis":3,"momentum":0.99,"epsilon":0.001,"center":true,"scale":false,"beta_initializer":{"class_name":"Zeros","config":{}},"gamma_initializer":{"class_name":"Ones","config":{}},"moving_mean_initializer":{"class_name":"Zeros","config":{}},"moving_variance_initializer":{"class_name":"Ones","config":{}},"beta_regularizer":null,"gamma_regularizer":null,"beta_constraint":null,"gamma_constraint":null},"name":"batch_normalization_33","inbound_nodes":[[["conv2d_33",0,0,{}]]]},{"class_name":"Activation","config":{"name":"activation_33","trainable":true,"dtype":"float32","activation":"relu"},"name":"activation_33","inbound_nodes":[[["batch_normalization_33",0,0,{}]]]},{"class_name":"Conv2D","config":{"name":"conv2d_31","trainable":true,"dtype":"float32","filters":32,"kernel_size":[1,1],"strides":[1,1],"padding":"same","data_format":"channels_last","dilation_rate":[1,1],"groups":1,"activation":"linear","use_bias":false,"kernel_initializer":{"class_name":"GlorotUniform","config":{"seed":null}},"bias_initializer":{"class_name":"Zeros","config":{}},"kernel_regularizer":null,"bias_regularizer":null,"activity_regularizer":null,"kernel_constraint":null,"bias_constraint":null},"name":"conv2d_31","inbound_nodes":[[["block35_3_ac",0,0,{}]]]},{"class_name":"Conv2D","config":{"name":"conv2d_34","trainable":true,"dtype":"float32","filters":48,"kernel_size":[3,3],"strides":[1,1],"padding":"same","data_format":"channels_last","dilation_rate":[1,1],"groups":1,"activation":"linear","use_bias":false,"kernel_initializer":{"class_name":"GlorotUniform","config":{"seed":null}},"bias_initializer":{"class_name":"Zeros","config":{}},"kernel_regularizer":null,"bias_regularizer":null,"activity_regularizer":null,"kernel_constraint":null,"bias_constraint":null},"name":"conv2d_34","inbound_nodes":[[["activation_33",0,0,{}]]]},{"class_name":"BatchNormalization","config":{"name":"batch_normalization_31","trainable":true,"dtype":"float32","axis":3,"momentum":0.99,"epsilon":0.001,"center":true,"scale":false,"beta_initializer":{"class_name":"Zeros","config":{}},"gamma_initializer":{"class_name":"Ones","config":{}},"moving_mean_initializer":{"class_name":"Zeros","config":{}},"moving_variance_initializer":{"class_name":"Ones","config":{}},"beta_regularizer":null,"gamma_regularizer":null,"beta_constraint":null,"gamma_constraint":null},"name":"batch_normalization_31","inbound_nodes":[[["conv2d_31",0,0,{}]]]},{"class_name":"BatchNormalization","config":{"name":"batch_normalization_34","trainable":true,"dtype":"float32","axis":3,"momentum":0.99,"epsilon":0.001,"center":true,"scale":false,"beta_initializer":{"class_name":"Zeros","config":{}},"gamma_initializer":{"class_name":"Ones","config":{}},"moving_mean_initializer":{"class_name":"Zeros","config":{}},"moving_variance_initializer":{"class_name":"Ones","config":{}},"beta_regularizer":null,"gamma_regularizer":null,"beta_constraint":null,"gamma_constraint":null},"name":"batch_normalization_34","inbound_nodes":[[["conv2d_34",0,0,{}]]]},{"class_name":"Activation","config":{"name":"activation_31","trainable":true,"dtype":"float32","activation":"relu"},"name":"activation_31","inbound_nodes":[[["batch_normalization_31",0,0,{}]]]},{"class_name":"Activation","config":{"name":"activation_34","trainable":true,"dtype":"float32","activation":"relu"},"name":"activation_34","inbound_nodes":[[["batch_normalization_34",0,0,{}]]]},{"class_name":"Conv2D","config":{"name":"conv2d_30","trainable":true,"dtype":"float32","filters":32,"kernel_size":[1,1],"strides":[1,1],"padding":"same","data_format":"channels_last","dilation_rate":[1,1],"groups":1,"activation":"linear","use_bias":false,"kernel_initializer":{"class_name":"GlorotUniform","config":{"seed":null}},"bias_initializer":{"class_name":"Zeros","config":{}},"kernel_regularizer":null,"bias_regularizer":null,"activity_regularizer":null,"kernel_constraint":null,"bias_constraint":null},"name":"conv2d_30","inbound_nodes":[[["block35_3_ac",0,0,{}]]]},{"class_name":"Conv2D","config":{"name":"conv2d_32","trainable":true,"dtype":"float32","filters":32,"kernel_size":[3,3],"strides":[1,1],"padding":"same","data_format":"channels_last","dilation_rate":[1,1],"groups":1,"activation":"linear","use_bias":false,"kernel_initializer":{"class_name":"GlorotUniform","config":{"seed":null}},"bias_initializer":{"class_name":"Zeros","config":{}},"kernel_regularizer":null,"bias_regularizer":null,"activity_regularizer":null,"kernel_constraint":null,"bias_constraint":null},"name":"conv2d_32","inbound_nodes":[[["activation_31",0,0,{}]]]},{"class_name":"Conv2D","config":{"name":"conv2d_35","trainable":true,"dtype":"float32","filters":64,"kernel_size":[3,3],"strides":[1,1],"padding":"same","data_format":"channels_last","dilation_rate":[1,1],"groups":1,"activation":"linear","use_bias":false,"kernel_initializer":{"class_name":"GlorotUniform","config":{"seed":null}},"bias_initializer":{"class_name":"Zeros","config":{}},"kernel_regularizer":null,"bias_regularizer":null,"activity_regularizer":null,"kernel_constraint":null,"bias_constraint":null},"name":"conv2d_35","inbound_nodes":[[["activation_34",0,0,{}]]]},{"class_name":"BatchNormalization","config":{"name":"batch_normalization_30","trainable":true,"dtype":"float32","axis":3,"momentum":0.99,"epsilon":0.001,"center":true,"scale":false,"beta_initializer":{"class_name":"Zeros","config":{}},"gamma_initializer":{"class_name":"Ones","config":{}},"moving_mean_initializer":{"class_name":"Zeros","config":{}},"moving_variance_initializer":{"class_name":"Ones","config":{}},"beta_regularizer":null,"gamma_regularizer":null,"beta_constraint":null,"gamma_constraint":null},"name":"batch_normalization_30","inbound_nodes":[[["conv2d_30",0,0,{}]]]},{"class_name":"BatchNormalization","config":{"name":"batch_normalization_32","trainable":true,"dtype":"float32","axis":3,"momentum":0.99,"epsilon":0.001,"center":true,"scale":false,"beta_initializer":{"class_name":"Zeros","config":{}},"gamma_initializer":{"class_name":"Ones","config":{}},"moving_mean_initializer":{"class_name":"Zeros","config":{}},"moving_variance_initializer":{"class_name":"Ones","config":{}},"beta_regularizer":null,"gamma_regularizer":null,"beta_constraint":null,"gamma_constraint":null},"name":"batch_normalization_32","inbound_nodes":[[["conv2d_32",0,0,{}]]]},{"class_name":"BatchNormalization","config":{"name":"batch_normalization_35","trainable":true,"dtype":"float32","axis":3,"momentum":0.99,"epsilon":0.001,"center":true,"scale":false,"beta_initializer":{"class_name":"Zeros","config":{}},"gamma_initializer":{"class_name":"Ones","config":{}},"moving_mean_initializer":{"class_name":"Zeros","config":{}},"moving_variance_initializer":{"class_name":"Ones","config":{}},"beta_regularizer":null,"gamma_regularizer":null,"beta_constraint":null,"gamma_constraint":null},"name":"batch_normalization_35","inbound_nodes":[[["conv2d_35",0,0,{}]]]},{"class_name":"Activation","config":{"name":"activation_30","trainable":true,"dtype":"float32","activation":"relu"},"name":"activation_30","inbound_nodes":[[["batch_normalization_30",0,0,{}]]]},{"class_name":"Activation","config":{"name":"activation_32","trainable":true,"dtype":"float32","activation":"relu"},"name":"activation_32","inbound_nodes":[[["batch_normalization_32",0,0,{}]]]},{"class_name":"Activation","config":{"name":"activation_35","trainable":true,"dtype":"float32","activation":"relu"},"name":"activation_35","inbound_nodes":[[["batch_normalization_35",0,0,{}]]]},{"class_name":"Concatenate","config":{"name":"block35_4_mixed","trainable":true,"dtype":"float32","axis":3},"name":"block35_4_mixed","inbound_nodes":[[["activation_30",0,0,{}],["activation_32",0,0,{}],["activation_35",0,0,{}]]]},{"class_name":"Conv2D","config":{"name":"block35_4_conv","trainable":true,"dtype":"float32","filters":320,"kernel_size":[1,1],"strides":[1,1],"padding":"same","data_format":"channels_last","dilation_rate":[1,1],"groups":1,"activation":"linear","use_bias":true,"kernel_initializer":{"class_name":"GlorotUniform","config":{"seed":null}},"bias_initializer":{"class_name":"Zeros","config":{}},"kernel_regularizer":null,"bias_regularizer":null,"activity_regularizer":null,"kernel_constraint":null,"bias_constraint":null},"name":"block35_4_conv","inbound_nodes":[[["block35_4_mixed",0,0,{}]]]},{"class_name":"CustomScaleLayer","config":{"name":"custom_scale_layer_3","trainable":true,"dtype":"float32","scale":0.17},"name":"custom_scale_layer_3","inbound_nodes":[[["block35_3_ac",0,0,{}],["block35_4_conv",0,0,{}]]]},{"class_name":"Activation","config":{"name":"block35_4_ac","trainable":true,"dtype":"float32","activation":"relu"},"name":"block35_4_ac","inbound_nodes":[[["custom_scale_layer_3",0,0,{}]]]},{"class_name":"Conv2D","config":{"name":"conv2d_39","trainable":true,"dtype":"float32","filters":32,"kernel_size":[1,1],"strides":[1,1],"padding":"same","data_format":"channels_last","dilation_rate":[1,1],"groups":1,"activation":"linear","use_bias":false,"kernel_initializer":{"class_name":"GlorotUniform","config":{"seed":null}},"bias_initializer":{"class_name":"Zeros","config":{}},"kernel_regularizer":null,"bias_regularizer":null,"activity_regularizer":null,"kernel_constraint":null,"bias_constraint":null},"name":"conv2d_39","inbound_nodes":[[["block35_4_ac",0,0,{}]]]},{"class_name":"BatchNormalization","config":{"name":"batch_normalization_39","trainable":true,"dtype":"float32","axis":3,"momentum":0.99,"epsilon":0.001,"center":true,"scale":false,"beta_initializer":{"class_name":"Zeros","config":{}},"gamma_initializer":{"class_name":"Ones","config":{}},"moving_mean_initializer":{"class_name":"Zeros","config":{}},"moving_variance_initializer":{"class_name":"Ones","config":{}},"beta_regularizer":null,"gamma_regularizer":null,"beta_constraint":null,"gamma_constraint":null},"name":"batch_normalization_39","inbound_nodes":[[["conv2d_39",0,0,{}]]]},{"class_name":"Activation","config":{"name":"activation_39","trainable":true,"dtype":"float32","activation":"relu"},"name":"activation_39","inbound_nodes":[[["batch_normalization_39",0,0,{}]]]},{"class_name":"Conv2D","config":{"name":"conv2d_37","trainable":true,"dtype":"float32","filters":32,"kernel_size":[1,1],"strides":[1,1],"padding":"same","data_format":"channels_last","dilation_rate":[1,1],"groups":1,"activation":"linear","use_bias":false,"kernel_initializer":{"class_name":"GlorotUniform","config":{"seed":null}},"bias_initializer":{"class_name":"Zeros","config":{}},"kernel_regularizer":null,"bias_regularizer":null,"activity_regularizer":null,"kernel_constraint":null,"bias_constraint":null},"name":"conv2d_37","inbound_nodes":[[["block35_4_ac",0,0,{}]]]},{"class_name":"Conv2D","config":{"name":"conv2d_40","trainable":true,"dtype":"float32","filters":48,"kernel_size":[3,3],"strides":[1,1],"padding":"same","data_format":"channels_last","dilation_rate":[1,1],"groups":1,"activation":"linear","use_bias":false,"kernel_initializer":{"class_name":"GlorotUniform","config":{"seed":null}},"bias_initializer":{"class_name":"Zeros","config":{}},"kernel_regularizer":null,"bias_regularizer":null,"activity_regularizer":null,"kernel_constraint":null,"bias_constraint":null},"name":"conv2d_40","inbound_nodes":[[["activation_39",0,0,{}]]]},{"class_name":"BatchNormalization","config":{"name":"batch_normalization_37","trainable":true,"dtype":"float32","axis":3,"momentum":0.99,"epsilon":0.001,"center":true,"scale":false,"beta_initializer":{"class_name":"Zeros","config":{}},"gamma_initializer":{"class_name":"Ones","config":{}},"moving_mean_initializer":{"class_name":"Zeros","config":{}},"moving_variance_initializer":{"class_name":"Ones","config":{}},"beta_regularizer":null,"gamma_regularizer":null,"beta_constraint":null,"gamma_constraint":null},"name":"batch_normalization_37","inbound_nodes":[[["conv2d_37",0,0,{}]]]},{"class_name":"BatchNormalization","config":{"name":"batch_normalization_40","trainable":true,"dtype":"float32","axis":3,"momentum":0.99,"epsilon":0.001,"center":true,"scale":false,"beta_initializer":{"class_name":"Zeros","config":{}},"gamma_initializer":{"class_name":"Ones","config":{}},"moving_mean_initializer":{"class_name":"Zeros","config":{}},"moving_variance_initializer":{"class_name":"Ones","config":{}},"beta_regularizer":null,"gamma_regularizer":null,"beta_constraint":null,"gamma_constraint":null},"name":"batch_normalization_40","inbound_nodes":[[["conv2d_40",0,0,{}]]]},{"class_name":"Activation","config":{"name":"activation_37","trainable":true,"dtype":"float32","activation":"relu"},"name":"activation_37","inbound_nodes":[[["batch_normalization_37",0,0,{}]]]},{"class_name":"Activation","config":{"name":"activation_40","trainable":true,"dtype":"float32","activation":"relu"},"name":"activation_40","inbound_nodes":[[["batch_normalization_40",0,0,{}]]]},{"class_name":"Conv2D","config":{"name":"conv2d_36","trainable":true,"dtype":"float32","filters":32,"kernel_size":[1,1],"strides":[1,1],"padding":"same","data_format":"channels_last","dilation_rate":[1,1],"groups":1,"activation":"linear","use_bias":false,"kernel_initializer":{"class_name":"GlorotUniform","config":{"seed":null}},"bias_initializer":{"class_name":"Zeros","config":{}},"kernel_regularizer":null,"bias_regularizer":null,"activity_regularizer":null,"kernel_constraint":null,"bias_constraint":null},"name":"conv2d_36","inbound_nodes":[[["block35_4_ac",0,0,{}]]]},{"class_name":"Conv2D","config":{"name":"conv2d_38","trainable":true,"dtype":"float32","filters":32,"kernel_size":[3,3],"strides":[1,1],"padding":"same","data_format":"channels_last","dilation_rate":[1,1],"groups":1,"activation":"linear","use_bias":false,"kernel_initializer":{"class_name":"GlorotUniform","config":{"seed":null}},"bias_initializer":{"class_name":"Zeros","config":{}},"kernel_regularizer":null,"bias_regularizer":null,"activity_regularizer":null,"kernel_constraint":null,"bias_constraint":null},"name":"conv2d_38","inbound_nodes":[[["activation_37",0,0,{}]]]},{"class_name":"Conv2D","config":{"name":"conv2d_41","trainable":true,"dtype":"float32","filters":64,"kernel_size":[3,3],"strides":[1,1],"padding":"same","data_format":"channels_last","dilation_rate":[1,1],"groups":1,"activation":"linear","use_bias":false,"kernel_initializer":{"class_name":"GlorotUniform","config":{"seed":null}},"bias_initializer":{"class_name":"Zeros","config":{}},"kernel_regularizer":null,"bias_regularizer":null,"activity_regularizer":null,"kernel_constraint":null,"bias_constraint":null},"name":"conv2d_41","inbound_nodes":[[["activation_40",0,0,{}]]]},{"class_name":"BatchNormalization","config":{"name":"batch_normalization_36","trainable":true,"dtype":"float32","axis":3,"momentum":0.99,"epsilon":0.001,"center":true,"scale":false,"beta_initializer":{"class_name":"Zeros","config":{}},"gamma_initializer":{"class_name":"Ones","config":{}},"moving_mean_initializer":{"class_name":"Zeros","config":{}},"moving_variance_initializer":{"class_name":"Ones","config":{}},"beta_regularizer":null,"gamma_regularizer":null,"beta_constraint":null,"gamma_constraint":null},"name":"batch_normalization_36","inbound_nodes":[[["conv2d_36",0,0,{}]]]},{"class_name":"BatchNormalization","config":{"name":"batch_normalization_38","trainable":true,"dtype":"float32","axis":3,"momentum":0.99,"epsilon":0.001,"center":true,"scale":false,"beta_initializer":{"class_name":"Zeros","config":{}},"gamma_initializer":{"class_name":"Ones","config":{}},"moving_mean_initializer":{"class_name":"Zeros","config":{}},"moving_variance_initializer":{"class_name":"Ones","config":{}},"beta_regularizer":null,"gamma_regularizer":null,"beta_constraint":null,"gamma_constraint":null},"name":"batch_normalization_38","inbound_nodes":[[["conv2d_38",0,0,{}]]]},{"class_name":"BatchNormalization","config":{"name":"batch_normalization_41","trainable":true,"dtype":"float32","axis":3,"momentum":0.99,"epsilon":0.001,"center":true,"scale":false,"beta_initializer":{"class_name":"Zeros","config":{}},"gamma_initializer":{"class_name":"Ones","config":{}},"moving_mean_initializer":{"class_name":"Zeros","config":{}},"moving_variance_initializer":{"class_name":"Ones","config":{}},"beta_regularizer":null,"gamma_regularizer":null,"beta_constraint":null,"gamma_constraint":null},"name":"batch_normalization_41","inbound_nodes":[[["conv2d_41",0,0,{}]]]},{"class_name":"Activation","config":{"name":"activation_36","trainable":true,"dtype":"float32","activation":"relu"},"name":"activation_36","inbound_nodes":[[["batch_normalization_36",0,0,{}]]]},{"class_name":"Activation","config":{"name":"activation_38","trainable":true,"dtype":"float32","activation":"relu"},"name":"activation_38","inbound_nodes":[[["batch_normalization_38",0,0,{}]]]},{"class_name":"Activation","config":{"name":"activation_41","trainable":true,"dtype":"float32","activation":"relu"},"name":"activation_41","inbound_nodes":[[["batch_normalization_41",0,0,{}]]]},{"class_name":"Concatenate","config":{"name":"block35_5_mixed","trainable":true,"dtype":"float32","axis":3},"name":"block35_5_mixed","inbound_nodes":[[["activation_36",0,0,{}],["activation_38",0,0,{}],["activation_41",0,0,{}]]]},{"class_name":"Conv2D","config":{"name":"block35_5_conv","trainable":true,"dtype":"float32","filters":320,"kernel_size":[1,1],"strides":[1,1],"padding":"same","data_format":"channels_last","dilation_rate":[1,1],"groups":1,"activation":"linear","use_bias":true,"kernel_initializer":{"class_name":"GlorotUniform","config":{"seed":null}},"bias_initializer":{"class_name":"Zeros","config":{}},"kernel_regularizer":null,"bias_regularizer":null,"activity_regularizer":null,"kernel_constraint":null,"bias_constraint":null},"name":"block35_5_conv","inbound_nodes":[[["block35_5_mixed",0,0,{}]]]},{"class_name":"CustomScaleLayer","config":{"name":"custom_scale_layer_4","trainable":true,"dtype":"float32","scale":0.17},"name":"custom_scale_layer_4","inbound_nodes":[[["block35_4_ac",0,0,{}],["block35_5_conv",0,0,{}]]]},{"class_name":"Activation","config":{"name":"block35_5_ac","trainable":true,"dtype":"float32","activation":"relu"},"name":"block35_5_ac","inbound_nodes":[[["custom_scale_layer_4",0,0,{}]]]},{"class_name":"Conv2D","config":{"name":"conv2d_45","trainable":true,"dtype":"float32","filters":32,"kernel_size":[1,1],"strides":[1,1],"padding":"same","data_format":"channels_last","dilation_rate":[1,1],"groups":1,"activation":"linear","use_bias":false,"kernel_initializer":{"class_name":"GlorotUniform","config":{"seed":null}},"bias_initializer":{"class_name":"Zeros","config":{}},"kernel_regularizer":null,"bias_regularizer":null,"activity_regularizer":null,"kernel_constraint":null,"bias_constraint":null},"name":"conv2d_45","inbound_nodes":[[["block35_5_ac",0,0,{}]]]},{"class_name":"BatchNormalization","config":{"name":"batch_normalization_45","trainable":true,"dtype":"float32","axis":3,"momentum":0.99,"epsilon":0.001,"center":true,"scale":false,"beta_initializer":{"class_name":"Zeros","config":{}},"gamma_initializer":{"class_name":"Ones","config":{}},"moving_mean_initializer":{"class_name":"Zeros","config":{}},"moving_variance_initializer":{"class_name":"Ones","config":{}},"beta_regularizer":null,"gamma_regularizer":null,"beta_constraint":null,"gamma_constraint":null},"name":"batch_normalization_45","inbound_nodes":[[["conv2d_45",0,0,{}]]]},{"class_name":"Activation","config":{"name":"activation_45","trainable":true,"dtype":"float32","activation":"relu"},"name":"activation_45","inbound_nodes":[[["batch_normalization_45",0,0,{}]]]},{"class_name":"Conv2D","config":{"name":"conv2d_43","trainable":true,"dtype":"float32","filters":32,"kernel_size":[1,1],"strides":[1,1],"padding":"same","data_format":"channels_last","dilation_rate":[1,1],"groups":1,"activation":"linear","use_bias":false,"kernel_initializer":{"class_name":"GlorotUniform","config":{"seed":null}},"bias_initializer":{"class_name":"Zeros","config":{}},"kernel_regularizer":null,"bias_regularizer":null,"activity_regularizer":null,"kernel_constraint":null,"bias_constraint":null},"name":"conv2d_43","inbound_nodes":[[["block35_5_ac",0,0,{}]]]},{"class_name":"Conv2D","config":{"name":"conv2d_46","trainable":true,"dtype":"float32","filters":48,"kernel_size":[3,3],"strides":[1,1],"padding":"same","data_format":"channels_last","dilation_rate":[1,1],"groups":1,"activation":"linear","use_bias":false,"kernel_initializer":{"class_name":"GlorotUniform","config":{"seed":null}},"bias_initializer":{"class_name":"Zeros","config":{}},"kernel_regularizer":null,"bias_regularizer":null,"activity_regularizer":null,"kernel_constraint":null,"bias_constraint":null},"name":"conv2d_46","inbound_nodes":[[["activation_45",0,0,{}]]]},{"class_name":"BatchNormalization","config":{"name":"batch_normalization_43","trainable":true,"dtype":"float32","axis":3,"momentum":0.99,"epsilon":0.001,"center":true,"scale":false,"beta_initializer":{"class_name":"Zeros","config":{}},"gamma_initializer":{"class_name":"Ones","config":{}},"moving_mean_initializer":{"class_name":"Zeros","config":{}},"moving_variance_initializer":{"class_name":"Ones","config":{}},"beta_regularizer":null,"gamma_regularizer":null,"beta_constraint":null,"gamma_constraint":null},"name":"batch_normalization_43","inbound_nodes":[[["conv2d_43",0,0,{}]]]},{"class_name":"BatchNormalization","config":{"name":"batch_normalization_46","trainable":true,"dtype":"float32","axis":3,"momentum":0.99,"epsilon":0.001,"center":true,"scale":false,"beta_initializer":{"class_name":"Zeros","config":{}},"gamma_initializer":{"class_name":"Ones","config":{}},"moving_mean_initializer":{"class_name":"Zeros","config":{}},"moving_variance_initializer":{"class_name":"Ones","config":{}},"beta_regularizer":null,"gamma_regularizer":null,"beta_constraint":null,"gamma_constraint":null},"name":"batch_normalization_46","inbound_nodes":[[["conv2d_46",0,0,{}]]]},{"class_name":"Activation","config":{"name":"activation_43","trainable":true,"dtype":"float32","activation":"relu"},"name":"activation_43","inbound_nodes":[[["batch_normalization_43",0,0,{}]]]},{"class_name":"Activation","config":{"name":"activation_46","trainable":true,"dtype":"float32","activation":"relu"},"name":"activation_46","inbound_nodes":[[["batch_normalization_46",0,0,{}]]]},{"class_name":"Conv2D","config":{"name":"conv2d_42","trainable":true,"dtype":"float32","filters":32,"kernel_size":[1,1],"strides":[1,1],"padding":"same","data_format":"channels_last","dilation_rate":[1,1],"groups":1,"activation":"linear","use_bias":false,"kernel_initializer":{"class_name":"GlorotUniform","config":{"seed":null}},"bias_initializer":{"class_name":"Zeros","config":{}},"kernel_regularizer":null,"bias_regularizer":null,"activity_regularizer":null,"kernel_constraint":null,"bias_constraint":null},"name":"conv2d_42","inbound_nodes":[[["block35_5_ac",0,0,{}]]]},{"class_name":"Conv2D","config":{"name":"conv2d_44","trainable":true,"dtype":"float32","filters":32,"kernel_size":[3,3],"strides":[1,1],"padding":"same","data_format":"channels_last","dilation_rate":[1,1],"groups":1,"activation":"linear","use_bias":false,"kernel_initializer":{"class_name":"GlorotUniform","config":{"seed":null}},"bias_initializer":{"class_name":"Zeros","config":{}},"kernel_regularizer":null,"bias_regularizer":null,"activity_regularizer":null,"kernel_constraint":null,"bias_constraint":null},"name":"conv2d_44","inbound_nodes":[[["activation_43",0,0,{}]]]},{"class_name":"Conv2D","config":{"name":"conv2d_47","trainable":true,"dtype":"float32","filters":64,"kernel_size":[3,3],"strides":[1,1],"padding":"same","data_format":"channels_last","dilation_rate":[1,1],"groups":1,"activation":"linear","use_bias":false,"kernel_initializer":{"class_name":"GlorotUniform","config":{"seed":null}},"bias_initializer":{"class_name":"Zeros","config":{}},"kernel_regularizer":null,"bias_regularizer":null,"activity_regularizer":null,"kernel_constraint":null,"bias_constraint":null},"name":"conv2d_47","inbound_nodes":[[["activation_46",0,0,{}]]]},{"class_name":"BatchNormalization","config":{"name":"batch_normalization_42","trainable":true,"dtype":"float32","axis":3,"momentum":0.99,"epsilon":0.001,"center":true,"scale":false,"beta_initializer":{"class_name":"Zeros","config":{}},"gamma_initializer":{"class_name":"Ones","config":{}},"moving_mean_initializer":{"class_name":"Zeros","config":{}},"moving_variance_initializer":{"class_name":"Ones","config":{}},"beta_regularizer":null,"gamma_regularizer":null,"beta_constraint":null,"gamma_constraint":null},"name":"batch_normalization_42","inbound_nodes":[[["conv2d_42",0,0,{}]]]},{"class_name":"BatchNormalization","config":{"name":"batch_normalization_44","trainable":true,"dtype":"float32","axis":3,"momentum":0.99,"epsilon":0.001,"center":true,"scale":false,"beta_initializer":{"class_name":"Zeros","config":{}},"gamma_initializer":{"class_name":"Ones","config":{}},"moving_mean_initializer":{"class_name":"Zeros","config":{}},"moving_variance_initializer":{"class_name":"Ones","config":{}},"beta_regularizer":null,"gamma_regularizer":null,"beta_constraint":null,"gamma_constraint":null},"name":"batch_normalization_44","inbound_nodes":[[["conv2d_44",0,0,{}]]]},{"class_name":"BatchNormalization","config":{"name":"batch_normalization_47","trainable":true,"dtype":"float32","axis":3,"momentum":0.99,"epsilon":0.001,"center":true,"scale":false,"beta_initializer":{"class_name":"Zeros","config":{}},"gamma_initializer":{"class_name":"Ones","config":{}},"moving_mean_initializer":{"class_name":"Zeros","config":{}},"moving_variance_initializer":{"class_name":"Ones","config":{}},"beta_regularizer":null,"gamma_regularizer":null,"beta_constraint":null,"gamma_constraint":null},"name":"batch_normalization_47","inbound_nodes":[[["conv2d_47",0,0,{}]]]},{"class_name":"Activation","config":{"name":"activation_42","trainable":true,"dtype":"float32","activation":"relu"},"name":"activation_42","inbound_nodes":[[["batch_normalization_42",0,0,{}]]]},{"class_name":"Activation","config":{"name":"activation_44","trainable":true,"dtype":"float32","activation":"relu"},"name":"activation_44","inbound_nodes":[[["batch_normalization_44",0,0,{}]]]},{"class_name":"Activation","config":{"name":"activation_47","trainable":true,"dtype":"float32","activation":"relu"},"name":"activation_47","inbound_nodes":[[["batch_normalization_47",0,0,{}]]]},{"class_name":"Concatenate","config":{"name":"block35_6_mixed","trainable":true,"dtype":"float32","axis":3},"name":"block35_6_mixed","inbound_nodes":[[["activation_42",0,0,{}],["activation_44",0,0,{}],["activation_47",0,0,{}]]]},{"class_name":"Conv2D","config":{"name":"block35_6_conv","trainable":true,"dtype":"float32","filters":320,"kernel_size":[1,1],"strides":[1,1],"padding":"same","data_format":"channels_last","dilation_rate":[1,1],"groups":1,"activation":"linear","use_bias":true,"kernel_initializer":{"class_name":"GlorotUniform","config":{"seed":null}},"bias_initializer":{"class_name":"Zeros","config":{}},"kernel_regularizer":null,"bias_regularizer":null,"activity_regularizer":null,"kernel_constraint":null,"bias_constraint":null},"name":"block35_6_conv","inbound_nodes":[[["block35_6_mixed",0,0,{}]]]},{"class_name":"CustomScaleLayer","config":{"name":"custom_scale_layer_5","trainable":true,"dtype":"float32","scale":0.17},"name":"custom_scale_layer_5","inbound_nodes":[[["block35_5_ac",0,0,{}],["block35_6_conv",0,0,{}]]]},{"class_name":"Activation","config":{"name":"block35_6_ac","trainable":true,"dtype":"float32","activation":"relu"},"name":"block35_6_ac","inbound_nodes":[[["custom_scale_layer_5",0,0,{}]]]},{"class_name":"Conv2D","config":{"name":"conv2d_51","trainable":true,"dtype":"float32","filters":32,"kernel_size":[1,1],"strides":[1,1],"padding":"same","data_format":"channels_last","dilation_rate":[1,1],"groups":1,"activation":"linear","use_bias":false,"kernel_initializer":{"class_name":"GlorotUniform","config":{"seed":null}},"bias_initializer":{"class_name":"Zeros","config":{}},"kernel_regularizer":null,"bias_regularizer":null,"activity_regularizer":null,"kernel_constraint":null,"bias_constraint":null},"name":"conv2d_51","inbound_nodes":[[["block35_6_ac",0,0,{}]]]},{"class_name":"BatchNormalization","config":{"name":"batch_normalization_51","trainable":true,"dtype":"float32","axis":3,"momentum":0.99,"epsilon":0.001,"center":true,"scale":false,"beta_initializer":{"class_name":"Zeros","config":{}},"gamma_initializer":{"class_name":"Ones","config":{}},"moving_mean_initializer":{"class_name":"Zeros","config":{}},"moving_variance_initializer":{"class_name":"Ones","config":{}},"beta_regularizer":null,"gamma_regularizer":null,"beta_constraint":null,"gamma_constraint":null},"name":"batch_normalization_51","inbound_nodes":[[["conv2d_51",0,0,{}]]]},{"class_name":"Activation","config":{"name":"activation_51","trainable":true,"dtype":"float32","activation":"relu"},"name":"activation_51","inbound_nodes":[[["batch_normalization_51",0,0,{}]]]},{"class_name":"Conv2D","config":{"name":"conv2d_49","trainable":true,"dtype":"float32","filters":32,"kernel_size":[1,1],"strides":[1,1],"padding":"same","data_format":"channels_last","dilation_rate":[1,1],"groups":1,"activation":"linear","use_bias":false,"kernel_initializer":{"class_name":"GlorotUniform","config":{"seed":null}},"bias_initializer":{"class_name":"Zeros","config":{}},"kernel_regularizer":null,"bias_regularizer":null,"activity_regularizer":null,"kernel_constraint":null,"bias_constraint":null},"name":"conv2d_49","inbound_nodes":[[["block35_6_ac",0,0,{}]]]},{"class_name":"Conv2D","config":{"name":"conv2d_52","trainable":true,"dtype":"float32","filters":48,"kernel_size":[3,3],"strides":[1,1],"padding":"same","data_format":"channels_last","dilation_rate":[1,1],"groups":1,"activation":"linear","use_bias":false,"kernel_initializer":{"class_name":"GlorotUniform","config":{"seed":null}},"bias_initializer":{"class_name":"Zeros","config":{}},"kernel_regularizer":null,"bias_regularizer":null,"activity_regularizer":null,"kernel_constraint":null,"bias_constraint":null},"name":"conv2d_52","inbound_nodes":[[["activation_51",0,0,{}]]]},{"class_name":"BatchNormalization","config":{"name":"batch_normalization_49","trainable":true,"dtype":"float32","axis":3,"momentum":0.99,"epsilon":0.001,"center":true,"scale":false,"beta_initializer":{"class_name":"Zeros","config":{}},"gamma_initializer":{"class_name":"Ones","config":{}},"moving_mean_initializer":{"class_name":"Zeros","config":{}},"moving_variance_initializer":{"class_name":"Ones","config":{}},"beta_regularizer":null,"gamma_regularizer":null,"beta_constraint":null,"gamma_constraint":null},"name":"batch_normalization_49","inbound_nodes":[[["conv2d_49",0,0,{}]]]},{"class_name":"BatchNormalization","config":{"name":"batch_normalization_52","trainable":true,"dtype":"float32","axis":3,"momentum":0.99,"epsilon":0.001,"center":true,"scale":false,"beta_initializer":{"class_name":"Zeros","config":{}},"gamma_initializer":{"class_name":"Ones","config":{}},"moving_mean_initializer":{"class_name":"Zeros","config":{}},"moving_variance_initializer":{"class_name":"Ones","config":{}},"beta_regularizer":null,"gamma_regularizer":null,"beta_constraint":null,"gamma_constraint":null},"name":"batch_normalization_52","inbound_nodes":[[["conv2d_52",0,0,{}]]]},{"class_name":"Activation","config":{"name":"activation_49","trainable":true,"dtype":"float32","activation":"relu"},"name":"activation_49","inbound_nodes":[[["batch_normalization_49",0,0,{}]]]},{"class_name":"Activation","config":{"name":"activation_52","trainable":true,"dtype":"float32","activation":"relu"},"name":"activation_52","inbound_nodes":[[["batch_normalization_52",0,0,{}]]]},{"class_name":"Conv2D","config":{"name":"conv2d_48","trainable":true,"dtype":"float32","filters":32,"kernel_size":[1,1],"strides":[1,1],"padding":"same","data_format":"channels_last","dilation_rate":[1,1],"groups":1,"activation":"linear","use_bias":false,"kernel_initializer":{"class_name":"GlorotUniform","config":{"seed":null}},"bias_initializer":{"class_name":"Zeros","config":{}},"kernel_regularizer":null,"bias_regularizer":null,"activity_regularizer":null,"kernel_constraint":null,"bias_constraint":null},"name":"conv2d_48","inbound_nodes":[[["block35_6_ac",0,0,{}]]]},{"class_name":"Conv2D","config":{"name":"conv2d_50","trainable":true,"dtype":"float32","filters":32,"kernel_size":[3,3],"strides":[1,1],"padding":"same","data_format":"channels_last","dilation_rate":[1,1],"groups":1,"activation":"linear","use_bias":false,"kernel_initializer":{"class_name":"GlorotUniform","config":{"seed":null}},"bias_initializer":{"class_name":"Zeros","config":{}},"kernel_regularizer":null,"bias_regularizer":null,"activity_regularizer":null,"kernel_constraint":null,"bias_constraint":null},"name":"conv2d_50","inbound_nodes":[[["activation_49",0,0,{}]]]},{"class_name":"Conv2D","config":{"name":"conv2d_53","trainable":true,"dtype":"float32","filters":64,"kernel_size":[3,3],"strides":[1,1],"padding":"same","data_format":"channels_last","dilation_rate":[1,1],"groups":1,"activation":"linear","use_bias":false,"kernel_initializer":{"class_name":"GlorotUniform","config":{"seed":null}},"bias_initializer":{"class_name":"Zeros","config":{}},"kernel_regularizer":null,"bias_regularizer":null,"activity_regularizer":null,"kernel_constraint":null,"bias_constraint":null},"name":"conv2d_53","inbound_nodes":[[["activation_52",0,0,{}]]]},{"class_name":"BatchNormalization","config":{"name":"batch_normalization_48","trainable":true,"dtype":"float32","axis":3,"momentum":0.99,"epsilon":0.001,"center":true,"scale":false,"beta_initializer":{"class_name":"Zeros","config":{}},"gamma_initializer":{"class_name":"Ones","config":{}},"moving_mean_initializer":{"class_name":"Zeros","config":{}},"moving_variance_initializer":{"class_name":"Ones","config":{}},"beta_regularizer":null,"gamma_regularizer":null,"beta_constraint":null,"gamma_constraint":null},"name":"batch_normalization_48","inbound_nodes":[[["conv2d_48",0,0,{}]]]},{"class_name":"BatchNormalization","config":{"name":"batch_normalization_50","trainable":true,"dtype":"float32","axis":3,"momentum":0.99,"epsilon":0.001,"center":true,"scale":false,"beta_initializer":{"class_name":"Zeros","config":{}},"gamma_initializer":{"class_name":"Ones","config":{}},"moving_mean_initializer":{"class_name":"Zeros","config":{}},"moving_variance_initializer":{"class_name":"Ones","config":{}},"beta_regularizer":null,"gamma_regularizer":null,"beta_constraint":null,"gamma_constraint":null},"name":"batch_normalization_50","inbound_nodes":[[["conv2d_50",0,0,{}]]]},{"class_name":"BatchNormalization","config":{"name":"batch_normalization_53","trainable":true,"dtype":"float32","axis":3,"momentum":0.99,"epsilon":0.001,"center":true,"scale":false,"beta_initializer":{"class_name":"Zeros","config":{}},"gamma_initializer":{"class_name":"Ones","config":{}},"moving_mean_initializer":{"class_name":"Zeros","config":{}},"moving_variance_initializer":{"class_name":"Ones","config":{}},"beta_regularizer":null,"gamma_regularizer":null,"beta_constraint":null,"gamma_constraint":null},"name":"batch_normalization_53","inbound_nodes":[[["conv2d_53",0,0,{}]]]},{"class_name":"Activation","config":{"name":"activation_48","trainable":true,"dtype":"float32","activation":"relu"},"name":"activation_48","inbound_nodes":[[["batch_normalization_48",0,0,{}]]]},{"class_name":"Activation","config":{"name":"activation_50","trainable":true,"dtype":"float32","activation":"relu"},"name":"activation_50","inbound_nodes":[[["batch_normalization_50",0,0,{}]]]},{"class_name":"Activation","config":{"name":"activation_53","trainable":true,"dtype":"float32","activation":"relu"},"name":"activation_53","inbound_nodes":[[["batch_normalization_53",0,0,{}]]]},{"class_name":"Concatenate","config":{"name":"block35_7_mixed","trainable":true,"dtype":"float32","axis":3},"name":"block35_7_mixed","inbound_nodes":[[["activation_48",0,0,{}],["activation_50",0,0,{}],["activation_53",0,0,{}]]]},{"class_name":"Conv2D","config":{"name":"block35_7_conv","trainable":true,"dtype":"float32","filters":320,"kernel_size":[1,1],"strides":[1,1],"padding":"same","data_format":"channels_last","dilation_rate":[1,1],"groups":1,"activation":"linear","use_bias":true,"kernel_initializer":{"class_name":"GlorotUniform","config":{"seed":null}},"bias_initializer":{"class_name":"Zeros","config":{}},"kernel_regularizer":null,"bias_regularizer":null,"activity_regularizer":null,"kernel_constraint":null,"bias_constraint":null},"name":"block35_7_conv","inbound_nodes":[[["block35_7_mixed",0,0,{}]]]},{"class_name":"CustomScaleLayer","config":{"name":"custom_scale_layer_6","trainable":true,"dtype":"float32","scale":0.17},"name":"custom_scale_layer_6","inbound_nodes":[[["block35_6_ac",0,0,{}],["block35_7_conv",0,0,{}]]]},{"class_name":"Activation","config":{"name":"block35_7_ac","trainable":true,"dtype":"float32","activation":"relu"},"name":"block35_7_ac","inbound_nodes":[[["custom_scale_layer_6",0,0,{}]]]},{"class_name":"Conv2D","config":{"name":"conv2d_57","trainable":true,"dtype":"float32","filters":32,"kernel_size":[1,1],"strides":[1,1],"padding":"same","data_format":"channels_last","dilation_rate":[1,1],"groups":1,"activation":"linear","use_bias":false,"kernel_initializer":{"class_name":"GlorotUniform","config":{"seed":null}},"bias_initializer":{"class_name":"Zeros","config":{}},"kernel_regularizer":null,"bias_regularizer":null,"activity_regularizer":null,"kernel_constraint":null,"bias_constraint":null},"name":"conv2d_57","inbound_nodes":[[["block35_7_ac",0,0,{}]]]},{"class_name":"BatchNormalization","config":{"name":"batch_normalization_57","trainable":true,"dtype":"float32","axis":3,"momentum":0.99,"epsilon":0.001,"center":true,"scale":false,"beta_initializer":{"class_name":"Zeros","config":{}},"gamma_initializer":{"class_name":"Ones","config":{}},"moving_mean_initializer":{"class_name":"Zeros","config":{}},"moving_variance_initializer":{"class_name":"Ones","config":{}},"beta_regularizer":null,"gamma_regularizer":null,"beta_constraint":null,"gamma_constraint":null},"name":"batch_normalization_57","inbound_nodes":[[["conv2d_57",0,0,{}]]]},{"class_name":"Activation","config":{"name":"activation_57","trainable":true,"dtype":"float32","activation":"relu"},"name":"activation_57","inbound_nodes":[[["batch_normalization_57",0,0,{}]]]},{"class_name":"Conv2D","config":{"name":"conv2d_55","trainable":true,"dtype":"float32","filters":32,"kernel_size":[1,1],"strides":[1,1],"padding":"same","data_format":"channels_last","dilation_rate":[1,1],"groups":1,"activation":"linear","use_bias":false,"kernel_initializer":{"class_name":"GlorotUniform","config":{"seed":null}},"bias_initializer":{"class_name":"Zeros","config":{}},"kernel_regularizer":null,"bias_regularizer":null,"activity_regularizer":null,"kernel_constraint":null,"bias_constraint":null},"name":"conv2d_55","inbound_nodes":[[["block35_7_ac",0,0,{}]]]},{"class_name":"Conv2D","config":{"name":"conv2d_58","trainable":true,"dtype":"float32","filters":48,"kernel_size":[3,3],"strides":[1,1],"padding":"same","data_format":"channels_last","dilation_rate":[1,1],"groups":1,"activation":"linear","use_bias":false,"kernel_initializer":{"class_name":"GlorotUniform","config":{"seed":null}},"bias_initializer":{"class_name":"Zeros","config":{}},"kernel_regularizer":null,"bias_regularizer":null,"activity_regularizer":null,"kernel_constraint":null,"bias_constraint":null},"name":"conv2d_58","inbound_nodes":[[["activation_57",0,0,{}]]]},{"class_name":"BatchNormalization","config":{"name":"batch_normalization_55","trainable":true,"dtype":"float32","axis":3,"momentum":0.99,"epsilon":0.001,"center":true,"scale":false,"beta_initializer":{"class_name":"Zeros","config":{}},"gamma_initializer":{"class_name":"Ones","config":{}},"moving_mean_initializer":{"class_name":"Zeros","config":{}},"moving_variance_initializer":{"class_name":"Ones","config":{}},"beta_regularizer":null,"gamma_regularizer":null,"beta_constraint":null,"gamma_constraint":null},"name":"batch_normalization_55","inbound_nodes":[[["conv2d_55",0,0,{}]]]},{"class_name":"BatchNormalization","config":{"name":"batch_normalization_58","trainable":true,"dtype":"float32","axis":3,"momentum":0.99,"epsilon":0.001,"center":true,"scale":false,"beta_initializer":{"class_name":"Zeros","config":{}},"gamma_initializer":{"class_name":"Ones","config":{}},"moving_mean_initializer":{"class_name":"Zeros","config":{}},"moving_variance_initializer":{"class_name":"Ones","config":{}},"beta_regularizer":null,"gamma_regularizer":null,"beta_constraint":null,"gamma_constraint":null},"name":"batch_normalization_58","inbound_nodes":[[["conv2d_58",0,0,{}]]]},{"class_name":"Activation","config":{"name":"activation_55","trainable":true,"dtype":"float32","activation":"relu"},"name":"activation_55","inbound_nodes":[[["batch_normalization_55",0,0,{}]]]},{"class_name":"Activation","config":{"name":"activation_58","trainable":true,"dtype":"float32","activation":"relu"},"name":"activation_58","inbound_nodes":[[["batch_normalization_58",0,0,{}]]]},{"class_name":"Conv2D","config":{"name":"conv2d_54","trainable":true,"dtype":"float32","filters":32,"kernel_size":[1,1],"strides":[1,1],"padding":"same","data_format":"channels_last","dilation_rate":[1,1],"groups":1,"activation":"linear","use_bias":false,"kernel_initializer":{"class_name":"GlorotUniform","config":{"seed":null}},"bias_initializer":{"class_name":"Zeros","config":{}},"kernel_regularizer":null,"bias_regularizer":null,"activity_regularizer":null,"kernel_constraint":null,"bias_constraint":null},"name":"conv2d_54","inbound_nodes":[[["block35_7_ac",0,0,{}]]]},{"class_name":"Conv2D","config":{"name":"conv2d_56","trainable":true,"dtype":"float32","filters":32,"kernel_size":[3,3],"strides":[1,1],"padding":"same","data_format":"channels_last","dilation_rate":[1,1],"groups":1,"activation":"linear","use_bias":false,"kernel_initializer":{"class_name":"GlorotUniform","config":{"seed":null}},"bias_initializer":{"class_name":"Zeros","config":{}},"kernel_regularizer":null,"bias_regularizer":null,"activity_regularizer":null,"kernel_constraint":null,"bias_constraint":null},"name":"conv2d_56","inbound_nodes":[[["activation_55",0,0,{}]]]},{"class_name":"Conv2D","config":{"name":"conv2d_59","trainable":true,"dtype":"float32","filters":64,"kernel_size":[3,3],"strides":[1,1],"padding":"same","data_format":"channels_last","dilation_rate":[1,1],"groups":1,"activation":"linear","use_bias":false,"kernel_initializer":{"class_name":"GlorotUniform","config":{"seed":null}},"bias_initializer":{"class_name":"Zeros","config":{}},"kernel_regularizer":null,"bias_regularizer":null,"activity_regularizer":null,"kernel_constraint":null,"bias_constraint":null},"name":"conv2d_59","inbound_nodes":[[["activation_58",0,0,{}]]]},{"class_name":"BatchNormalization","config":{"name":"batch_normalization_54","trainable":true,"dtype":"float32","axis":3,"momentum":0.99,"epsilon":0.001,"center":true,"scale":false,"beta_initializer":{"class_name":"Zeros","config":{}},"gamma_initializer":{"class_name":"Ones","config":{}},"moving_mean_initializer":{"class_name":"Zeros","config":{}},"moving_variance_initializer":{"class_name":"Ones","config":{}},"beta_regularizer":null,"gamma_regularizer":null,"beta_constraint":null,"gamma_constraint":null},"name":"batch_normalization_54","inbound_nodes":[[["conv2d_54",0,0,{}]]]},{"class_name":"BatchNormalization","config":{"name":"batch_normalization_56","trainable":true,"dtype":"float32","axis":3,"momentum":0.99,"epsilon":0.001,"center":true,"scale":false,"beta_initializer":{"class_name":"Zeros","config":{}},"gamma_initializer":{"class_name":"Ones","config":{}},"moving_mean_initializer":{"class_name":"Zeros","config":{}},"moving_variance_initializer":{"class_name":"Ones","config":{}},"beta_regularizer":null,"gamma_regularizer":null,"beta_constraint":null,"gamma_constraint":null},"name":"batch_normalization_56","inbound_nodes":[[["conv2d_56",0,0,{}]]]},{"class_name":"BatchNormalization","config":{"name":"batch_normalization_59","trainable":true,"dtype":"float32","axis":3,"momentum":0.99,"epsilon":0.001,"center":true,"scale":false,"beta_initializer":{"class_name":"Zeros","config":{}},"gamma_initializer":{"class_name":"Ones","config":{}},"moving_mean_initializer":{"class_name":"Zeros","config":{}},"moving_variance_initializer":{"class_name":"Ones","config":{}},"beta_regularizer":null,"gamma_regularizer":null,"beta_constraint":null,"gamma_constraint":null},"name":"batch_normalization_59","inbound_nodes":[[["conv2d_59",0,0,{}]]]},{"class_name":"Activation","config":{"name":"activation_54","trainable":true,"dtype":"float32","activation":"relu"},"name":"activation_54","inbound_nodes":[[["batch_normalization_54",0,0,{}]]]},{"class_name":"Activation","config":{"name":"activation_56","trainable":true,"dtype":"float32","activation":"relu"},"name":"activation_56","inbound_nodes":[[["batch_normalization_56",0,0,{}]]]},{"class_name":"Activation","config":{"name":"activation_59","trainable":true,"dtype":"float32","activation":"relu"},"name":"activation_59","inbound_nodes":[[["batch_normalization_59",0,0,{}]]]},{"class_name":"Concatenate","config":{"name":"block35_8_mixed","trainable":true,"dtype":"float32","axis":3},"name":"block35_8_mixed","inbound_nodes":[[["activation_54",0,0,{}],["activation_56",0,0,{}],["activation_59",0,0,{}]]]},{"class_name":"Conv2D","config":{"name":"block35_8_conv","trainable":true,"dtype":"float32","filters":320,"kernel_size":[1,1],"strides":[1,1],"padding":"same","data_format":"channels_last","dilation_rate":[1,1],"groups":1,"activation":"linear","use_bias":true,"kernel_initializer":{"class_name":"GlorotUniform","config":{"seed":null}},"bias_initializer":{"class_name":"Zeros","config":{}},"kernel_regularizer":null,"bias_regularizer":null,"activity_regularizer":null,"kernel_constraint":null,"bias_constraint":null},"name":"block35_8_conv","inbound_nodes":[[["block35_8_mixed",0,0,{}]]]},{"class_name":"CustomScaleLayer","config":{"name":"custom_scale_layer_7","trainable":true,"dtype":"float32","scale":0.17},"name":"custom_scale_layer_7","inbound_nodes":[[["block35_7_ac",0,0,{}],["block35_8_conv",0,0,{}]]]},{"class_name":"Activation","config":{"name":"block35_8_ac","trainable":true,"dtype":"float32","activation":"relu"},"name":"block35_8_ac","inbound_nodes":[[["custom_scale_layer_7",0,0,{}]]]},{"class_name":"Conv2D","config":{"name":"conv2d_63","trainable":true,"dtype":"float32","filters":32,"kernel_size":[1,1],"strides":[1,1],"padding":"same","data_format":"channels_last","dilation_rate":[1,1],"groups":1,"activation":"linear","use_bias":false,"kernel_initializer":{"class_name":"GlorotUniform","config":{"seed":null}},"bias_initializer":{"class_name":"Zeros","config":{}},"kernel_regularizer":null,"bias_regularizer":null,"activity_regularizer":null,"kernel_constraint":null,"bias_constraint":null},"name":"conv2d_63","inbound_nodes":[[["block35_8_ac",0,0,{}]]]},{"class_name":"BatchNormalization","config":{"name":"batch_normalization_63","trainable":true,"dtype":"float32","axis":3,"momentum":0.99,"epsilon":0.001,"center":true,"scale":false,"beta_initializer":{"class_name":"Zeros","config":{}},"gamma_initializer":{"class_name":"Ones","config":{}},"moving_mean_initializer":{"class_name":"Zeros","config":{}},"moving_variance_initializer":{"class_name":"Ones","config":{}},"beta_regularizer":null,"gamma_regularizer":null,"beta_constraint":null,"gamma_constraint":null},"name":"batch_normalization_63","inbound_nodes":[[["conv2d_63",0,0,{}]]]},{"class_name":"Activation","config":{"name":"activation_63","trainable":true,"dtype":"float32","activation":"relu"},"name":"activation_63","inbound_nodes":[[["batch_normalization_63",0,0,{}]]]},{"class_name":"Conv2D","config":{"name":"conv2d_61","trainable":true,"dtype":"float32","filters":32,"kernel_size":[1,1],"strides":[1,1],"padding":"same","data_format":"channels_last","dilation_rate":[1,1],"groups":1,"activation":"linear","use_bias":false,"kernel_initializer":{"class_name":"GlorotUniform","config":{"seed":null}},"bias_initializer":{"class_name":"Zeros","config":{}},"kernel_regularizer":null,"bias_regularizer":null,"activity_regularizer":null,"kernel_constraint":null,"bias_constraint":null},"name":"conv2d_61","inbound_nodes":[[["block35_8_ac",0,0,{}]]]},{"class_name":"Conv2D","config":{"name":"conv2d_64","trainable":true,"dtype":"float32","filters":48,"kernel_size":[3,3],"strides":[1,1],"padding":"same","data_format":"channels_last","dilation_rate":[1,1],"groups":1,"activation":"linear","use_bias":false,"kernel_initializer":{"class_name":"GlorotUniform","config":{"seed":null}},"bias_initializer":{"class_name":"Zeros","config":{}},"kernel_regularizer":null,"bias_regularizer":null,"activity_regularizer":null,"kernel_constraint":null,"bias_constraint":null},"name":"conv2d_64","inbound_nodes":[[["activation_63",0,0,{}]]]},{"class_name":"BatchNormalization","config":{"name":"batch_normalization_61","trainable":true,"dtype":"float32","axis":3,"momentum":0.99,"epsilon":0.001,"center":true,"scale":false,"beta_initializer":{"class_name":"Zeros","config":{}},"gamma_initializer":{"class_name":"Ones","config":{}},"moving_mean_initializer":{"class_name":"Zeros","config":{}},"moving_variance_initializer":{"class_name":"Ones","config":{}},"beta_regularizer":null,"gamma_regularizer":null,"beta_constraint":null,"gamma_constraint":null},"name":"batch_normalization_61","inbound_nodes":[[["conv2d_61",0,0,{}]]]},{"class_name":"BatchNormalization","config":{"name":"batch_normalization_64","trainable":true,"dtype":"float32","axis":3,"momentum":0.99,"epsilon":0.001,"center":true,"scale":false,"beta_initializer":{"class_name":"Zeros","config":{}},"gamma_initializer":{"class_name":"Ones","config":{}},"moving_mean_initializer":{"class_name":"Zeros","config":{}},"moving_variance_initializer":{"class_name":"Ones","config":{}},"beta_regularizer":null,"gamma_regularizer":null,"beta_constraint":null,"gamma_constraint":null},"name":"batch_normalization_64","inbound_nodes":[[["conv2d_64",0,0,{}]]]},{"class_name":"Activation","config":{"name":"activation_61","trainable":true,"dtype":"float32","activation":"relu"},"name":"activation_61","inbound_nodes":[[["batch_normalization_61",0,0,{}]]]},{"class_name":"Activation","config":{"name":"activation_64","trainable":true,"dtype":"float32","activation":"relu"},"name":"activation_64","inbound_nodes":[[["batch_normalization_64",0,0,{}]]]},{"class_name":"Conv2D","config":{"name":"conv2d_60","trainable":true,"dtype":"float32","filters":32,"kernel_size":[1,1],"strides":[1,1],"padding":"same","data_format":"channels_last","dilation_rate":[1,1],"groups":1,"activation":"linear","use_bias":false,"kernel_initializer":{"class_name":"GlorotUniform","config":{"seed":null}},"bias_initializer":{"class_name":"Zeros","config":{}},"kernel_regularizer":null,"bias_regularizer":null,"activity_regularizer":null,"kernel_constraint":null,"bias_constraint":null},"name":"conv2d_60","inbound_nodes":[[["block35_8_ac",0,0,{}]]]},{"class_name":"Conv2D","config":{"name":"conv2d_62","trainable":true,"dtype":"float32","filters":32,"kernel_size":[3,3],"strides":[1,1],"padding":"same","data_format":"channels_last","dilation_rate":[1,1],"groups":1,"activation":"linear","use_bias":false,"kernel_initializer":{"class_name":"GlorotUniform","config":{"seed":null}},"bias_initializer":{"class_name":"Zeros","config":{}},"kernel_regularizer":null,"bias_regularizer":null,"activity_regularizer":null,"kernel_constraint":null,"bias_constraint":null},"name":"conv2d_62","inbound_nodes":[[["activation_61",0,0,{}]]]},{"class_name":"Conv2D","config":{"name":"conv2d_65","trainable":true,"dtype":"float32","filters":64,"kernel_size":[3,3],"strides":[1,1],"padding":"same","data_format":"channels_last","dilation_rate":[1,1],"groups":1,"activation":"linear","use_bias":false,"kernel_initializer":{"class_name":"GlorotUniform","config":{"seed":null}},"bias_initializer":{"class_name":"Zeros","config":{}},"kernel_regularizer":null,"bias_regularizer":null,"activity_regularizer":null,"kernel_constraint":null,"bias_constraint":null},"name":"conv2d_65","inbound_nodes":[[["activation_64",0,0,{}]]]},{"class_name":"BatchNormalization","config":{"name":"batch_normalization_60","trainable":true,"dtype":"float32","axis":3,"momentum":0.99,"epsilon":0.001,"center":true,"scale":false,"beta_initializer":{"class_name":"Zeros","config":{}},"gamma_initializer":{"class_name":"Ones","config":{}},"moving_mean_initializer":{"class_name":"Zeros","config":{}},"moving_variance_initializer":{"class_name":"Ones","config":{}},"beta_regularizer":null,"gamma_regularizer":null,"beta_constraint":null,"gamma_constraint":null},"name":"batch_normalization_60","inbound_nodes":[[["conv2d_60",0,0,{}]]]},{"class_name":"BatchNormalization","config":{"name":"batch_normalization_62","trainable":true,"dtype":"float32","axis":3,"momentum":0.99,"epsilon":0.001,"center":true,"scale":false,"beta_initializer":{"class_name":"Zeros","config":{}},"gamma_initializer":{"class_name":"Ones","config":{}},"moving_mean_initializer":{"class_name":"Zeros","config":{}},"moving_variance_initializer":{"class_name":"Ones","config":{}},"beta_regularizer":null,"gamma_regularizer":null,"beta_constraint":null,"gamma_constraint":null},"name":"batch_normalization_62","inbound_nodes":[[["conv2d_62",0,0,{}]]]},{"class_name":"BatchNormalization","config":{"name":"batch_normalization_65","trainable":true,"dtype":"float32","axis":3,"momentum":0.99,"epsilon":0.001,"center":true,"scale":false,"beta_initializer":{"class_name":"Zeros","config":{}},"gamma_initializer":{"class_name":"Ones","config":{}},"moving_mean_initializer":{"class_name":"Zeros","config":{}},"moving_variance_initializer":{"class_name":"Ones","config":{}},"beta_regularizer":null,"gamma_regularizer":null,"beta_constraint":null,"gamma_constraint":null},"name":"batch_normalization_65","inbound_nodes":[[["conv2d_65",0,0,{}]]]},{"class_name":"Activation","config":{"name":"activation_60","trainable":true,"dtype":"float32","activation":"relu"},"name":"activation_60","inbound_nodes":[[["batch_normalization_60",0,0,{}]]]},{"class_name":"Activation","config":{"name":"activation_62","trainable":true,"dtype":"float32","activation":"relu"},"name":"activation_62","inbound_nodes":[[["batch_normalization_62",0,0,{}]]]},{"class_name":"Activation","config":{"name":"activation_65","trainable":true,"dtype":"float32","activation":"relu"},"name":"activation_65","inbound_nodes":[[["batch_normalization_65",0,0,{}]]]},{"class_name":"Concatenate","config":{"name":"block35_9_mixed","trainable":true,"dtype":"float32","axis":3},"name":"block35_9_mixed","inbound_nodes":[[["activation_60",0,0,{}],["activation_62",0,0,{}],["activation_65",0,0,{}]]]},{"class_name":"Conv2D","config":{"name":"block35_9_conv","trainable":true,"dtype":"float32","filters":320,"kernel_size":[1,1],"strides":[1,1],"padding":"same","data_format":"channels_last","dilation_rate":[1,1],"groups":1,"activation":"linear","use_bias":true,"kernel_initializer":{"class_name":"GlorotUniform","config":{"seed":null}},"bias_initializer":{"class_name":"Zeros","config":{}},"kernel_regularizer":null,"bias_regularizer":null,"activity_regularizer":null,"kernel_constraint":null,"bias_constraint":null},"name":"block35_9_conv","inbound_nodes":[[["block35_9_mixed",0,0,{}]]]},{"class_name":"CustomScaleLayer","config":{"name":"custom_scale_layer_8","trainable":true,"dtype":"float32","scale":0.17},"name":"custom_scale_layer_8","inbound_nodes":[[["block35_8_ac",0,0,{}],["block35_9_conv",0,0,{}]]]},{"class_name":"Activation","config":{"name":"block35_9_ac","trainable":true,"dtype":"float32","activation":"relu"},"name":"block35_9_ac","inbound_nodes":[[["custom_scale_layer_8",0,0,{}]]]},{"class_name":"Conv2D","config":{"name":"conv2d_69","trainable":true,"dtype":"float32","filters":32,"kernel_size":[1,1],"strides":[1,1],"padding":"same","data_format":"channels_last","dilation_rate":[1,1],"groups":1,"activation":"linear","use_bias":false,"kernel_initializer":{"class_name":"GlorotUniform","config":{"seed":null}},"bias_initializer":{"class_name":"Zeros","config":{}},"kernel_regularizer":null,"bias_regularizer":null,"activity_regularizer":null,"kernel_constraint":null,"bias_constraint":null},"name":"conv2d_69","inbound_nodes":[[["block35_9_ac",0,0,{}]]]},{"class_name":"BatchNormalization","config":{"name":"batch_normalization_69","trainable":true,"dtype":"float32","axis":3,"momentum":0.99,"epsilon":0.001,"center":true,"scale":false,"beta_initializer":{"class_name":"Zeros","config":{}},"gamma_initializer":{"class_name":"Ones","config":{}},"moving_mean_initializer":{"class_name":"Zeros","config":{}},"moving_variance_initializer":{"class_name":"Ones","config":{}},"beta_regularizer":null,"gamma_regularizer":null,"beta_constraint":null,"gamma_constraint":null},"name":"batch_normalization_69","inbound_nodes":[[["conv2d_69",0,0,{}]]]},{"class_name":"Activation","config":{"name":"activation_69","trainable":true,"dtype":"float32","activation":"relu"},"name":"activation_69","inbound_nodes":[[["batch_normalization_69",0,0,{}]]]},{"class_name":"Conv2D","config":{"name":"conv2d_67","trainable":true,"dtype":"float32","filters":32,"kernel_size":[1,1],"strides":[1,1],"padding":"same","data_format":"channels_last","dilation_rate":[1,1],"groups":1,"activation":"linear","use_bias":false,"kernel_initializer":{"class_name":"GlorotUniform","config":{"seed":null}},"bias_initializer":{"class_name":"Zeros","config":{}},"kernel_regularizer":null,"bias_regularizer":null,"activity_regularizer":null,"kernel_constraint":null,"bias_constraint":null},"name":"conv2d_67","inbound_nodes":[[["block35_9_ac",0,0,{}]]]},{"class_name":"Conv2D","config":{"name":"conv2d_70","trainable":true,"dtype":"float32","filters":48,"kernel_size":[3,3],"strides":[1,1],"padding":"same","data_format":"channels_last","dilation_rate":[1,1],"groups":1,"activation":"linear","use_bias":false,"kernel_initializer":{"class_name":"GlorotUniform","config":{"seed":null}},"bias_initializer":{"class_name":"Zeros","config":{}},"kernel_regularizer":null,"bias_regularizer":null,"activity_regularizer":null,"kernel_constraint":null,"bias_constraint":null},"name":"conv2d_70","inbound_nodes":[[["activation_69",0,0,{}]]]},{"class_name":"BatchNormalization","config":{"name":"batch_normalization_67","trainable":true,"dtype":"float32","axis":3,"momentum":0.99,"epsilon":0.001,"center":true,"scale":false,"beta_initializer":{"class_name":"Zeros","config":{}},"gamma_initializer":{"class_name":"Ones","config":{}},"moving_mean_initializer":{"class_name":"Zeros","config":{}},"moving_variance_initializer":{"class_name":"Ones","config":{}},"beta_regularizer":null,"gamma_regularizer":null,"beta_constraint":null,"gamma_constraint":null},"name":"batch_normalization_67","inbound_nodes":[[["conv2d_67",0,0,{}]]]},{"class_name":"BatchNormalization","config":{"name":"batch_normalization_70","trainable":true,"dtype":"float32","axis":3,"momentum":0.99,"epsilon":0.001,"center":true,"scale":false,"beta_initializer":{"class_name":"Zeros","config":{}},"gamma_initializer":{"class_name":"Ones","config":{}},"moving_mean_initializer":{"class_name":"Zeros","config":{}},"moving_variance_initializer":{"class_name":"Ones","config":{}},"beta_regularizer":null,"gamma_regularizer":null,"beta_constraint":null,"gamma_constraint":null},"name":"batch_normalization_70","inbound_nodes":[[["conv2d_70",0,0,{}]]]},{"class_name":"Activation","config":{"name":"activation_67","trainable":true,"dtype":"float32","activation":"relu"},"name":"activation_67","inbound_nodes":[[["batch_normalization_67",0,0,{}]]]},{"class_name":"Activation","config":{"name":"activation_70","trainable":true,"dtype":"float32","activation":"relu"},"name":"activation_70","inbound_nodes":[[["batch_normalization_70",0,0,{}]]]},{"class_name":"Conv2D","config":{"name":"conv2d_66","trainable":true,"dtype":"float32","filters":32,"kernel_size":[1,1],"strides":[1,1],"padding":"same","data_format":"channels_last","dilation_rate":[1,1],"groups":1,"activation":"linear","use_bias":false,"kernel_initializer":{"class_name":"GlorotUniform","config":{"seed":null}},"bias_initializer":{"class_name":"Zeros","config":{}},"kernel_regularizer":null,"bias_regularizer":null,"activity_regularizer":null,"kernel_constraint":null,"bias_constraint":null},"name":"conv2d_66","inbound_nodes":[[["block35_9_ac",0,0,{}]]]},{"class_name":"Conv2D","config":{"name":"conv2d_68","trainable":true,"dtype":"float32","filters":32,"kernel_size":[3,3],"strides":[1,1],"padding":"same","data_format":"channels_last","dilation_rate":[1,1],"groups":1,"activation":"linear","use_bias":false,"kernel_initializer":{"class_name":"GlorotUniform","config":{"seed":null}},"bias_initializer":{"class_name":"Zeros","config":{}},"kernel_regularizer":null,"bias_regularizer":null,"activity_regularizer":null,"kernel_constraint":null,"bias_constraint":null},"name":"conv2d_68","inbound_nodes":[[["activation_67",0,0,{}]]]},{"class_name":"Conv2D","config":{"name":"conv2d_71","trainable":true,"dtype":"float32","filters":64,"kernel_size":[3,3],"strides":[1,1],"padding":"same","data_format":"channels_last","dilation_rate":[1,1],"groups":1,"activation":"linear","use_bias":false,"kernel_initializer":{"class_name":"GlorotUniform","config":{"seed":null}},"bias_initializer":{"class_name":"Zeros","config":{}},"kernel_regularizer":null,"bias_regularizer":null,"activity_regularizer":null,"kernel_constraint":null,"bias_constraint":null},"name":"conv2d_71","inbound_nodes":[[["activation_70",0,0,{}]]]},{"class_name":"BatchNormalization","config":{"name":"batch_normalization_66","trainable":true,"dtype":"float32","axis":3,"momentum":0.99,"epsilon":0.001,"center":true,"scale":false,"beta_initializer":{"class_name":"Zeros","config":{}},"gamma_initializer":{"class_name":"Ones","config":{}},"moving_mean_initializer":{"class_name":"Zeros","config":{}},"moving_variance_initializer":{"class_name":"Ones","config":{}},"beta_regularizer":null,"gamma_regularizer":null,"beta_constraint":null,"gamma_constraint":null},"name":"batch_normalization_66","inbound_nodes":[[["conv2d_66",0,0,{}]]]},{"class_name":"BatchNormalization","config":{"name":"batch_normalization_68","trainable":true,"dtype":"float32","axis":3,"momentum":0.99,"epsilon":0.001,"center":true,"scale":false,"beta_initializer":{"class_name":"Zeros","config":{}},"gamma_initializer":{"class_name":"Ones","config":{}},"moving_mean_initializer":{"class_name":"Zeros","config":{}},"moving_variance_initializer":{"class_name":"Ones","config":{}},"beta_regularizer":null,"gamma_regularizer":null,"beta_constraint":null,"gamma_constraint":null},"name":"batch_normalization_68","inbound_nodes":[[["conv2d_68",0,0,{}]]]},{"class_name":"BatchNormalization","config":{"name":"batch_normalization_71","trainable":true,"dtype":"float32","axis":3,"momentum":0.99,"epsilon":0.001,"center":true,"scale":false,"beta_initializer":{"class_name":"Zeros","config":{}},"gamma_initializer":{"class_name":"Ones","config":{}},"moving_mean_initializer":{"class_name":"Zeros","config":{}},"moving_variance_initializer":{"class_name":"Ones","config":{}},"beta_regularizer":null,"gamma_regularizer":null,"beta_constraint":null,"gamma_constraint":null},"name":"batch_normalization_71","inbound_nodes":[[["conv2d_71",0,0,{}]]]},{"class_name":"Activation","config":{"name":"activation_66","trainable":true,"dtype":"float32","activation":"relu"},"name":"activation_66","inbound_nodes":[[["batch_normalization_66",0,0,{}]]]},{"class_name":"Activation","config":{"name":"activation_68","trainable":true,"dtype":"float32","activation":"relu"},"name":"activation_68","inbound_nodes":[[["batch_normalization_68",0,0,{}]]]},{"class_name":"Activation","config":{"name":"activation_71","trainable":true,"dtype":"float32","activation":"relu"},"name":"activation_71","inbound_nodes":[[["batch_normalization_71",0,0,{}]]]},{"class_name":"Concatenate","config":{"name":"block35_10_mixed","trainable":true,"dtype":"float32","axis":3},"name":"block35_10_mixed","inbound_nodes":[[["activation_66",0,0,{}],["activation_68",0,0,{}],["activation_71",0,0,{}]]]},{"class_name":"Conv2D","config":{"name":"block35_10_conv","trainable":true,"dtype":"float32","filters":320,"kernel_size":[1,1],"strides":[1,1],"padding":"same","data_format":"channels_last","dilation_rate":[1,1],"groups":1,"activation":"linear","use_bias":true,"kernel_initializer":{"class_name":"GlorotUniform","config":{"seed":null}},"bias_initializer":{"class_name":"Zeros","config":{}},"kernel_regularizer":null,"bias_regularizer":null,"activity_regularizer":null,"kernel_constraint":null,"bias_constraint":null},"name":"block35_10_conv","inbound_nodes":[[["block35_10_mixed",0,0,{}]]]},{"class_name":"CustomScaleLayer","config":{"name":"custom_scale_layer_9","trainable":true,"dtype":"float32","scale":0.17},"name":"custom_scale_layer_9","inbound_nodes":[[["block35_9_ac",0,0,{}],["block35_10_conv",0,0,{}]]]},{"class_name":"Activation","config":{"name":"block35_10_ac","trainable":true,"dtype":"float32","activation":"relu"},"name":"block35_10_ac","inbound_nodes":[[["custom_scale_layer_9",0,0,{}]]]},{"class_name":"Conv2D","config":{"name":"conv2d_73","trainable":true,"dtype":"float32","filters":256,"kernel_size":[1,1],"strides":[1,1],"padding":"same","data_format":"channels_last","dilation_rate":[1,1],"groups":1,"activation":"linear","use_bias":false,"kernel_initializer":{"class_name":"GlorotUniform","config":{"seed":null}},"bias_initializer":{"class_name":"Zeros","config":{}},"kernel_regularizer":null,"bias_regularizer":null,"activity_regularizer":null,"kernel_constraint":null,"bias_constraint":null},"name":"conv2d_73","inbound_nodes":[[["block35_10_ac",0,0,{}]]]},{"class_name":"BatchNormalization","config":{"name":"batch_normalization_73","trainable":true,"dtype":"float32","axis":3,"momentum":0.99,"epsilon":0.001,"center":true,"scale":false,"beta_initializer":{"class_name":"Zeros","config":{}},"gamma_initializer":{"class_name":"Ones","config":{}},"moving_mean_initializer":{"class_name":"Zeros","config":{}},"moving_variance_initializer":{"class_name":"Ones","config":{}},"beta_regularizer":null,"gamma_regularizer":null,"beta_constraint":null,"gamma_constraint":null},"name":"batch_normalization_73","inbound_nodes":[[["conv2d_73",0,0,{}]]]},{"class_name":"Activation","config":{"name":"activation_73","trainable":true,"dtype":"float32","activation":"relu"},"name":"activation_73","inbound_nodes":[[["batch_normalization_73",0,0,{}]]]},{"class_name":"Conv2D","config":{"name":"conv2d_74","trainable":true,"dtype":"float32","filters":256,"kernel_size":[3,3],"strides":[1,1],"padding":"same","data_format":"channels_last","dilation_rate":[1,1],"groups":1,"activation":"linear","use_bias":false,"kernel_initializer":{"class_name":"GlorotUniform","config":{"seed":null}},"bias_initializer":{"class_name":"Zeros","config":{}},"kernel_regularizer":null,"bias_regularizer":null,"activity_regularizer":null,"kernel_constraint":null,"bias_constraint":null},"name":"conv2d_74","inbound_nodes":[[["activation_73",0,0,{}]]]},{"class_name":"BatchNormalization","config":{"name":"batch_normalization_74","trainable":true,"dtype":"float32","axis":3,"momentum":0.99,"epsilon":0.001,"center":true,"scale":false,"beta_initializer":{"class_name":"Zeros","config":{}},"gamma_initializer":{"class_name":"Ones","config":{}},"moving_mean_initializer":{"class_name":"Zeros","config":{}},"moving_variance_initializer":{"class_name":"Ones","config":{}},"beta_regularizer":null,"gamma_regularizer":null,"beta_constraint":null,"gamma_constraint":null},"name":"batch_normalization_74","inbound_nodes":[[["conv2d_74",0,0,{}]]]},{"class_name":"Activation","config":{"name":"activation_74","trainable":true,"dtype":"float32","activation":"relu"},"name":"activation_74","inbound_nodes":[[["batch_normalization_74",0,0,{}]]]},{"class_name":"Conv2D","config":{"name":"conv2d_72","trainable":true,"dtype":"float32","filters":384,"kernel_size":[3,3],"strides":[2,2],"padding":"valid","data_format":"channels_last","dilation_rate":[1,1],"groups":1,"activation":"linear","use_bias":false,"kernel_initializer":{"class_name":"GlorotUniform","config":{"seed":null}},"bias_initializer":{"class_name":"Zeros","config":{}},"kernel_regularizer":null,"bias_regularizer":null,"activity_regularizer":null,"kernel_constraint":null,"bias_constraint":null},"name":"conv2d_72","inbound_nodes":[[["block35_10_ac",0,0,{}]]]},{"class_name":"Conv2D","config":{"name":"conv2d_75","trainable":true,"dtype":"float32","filters":384,"kernel_size":[3,3],"strides":[2,2],"padding":"valid","data_format":"channels_last","dilation_rate":[1,1],"groups":1,"activation":"linear","use_bias":false,"kernel_initializer":{"class_name":"GlorotUniform","config":{"seed":null}},"bias_initializer":{"class_name":"Zeros","config":{}},"kernel_regularizer":null,"bias_regularizer":null,"activity_regularizer":null,"kernel_constraint":null,"bias_constraint":null},"name":"conv2d_75","inbound_nodes":[[["activation_74",0,0,{}]]]},{"class_name":"BatchNormalization","config":{"name":"batch_normalization_72","trainable":true,"dtype":"float32","axis":3,"momentum":0.99,"epsilon":0.001,"center":true,"scale":false,"beta_initializer":{"class_name":"Zeros","config":{}},"gamma_initializer":{"class_name":"Ones","config":{}},"moving_mean_initializer":{"class_name":"Zeros","config":{}},"moving_variance_initializer":{"class_name":"Ones","config":{}},"beta_regularizer":null,"gamma_regularizer":null,"beta_constraint":null,"gamma_constraint":null},"name":"batch_normalization_72","inbound_nodes":[[["conv2d_72",0,0,{}]]]},{"class_name":"BatchNormalization","config":{"name":"batch_normalization_75","trainable":true,"dtype":"float32","axis":3,"momentum":0.99,"epsilon":0.001,"center":true,"scale":false,"beta_initializer":{"class_name":"Zeros","config":{}},"gamma_initializer":{"class_name":"Ones","config":{}},"moving_mean_initializer":{"class_name":"Zeros","config":{}},"moving_variance_initializer":{"class_name":"Ones","config":{}},"beta_regularizer":null,"gamma_regularizer":null,"beta_constraint":null,"gamma_constraint":null},"name":"batch_normalization_75","inbound_nodes":[[["conv2d_75",0,0,{}]]]},{"class_name":"Activation","config":{"name":"activation_72","trainable":true,"dtype":"float32","activation":"relu"},"name":"activation_72","inbound_nodes":[[["batch_normalization_72",0,0,{}]]]},{"class_name":"Activation","config":{"name":"activation_75","trainable":true,"dtype":"float32","activation":"relu"},"name":"activation_75","inbound_nodes":[[["batch_normalization_75",0,0,{}]]]},{"class_name":"MaxPooling2D","config":{"name":"max_pooling2d_2","trainable":true,"dtype":"float32","pool_size":[3,3],"padding":"valid","strides":[2,2],"data_format":"channels_last"},"name":"max_pooling2d_2","inbound_nodes":[[["block35_10_ac",0,0,{}]]]},{"class_name":"Concatenate","config":{"name":"mixed_6a","trainable":true,"dtype":"float32","axis":3},"name":"mixed_6a","inbound_nodes":[[["activation_72",0,0,{}],["activation_75",0,0,{}],["max_pooling2d_2",0,0,{}]]]},{"class_name":"Conv2D","config":{"name":"conv2d_77","trainable":true,"dtype":"float32","filters":128,"kernel_size":[1,1],"strides":[1,1],"padding":"same","data_format":"channels_last","dilation_rate":[1,1],"groups":1,"activation":"linear","use_bias":false,"kernel_initializer":{"class_name":"GlorotUniform","config":{"seed":null}},"bias_initializer":{"class_name":"Zeros","config":{}},"kernel_regularizer":null,"bias_regularizer":null,"activity_regularizer":null,"kernel_constraint":null,"bias_constraint":null},"name":"conv2d_77","inbound_nodes":[[["mixed_6a",0,0,{}]]]},{"class_name":"BatchNormalization","config":{"name":"batch_normalization_77","trainable":true,"dtype":"float32","axis":3,"momentum":0.99,"epsilon":0.001,"center":true,"scale":false,"beta_initializer":{"class_name":"Zeros","config":{}},"gamma_initializer":{"class_name":"Ones","config":{}},"moving_mean_initializer":{"class_name":"Zeros","config":{}},"moving_variance_initializer":{"class_name":"Ones","config":{}},"beta_regularizer":null,"gamma_regularizer":null,"beta_constraint":null,"gamma_constraint":null},"name":"batch_normalization_77","inbound_nodes":[[["conv2d_77",0,0,{}]]]},{"class_name":"Activation","config":{"name":"activation_77","trainable":true,"dtype":"float32","activation":"relu"},"name":"activation_77","inbound_nodes":[[["batch_normalization_77",0,0,{}]]]},{"class_name":"Conv2D","config":{"name":"conv2d_78","trainable":true,"dtype":"float32","filters":160,"kernel_size":[1,7],"strides":[1,1],"padding":"same","data_format":"channels_last","dilation_rate":[1,1],"groups":1,"activation":"linear","use_bias":false,"kernel_initializer":{"class_name":"GlorotUniform","config":{"seed":null}},"bias_initializer":{"class_name":"Zeros","config":{}},"kernel_regularizer":null,"bias_regularizer":null,"activity_regularizer":null,"kernel_constraint":null,"bias_constraint":null},"name":"conv2d_78","inbound_nodes":[[["activation_77",0,0,{}]]]},{"class_name":"BatchNormalization","config":{"name":"batch_normalization_78","trainable":true,"dtype":"float32","axis":3,"momentum":0.99,"epsilon":0.001,"center":true,"scale":false,"beta_initializer":{"class_name":"Zeros","config":{}},"gamma_initializer":{"class_name":"Ones","config":{}},"moving_mean_initializer":{"class_name":"Zeros","config":{}},"moving_variance_initializer":{"class_name":"Ones","config":{}},"beta_regularizer":null,"gamma_regularizer":null,"beta_constraint":null,"gamma_constraint":null},"name":"batch_normalization_78","inbound_nodes":[[["conv2d_78",0,0,{}]]]},{"class_name":"Activation","config":{"name":"activation_78","trainable":true,"dtype":"float32","activation":"relu"},"name":"activation_78","inbound_nodes":[[["batch_normalization_78",0,0,{}]]]},{"class_name":"Conv2D","config":{"name":"conv2d_76","trainable":true,"dtype":"float32","filters":192,"kernel_size":[1,1],"strides":[1,1],"padding":"same","data_format":"channels_last","dilation_rate":[1,1],"groups":1,"activation":"linear","use_bias":false,"kernel_initializer":{"class_name":"GlorotUniform","config":{"seed":null}},"bias_initializer":{"class_name":"Zeros","config":{}},"kernel_regularizer":null,"bias_regularizer":null,"activity_regularizer":null,"kernel_constraint":null,"bias_constraint":null},"name":"conv2d_76","inbound_nodes":[[["mixed_6a",0,0,{}]]]},{"class_name":"Conv2D","config":{"name":"conv2d_79","trainable":true,"dtype":"float32","filters":192,"kernel_size":[7,1],"strides":[1,1],"padding":"same","data_format":"channels_last","dilation_rate":[1,1],"groups":1,"activation":"linear","use_bias":false,"kernel_initializer":{"class_name":"GlorotUniform","config":{"seed":null}},"bias_initializer":{"class_name":"Zeros","config":{}},"kernel_regularizer":null,"bias_regularizer":null,"activity_regularizer":null,"kernel_constraint":null,"bias_constraint":null},"name":"conv2d_79","inbound_nodes":[[["activation_78",0,0,{}]]]},{"class_name":"BatchNormalization","config":{"name":"batch_normalization_76","trainable":true,"dtype":"float32","axis":3,"momentum":0.99,"epsilon":0.001,"center":true,"scale":false,"beta_initializer":{"class_name":"Zeros","config":{}},"gamma_initializer":{"class_name":"Ones","config":{}},"moving_mean_initializer":{"class_name":"Zeros","config":{}},"moving_variance_initializer":{"class_name":"Ones","config":{}},"beta_regularizer":null,"gamma_regularizer":null,"beta_constraint":null,"gamma_constraint":null},"name":"batch_normalization_76","inbound_nodes":[[["conv2d_76",0,0,{}]]]},{"class_name":"BatchNormalization","config":{"name":"batch_normalization_79","trainable":true,"dtype":"float32","axis":3,"momentum":0.99,"epsilon":0.001,"center":true,"scale":false,"beta_initializer":{"class_name":"Zeros","config":{}},"gamma_initializer":{"class_name":"Ones","config":{}},"moving_mean_initializer":{"class_name":"Zeros","config":{}},"moving_variance_initializer":{"class_name":"Ones","config":{}},"beta_regularizer":null,"gamma_regularizer":null,"beta_constraint":null,"gamma_constraint":null},"name":"batch_normalization_79","inbound_nodes":[[["conv2d_79",0,0,{}]]]},{"class_name":"Activation","config":{"name":"activation_76","trainable":true,"dtype":"float32","activation":"relu"},"name":"activation_76","inbound_nodes":[[["batch_normalization_76",0,0,{}]]]},{"class_name":"Activation","config":{"name":"activation_79","trainable":true,"dtype":"float32","activation":"relu"},"name":"activation_79","inbound_nodes":[[["batch_normalization_79",0,0,{}]]]},{"class_name":"Concatenate","config":{"name":"block17_1_mixed","trainable":true,"dtype":"float32","axis":3},"name":"block17_1_mixed","inbound_nodes":[[["activation_76",0,0,{}],["activation_79",0,0,{}]]]},{"class_name":"Conv2D","config":{"name":"block17_1_conv","trainable":true,"dtype":"float32","filters":1088,"kernel_size":[1,1],"strides":[1,1],"padding":"same","data_format":"channels_last","dilation_rate":[1,1],"groups":1,"activation":"linear","use_bias":true,"kernel_initializer":{"class_name":"GlorotUniform","config":{"seed":null}},"bias_initializer":{"class_name":"Zeros","config":{}},"kernel_regularizer":null,"bias_regularizer":null,"activity_regularizer":null,"kernel_constraint":null,"bias_constraint":null},"name":"block17_1_conv","inbound_nodes":[[["block17_1_mixed",0,0,{}]]]},{"class_name":"CustomScaleLayer","config":{"name":"custom_scale_layer_10","trainable":true,"dtype":"float32","scale":0.1},"name":"custom_scale_layer_10","inbound_nodes":[[["mixed_6a",0,0,{}],["block17_1_conv",0,0,{}]]]},{"class_name":"Activation","config":{"name":"block17_1_ac","trainable":true,"dtype":"float32","activation":"relu"},"name":"block17_1_ac","inbound_nodes":[[["custom_scale_layer_10",0,0,{}]]]},{"class_name":"Conv2D","config":{"name":"conv2d_81","trainable":true,"dtype":"float32","filters":128,"kernel_size":[1,1],"strides":[1,1],"padding":"same","data_format":"channels_last","dilation_rate":[1,1],"groups":1,"activation":"linear","use_bias":false,"kernel_initializer":{"class_name":"GlorotUniform","config":{"seed":null}},"bias_initializer":{"class_name":"Zeros","config":{}},"kernel_regularizer":null,"bias_regularizer":null,"activity_regularizer":null,"kernel_constraint":null,"bias_constraint":null},"name":"conv2d_81","inbound_nodes":[[["block17_1_ac",0,0,{}]]]},{"class_name":"BatchNormalization","config":{"name":"batch_normalization_81","trainable":true,"dtype":"float32","axis":3,"momentum":0.99,"epsilon":0.001,"center":true,"scale":false,"beta_initializer":{"class_name":"Zeros","config":{}},"gamma_initializer":{"class_name":"Ones","config":{}},"moving_mean_initializer":{"class_name":"Zeros","config":{}},"moving_variance_initializer":{"class_name":"Ones","config":{}},"beta_regularizer":null,"gamma_regularizer":null,"beta_constraint":null,"gamma_constraint":null},"name":"batch_normalization_81","inbound_nodes":[[["conv2d_81",0,0,{}]]]},{"class_name":"Activation","config":{"name":"activation_81","trainable":true,"dtype":"float32","activation":"relu"},"name":"activation_81","inbound_nodes":[[["batch_normalization_81",0,0,{}]]]},{"class_name":"Conv2D","config":{"name":"conv2d_82","trainable":true,"dtype":"float32","filters":160,"kernel_size":[1,7],"strides":[1,1],"padding":"same","data_format":"channels_last","dilation_rate":[1,1],"groups":1,"activation":"linear","use_bias":false,"kernel_initializer":{"class_name":"GlorotUniform","config":{"seed":null}},"bias_initializer":{"class_name":"Zeros","config":{}},"kernel_regularizer":null,"bias_regularizer":null,"activity_regularizer":null,"kernel_constraint":null,"bias_constraint":null},"name":"conv2d_82","inbound_nodes":[[["activation_81",0,0,{}]]]},{"class_name":"BatchNormalization","config":{"name":"batch_normalization_82","trainable":true,"dtype":"float32","axis":3,"momentum":0.99,"epsilon":0.001,"center":true,"scale":false,"beta_initializer":{"class_name":"Zeros","config":{}},"gamma_initializer":{"class_name":"Ones","config":{}},"moving_mean_initializer":{"class_name":"Zeros","config":{}},"moving_variance_initializer":{"class_name":"Ones","config":{}},"beta_regularizer":null,"gamma_regularizer":null,"beta_constraint":null,"gamma_constraint":null},"name":"batch_normalization_82","inbound_nodes":[[["conv2d_82",0,0,{}]]]},{"class_name":"Activation","config":{"name":"activation_82","trainable":true,"dtype":"float32","activation":"relu"},"name":"activation_82","inbound_nodes":[[["batch_normalization_82",0,0,{}]]]},{"class_name":"Conv2D","config":{"name":"conv2d_80","trainable":true,"dtype":"float32","filters":192,"kernel_size":[1,1],"strides":[1,1],"padding":"same","data_format":"channels_last","dilation_rate":[1,1],"groups":1,"activation":"linear","use_bias":false,"kernel_initializer":{"class_name":"GlorotUniform","config":{"seed":null}},"bias_initializer":{"class_name":"Zeros","config":{}},"kernel_regularizer":null,"bias_regularizer":null,"activity_regularizer":null,"kernel_constraint":null,"bias_constraint":null},"name":"conv2d_80","inbound_nodes":[[["block17_1_ac",0,0,{}]]]},{"class_name":"Conv2D","config":{"name":"conv2d_83","trainable":true,"dtype":"float32","filters":192,"kernel_size":[7,1],"strides":[1,1],"padding":"same","data_format":"channels_last","dilation_rate":[1,1],"groups":1,"activation":"linear","use_bias":false,"kernel_initializer":{"class_name":"GlorotUniform","config":{"seed":null}},"bias_initializer":{"class_name":"Zeros","config":{}},"kernel_regularizer":null,"bias_regularizer":null,"activity_regularizer":null,"kernel_constraint":null,"bias_constraint":null},"name":"conv2d_83","inbound_nodes":[[["activation_82",0,0,{}]]]},{"class_name":"BatchNormalization","config":{"name":"batch_normalization_80","trainable":true,"dtype":"float32","axis":3,"momentum":0.99,"epsilon":0.001,"center":true,"scale":false,"beta_initializer":{"class_name":"Zeros","config":{}},"gamma_initializer":{"class_name":"Ones","config":{}},"moving_mean_initializer":{"class_name":"Zeros","config":{}},"moving_variance_initializer":{"class_name":"Ones","config":{}},"beta_regularizer":null,"gamma_regularizer":null,"beta_constraint":null,"gamma_constraint":null},"name":"batch_normalization_80","inbound_nodes":[[["conv2d_80",0,0,{}]]]},{"class_name":"BatchNormalization","config":{"name":"batch_normalization_83","trainable":true,"dtype":"float32","axis":3,"momentum":0.99,"epsilon":0.001,"center":true,"scale":false,"beta_initializer":{"class_name":"Zeros","config":{}},"gamma_initializer":{"class_name":"Ones","config":{}},"moving_mean_initializer":{"class_name":"Zeros","config":{}},"moving_variance_initializer":{"class_name":"Ones","config":{}},"beta_regularizer":null,"gamma_regularizer":null,"beta_constraint":null,"gamma_constraint":null},"name":"batch_normalization_83","inbound_nodes":[[["conv2d_83",0,0,{}]]]},{"class_name":"Activation","config":{"name":"activation_80","trainable":true,"dtype":"float32","activation":"relu"},"name":"activation_80","inbound_nodes":[[["batch_normalization_80",0,0,{}]]]},{"class_name":"Activation","config":{"name":"activation_83","trainable":true,"dtype":"float32","activation":"relu"},"name":"activation_83","inbound_nodes":[[["batch_normalization_83",0,0,{}]]]},{"class_name":"Concatenate","config":{"name":"block17_2_mixed","trainable":true,"dtype":"float32","axis":3},"name":"block17_2_mixed","inbound_nodes":[[["activation_80",0,0,{}],["activation_83",0,0,{}]]]},{"class_name":"Conv2D","config":{"name":"block17_2_conv","trainable":true,"dtype":"float32","filters":1088,"kernel_size":[1,1],"strides":[1,1],"padding":"same","data_format":"channels_last","dilation_rate":[1,1],"groups":1,"activation":"linear","use_bias":true,"kernel_initializer":{"class_name":"GlorotUniform","config":{"seed":null}},"bias_initializer":{"class_name":"Zeros","config":{}},"kernel_regularizer":null,"bias_regularizer":null,"activity_regularizer":null,"kernel_constraint":null,"bias_constraint":null},"name":"block17_2_conv","inbound_nodes":[[["block17_2_mixed",0,0,{}]]]},{"class_name":"CustomScaleLayer","config":{"name":"custom_scale_layer_11","trainable":true,"dtype":"float32","scale":0.1},"name":"custom_scale_layer_11","inbound_nodes":[[["block17_1_ac",0,0,{}],["block17_2_conv",0,0,{}]]]},{"class_name":"Activation","config":{"name":"block17_2_ac","trainable":true,"dtype":"float32","activation":"relu"},"name":"block17_2_ac","inbound_nodes":[[["custom_scale_layer_11",0,0,{}]]]},{"class_name":"Conv2D","config":{"name":"conv2d_85","trainable":true,"dtype":"float32","filters":128,"kernel_size":[1,1],"strides":[1,1],"padding":"same","data_format":"channels_last","dilation_rate":[1,1],"groups":1,"activation":"linear","use_bias":false,"kernel_initializer":{"class_name":"GlorotUniform","config":{"seed":null}},"bias_initializer":{"class_name":"Zeros","config":{}},"kernel_regularizer":null,"bias_regularizer":null,"activity_regularizer":null,"kernel_constraint":null,"bias_constraint":null},"name":"conv2d_85","inbound_nodes":[[["block17_2_ac",0,0,{}]]]},{"class_name":"BatchNormalization","config":{"name":"batch_normalization_85","trainable":true,"dtype":"float32","axis":3,"momentum":0.99,"epsilon":0.001,"center":true,"scale":false,"beta_initializer":{"class_name":"Zeros","config":{}},"gamma_initializer":{"class_name":"Ones","config":{}},"moving_mean_initializer":{"class_name":"Zeros","config":{}},"moving_variance_initializer":{"class_name":"Ones","config":{}},"beta_regularizer":null,"gamma_regularizer":null,"beta_constraint":null,"gamma_constraint":null},"name":"batch_normalization_85","inbound_nodes":[[["conv2d_85",0,0,{}]]]},{"class_name":"Activation","config":{"name":"activation_85","trainable":true,"dtype":"float32","activation":"relu"},"name":"activation_85","inbound_nodes":[[["batch_normalization_85",0,0,{}]]]},{"class_name":"Conv2D","config":{"name":"conv2d_86","trainable":true,"dtype":"float32","filters":160,"kernel_size":[1,7],"strides":[1,1],"padding":"same","data_format":"channels_last","dilation_rate":[1,1],"groups":1,"activation":"linear","use_bias":false,"kernel_initializer":{"class_name":"GlorotUniform","config":{"seed":null}},"bias_initializer":{"class_name":"Zeros","config":{}},"kernel_regularizer":null,"bias_regularizer":null,"activity_regularizer":null,"kernel_constraint":null,"bias_constraint":null},"name":"conv2d_86","inbound_nodes":[[["activation_85",0,0,{}]]]},{"class_name":"BatchNormalization","config":{"name":"batch_normalization_86","trainable":true,"dtype":"float32","axis":3,"momentum":0.99,"epsilon":0.001,"center":true,"scale":false,"beta_initializer":{"class_name":"Zeros","config":{}},"gamma_initializer":{"class_name":"Ones","config":{}},"moving_mean_initializer":{"class_name":"Zeros","config":{}},"moving_variance_initializer":{"class_name":"Ones","config":{}},"beta_regularizer":null,"gamma_regularizer":null,"beta_constraint":null,"gamma_constraint":null},"name":"batch_normalization_86","inbound_nodes":[[["conv2d_86",0,0,{}]]]},{"class_name":"Activation","config":{"name":"activation_86","trainable":true,"dtype":"float32","activation":"relu"},"name":"activation_86","inbound_nodes":[[["batch_normalization_86",0,0,{}]]]},{"class_name":"Conv2D","config":{"name":"conv2d_84","trainable":true,"dtype":"float32","filters":192,"kernel_size":[1,1],"strides":[1,1],"padding":"same","data_format":"channels_last","dilation_rate":[1,1],"groups":1,"activation":"linear","use_bias":false,"kernel_initializer":{"class_name":"GlorotUniform","config":{"seed":null}},"bias_initializer":{"class_name":"Zeros","config":{}},"kernel_regularizer":null,"bias_regularizer":null,"activity_regularizer":null,"kernel_constraint":null,"bias_constraint":null},"name":"conv2d_84","inbound_nodes":[[["block17_2_ac",0,0,{}]]]},{"class_name":"Conv2D","config":{"name":"conv2d_87","trainable":true,"dtype":"float32","filters":192,"kernel_size":[7,1],"strides":[1,1],"padding":"same","data_format":"channels_last","dilation_rate":[1,1],"groups":1,"activation":"linear","use_bias":false,"kernel_initializer":{"class_name":"GlorotUniform","config":{"seed":null}},"bias_initializer":{"class_name":"Zeros","config":{}},"kernel_regularizer":null,"bias_regularizer":null,"activity_regularizer":null,"kernel_constraint":null,"bias_constraint":null},"name":"conv2d_87","inbound_nodes":[[["activation_86",0,0,{}]]]},{"class_name":"BatchNormalization","config":{"name":"batch_normalization_84","trainable":true,"dtype":"float32","axis":3,"momentum":0.99,"epsilon":0.001,"center":true,"scale":false,"beta_initializer":{"class_name":"Zeros","config":{}},"gamma_initializer":{"class_name":"Ones","config":{}},"moving_mean_initializer":{"class_name":"Zeros","config":{}},"moving_variance_initializer":{"class_name":"Ones","config":{}},"beta_regularizer":null,"gamma_regularizer":null,"beta_constraint":null,"gamma_constraint":null},"name":"batch_normalization_84","inbound_nodes":[[["conv2d_84",0,0,{}]]]},{"class_name":"BatchNormalization","config":{"name":"batch_normalization_87","trainable":true,"dtype":"float32","axis":3,"momentum":0.99,"epsilon":0.001,"center":true,"scale":false,"beta_initializer":{"class_name":"Zeros","config":{}},"gamma_initializer":{"class_name":"Ones","config":{}},"moving_mean_initializer":{"class_name":"Zeros","config":{}},"moving_variance_initializer":{"class_name":"Ones","config":{}},"beta_regularizer":null,"gamma_regularizer":null,"beta_constraint":null,"gamma_constraint":null},"name":"batch_normalization_87","inbound_nodes":[[["conv2d_87",0,0,{}]]]},{"class_name":"Activation","config":{"name":"activation_84","trainable":true,"dtype":"float32","activation":"relu"},"name":"activation_84","inbound_nodes":[[["batch_normalization_84",0,0,{}]]]},{"class_name":"Activation","config":{"name":"activation_87","trainable":true,"dtype":"float32","activation":"relu"},"name":"activation_87","inbound_nodes":[[["batch_normalization_87",0,0,{}]]]},{"class_name":"Concatenate","config":{"name":"block17_3_mixed","trainable":true,"dtype":"float32","axis":3},"name":"block17_3_mixed","inbound_nodes":[[["activation_84",0,0,{}],["activation_87",0,0,{}]]]},{"class_name":"Conv2D","config":{"name":"block17_3_conv","trainable":true,"dtype":"float32","filters":1088,"kernel_size":[1,1],"strides":[1,1],"padding":"same","data_format":"channels_last","dilation_rate":[1,1],"groups":1,"activation":"linear","use_bias":true,"kernel_initializer":{"class_name":"GlorotUniform","config":{"seed":null}},"bias_initializer":{"class_name":"Zeros","config":{}},"kernel_regularizer":null,"bias_regularizer":null,"activity_regularizer":null,"kernel_constraint":null,"bias_constraint":null},"name":"block17_3_conv","inbound_nodes":[[["block17_3_mixed",0,0,{}]]]},{"class_name":"CustomScaleLayer","config":{"name":"custom_scale_layer_12","trainable":true,"dtype":"float32","scale":0.1},"name":"custom_scale_layer_12","inbound_nodes":[[["block17_2_ac",0,0,{}],["block17_3_conv",0,0,{}]]]},{"class_name":"Activation","config":{"name":"block17_3_ac","trainable":true,"dtype":"float32","activation":"relu"},"name":"block17_3_ac","inbound_nodes":[[["custom_scale_layer_12",0,0,{}]]]},{"class_name":"Conv2D","config":{"name":"conv2d_89","trainable":true,"dtype":"float32","filters":128,"kernel_size":[1,1],"strides":[1,1],"padding":"same","data_format":"channels_last","dilation_rate":[1,1],"groups":1,"activation":"linear","use_bias":false,"kernel_initializer":{"class_name":"GlorotUniform","config":{"seed":null}},"bias_initializer":{"class_name":"Zeros","config":{}},"kernel_regularizer":null,"bias_regularizer":null,"activity_regularizer":null,"kernel_constraint":null,"bias_constraint":null},"name":"conv2d_89","inbound_nodes":[[["block17_3_ac",0,0,{}]]]},{"class_name":"BatchNormalization","config":{"name":"batch_normalization_89","trainable":true,"dtype":"float32","axis":3,"momentum":0.99,"epsilon":0.001,"center":true,"scale":false,"beta_initializer":{"class_name":"Zeros","config":{}},"gamma_initializer":{"class_name":"Ones","config":{}},"moving_mean_initializer":{"class_name":"Zeros","config":{}},"moving_variance_initializer":{"class_name":"Ones","config":{}},"beta_regularizer":null,"gamma_regularizer":null,"beta_constraint":null,"gamma_constraint":null},"name":"batch_normalization_89","inbound_nodes":[[["conv2d_89",0,0,{}]]]},{"class_name":"Activation","config":{"name":"activation_89","trainable":true,"dtype":"float32","activation":"relu"},"name":"activation_89","inbound_nodes":[[["batch_normalization_89",0,0,{}]]]},{"class_name":"Conv2D","config":{"name":"conv2d_90","trainable":true,"dtype":"float32","filters":160,"kernel_size":[1,7],"strides":[1,1],"padding":"same","data_format":"channels_last","dilation_rate":[1,1],"groups":1,"activation":"linear","use_bias":false,"kernel_initializer":{"class_name":"GlorotUniform","config":{"seed":null}},"bias_initializer":{"class_name":"Zeros","config":{}},"kernel_regularizer":null,"bias_regularizer":null,"activity_regularizer":null,"kernel_constraint":null,"bias_constraint":null},"name":"conv2d_90","inbound_nodes":[[["activation_89",0,0,{}]]]},{"class_name":"BatchNormalization","config":{"name":"batch_normalization_90","trainable":true,"dtype":"float32","axis":3,"momentum":0.99,"epsilon":0.001,"center":true,"scale":false,"beta_initializer":{"class_name":"Zeros","config":{}},"gamma_initializer":{"class_name":"Ones","config":{}},"moving_mean_initializer":{"class_name":"Zeros","config":{}},"moving_variance_initializer":{"class_name":"Ones","config":{}},"beta_regularizer":null,"gamma_regularizer":null,"beta_constraint":null,"gamma_constraint":null},"name":"batch_normalization_90","inbound_nodes":[[["conv2d_90",0,0,{}]]]},{"class_name":"Activation","config":{"name":"activation_90","trainable":true,"dtype":"float32","activation":"relu"},"name":"activation_90","inbound_nodes":[[["batch_normalization_90",0,0,{}]]]},{"class_name":"Conv2D","config":{"name":"conv2d_88","trainable":true,"dtype":"float32","filters":192,"kernel_size":[1,1],"strides":[1,1],"padding":"same","data_format":"channels_last","dilation_rate":[1,1],"groups":1,"activation":"linear","use_bias":false,"kernel_initializer":{"class_name":"GlorotUniform","config":{"seed":null}},"bias_initializer":{"class_name":"Zeros","config":{}},"kernel_regularizer":null,"bias_regularizer":null,"activity_regularizer":null,"kernel_constraint":null,"bias_constraint":null},"name":"conv2d_88","inbound_nodes":[[["block17_3_ac",0,0,{}]]]},{"class_name":"Conv2D","config":{"name":"conv2d_91","trainable":true,"dtype":"float32","filters":192,"kernel_size":[7,1],"strides":[1,1],"padding":"same","data_format":"channels_last","dilation_rate":[1,1],"groups":1,"activation":"linear","use_bias":false,"kernel_initializer":{"class_name":"GlorotUniform","config":{"seed":null}},"bias_initializer":{"class_name":"Zeros","config":{}},"kernel_regularizer":null,"bias_regularizer":null,"activity_regularizer":null,"kernel_constraint":null,"bias_constraint":null},"name":"conv2d_91","inbound_nodes":[[["activation_90",0,0,{}]]]},{"class_name":"BatchNormalization","config":{"name":"batch_normalization_88","trainable":true,"dtype":"float32","axis":3,"momentum":0.99,"epsilon":0.001,"center":true,"scale":false,"beta_initializer":{"class_name":"Zeros","config":{}},"gamma_initializer":{"class_name":"Ones","config":{}},"moving_mean_initializer":{"class_name":"Zeros","config":{}},"moving_variance_initializer":{"class_name":"Ones","config":{}},"beta_regularizer":null,"gamma_regularizer":null,"beta_constraint":null,"gamma_constraint":null},"name":"batch_normalization_88","inbound_nodes":[[["conv2d_88",0,0,{}]]]},{"class_name":"BatchNormalization","config":{"name":"batch_normalization_91","trainable":true,"dtype":"float32","axis":3,"momentum":0.99,"epsilon":0.001,"center":true,"scale":false,"beta_initializer":{"class_name":"Zeros","config":{}},"gamma_initializer":{"class_name":"Ones","config":{}},"moving_mean_initializer":{"class_name":"Zeros","config":{}},"moving_variance_initializer":{"class_name":"Ones","config":{}},"beta_regularizer":null,"gamma_regularizer":null,"beta_constraint":null,"gamma_constraint":null},"name":"batch_normalization_91","inbound_nodes":[[["conv2d_91",0,0,{}]]]},{"class_name":"Activation","config":{"name":"activation_88","trainable":true,"dtype":"float32","activation":"relu"},"name":"activation_88","inbound_nodes":[[["batch_normalization_88",0,0,{}]]]},{"class_name":"Activation","config":{"name":"activation_91","trainable":true,"dtype":"float32","activation":"relu"},"name":"activation_91","inbound_nodes":[[["batch_normalization_91",0,0,{}]]]},{"class_name":"Concatenate","config":{"name":"block17_4_mixed","trainable":true,"dtype":"float32","axis":3},"name":"block17_4_mixed","inbound_nodes":[[["activation_88",0,0,{}],["activation_91",0,0,{}]]]},{"class_name":"Conv2D","config":{"name":"block17_4_conv","trainable":true,"dtype":"float32","filters":1088,"kernel_size":[1,1],"strides":[1,1],"padding":"same","data_format":"channels_last","dilation_rate":[1,1],"groups":1,"activation":"linear","use_bias":true,"kernel_initializer":{"class_name":"GlorotUniform","config":{"seed":null}},"bias_initializer":{"class_name":"Zeros","config":{}},"kernel_regularizer":null,"bias_regularizer":null,"activity_regularizer":null,"kernel_constraint":null,"bias_constraint":null},"name":"block17_4_conv","inbound_nodes":[[["block17_4_mixed",0,0,{}]]]},{"class_name":"CustomScaleLayer","config":{"name":"custom_scale_layer_13","trainable":true,"dtype":"float32","scale":0.1},"name":"custom_scale_layer_13","inbound_nodes":[[["block17_3_ac",0,0,{}],["block17_4_conv",0,0,{}]]]},{"class_name":"Activation","config":{"name":"block17_4_ac","trainable":true,"dtype":"float32","activation":"relu"},"name":"block17_4_ac","inbound_nodes":[[["custom_scale_layer_13",0,0,{}]]]},{"class_name":"Conv2D","config":{"name":"conv2d_93","trainable":true,"dtype":"float32","filters":128,"kernel_size":[1,1],"strides":[1,1],"padding":"same","data_format":"channels_last","dilation_rate":[1,1],"groups":1,"activation":"linear","use_bias":false,"kernel_initializer":{"class_name":"GlorotUniform","config":{"seed":null}},"bias_initializer":{"class_name":"Zeros","config":{}},"kernel_regularizer":null,"bias_regularizer":null,"activity_regularizer":null,"kernel_constraint":null,"bias_constraint":null},"name":"conv2d_93","inbound_nodes":[[["block17_4_ac",0,0,{}]]]},{"class_name":"BatchNormalization","config":{"name":"batch_normalization_93","trainable":true,"dtype":"float32","axis":3,"momentum":0.99,"epsilon":0.001,"center":true,"scale":false,"beta_initializer":{"class_name":"Zeros","config":{}},"gamma_initializer":{"class_name":"Ones","config":{}},"moving_mean_initializer":{"class_name":"Zeros","config":{}},"moving_variance_initializer":{"class_name":"Ones","config":{}},"beta_regularizer":null,"gamma_regularizer":null,"beta_constraint":null,"gamma_constraint":null},"name":"batch_normalization_93","inbound_nodes":[[["conv2d_93",0,0,{}]]]},{"class_name":"Activation","config":{"name":"activation_93","trainable":true,"dtype":"float32","activation":"relu"},"name":"activation_93","inbound_nodes":[[["batch_normalization_93",0,0,{}]]]},{"class_name":"Conv2D","config":{"name":"conv2d_94","trainable":true,"dtype":"float32","filters":160,"kernel_size":[1,7],"strides":[1,1],"padding":"same","data_format":"channels_last","dilation_rate":[1,1],"groups":1,"activation":"linear","use_bias":false,"kernel_initializer":{"class_name":"GlorotUniform","config":{"seed":null}},"bias_initializer":{"class_name":"Zeros","config":{}},"kernel_regularizer":null,"bias_regularizer":null,"activity_regularizer":null,"kernel_constraint":null,"bias_constraint":null},"name":"conv2d_94","inbound_nodes":[[["activation_93",0,0,{}]]]},{"class_name":"BatchNormalization","config":{"name":"batch_normalization_94","trainable":true,"dtype":"float32","axis":3,"momentum":0.99,"epsilon":0.001,"center":true,"scale":false,"beta_initializer":{"class_name":"Zeros","config":{}},"gamma_initializer":{"class_name":"Ones","config":{}},"moving_mean_initializer":{"class_name":"Zeros","config":{}},"moving_variance_initializer":{"class_name":"Ones","config":{}},"beta_regularizer":null,"gamma_regularizer":null,"beta_constraint":null,"gamma_constraint":null},"name":"batch_normalization_94","inbound_nodes":[[["conv2d_94",0,0,{}]]]},{"class_name":"Activation","config":{"name":"activation_94","trainable":true,"dtype":"float32","activation":"relu"},"name":"activation_94","inbound_nodes":[[["batch_normalization_94",0,0,{}]]]},{"class_name":"Conv2D","config":{"name":"conv2d_92","trainable":true,"dtype":"float32","filters":192,"kernel_size":[1,1],"strides":[1,1],"padding":"same","data_format":"channels_last","dilation_rate":[1,1],"groups":1,"activation":"linear","use_bias":false,"kernel_initializer":{"class_name":"GlorotUniform","config":{"seed":null}},"bias_initializer":{"class_name":"Zeros","config":{}},"kernel_regularizer":null,"bias_regularizer":null,"activity_regularizer":null,"kernel_constraint":null,"bias_constraint":null},"name":"conv2d_92","inbound_nodes":[[["block17_4_ac",0,0,{}]]]},{"class_name":"Conv2D","config":{"name":"conv2d_95","trainable":true,"dtype":"float32","filters":192,"kernel_size":[7,1],"strides":[1,1],"padding":"same","data_format":"channels_last","dilation_rate":[1,1],"groups":1,"activation":"linear","use_bias":false,"kernel_initializer":{"class_name":"GlorotUniform","config":{"seed":null}},"bias_initializer":{"class_name":"Zeros","config":{}},"kernel_regularizer":null,"bias_regularizer":null,"activity_regularizer":null,"kernel_constraint":null,"bias_constraint":null},"name":"conv2d_95","inbound_nodes":[[["activation_94",0,0,{}]]]},{"class_name":"BatchNormalization","config":{"name":"batch_normalization_92","trainable":true,"dtype":"float32","axis":3,"momentum":0.99,"epsilon":0.001,"center":true,"scale":false,"beta_initializer":{"class_name":"Zeros","config":{}},"gamma_initializer":{"class_name":"Ones","config":{}},"moving_mean_initializer":{"class_name":"Zeros","config":{}},"moving_variance_initializer":{"class_name":"Ones","config":{}},"beta_regularizer":null,"gamma_regularizer":null,"beta_constraint":null,"gamma_constraint":null},"name":"batch_normalization_92","inbound_nodes":[[["conv2d_92",0,0,{}]]]},{"class_name":"BatchNormalization","config":{"name":"batch_normalization_95","trainable":true,"dtype":"float32","axis":3,"momentum":0.99,"epsilon":0.001,"center":true,"scale":false,"beta_initializer":{"class_name":"Zeros","config":{}},"gamma_initializer":{"class_name":"Ones","config":{}},"moving_mean_initializer":{"class_name":"Zeros","config":{}},"moving_variance_initializer":{"class_name":"Ones","config":{}},"beta_regularizer":null,"gamma_regularizer":null,"beta_constraint":null,"gamma_constraint":null},"name":"batch_normalization_95","inbound_nodes":[[["conv2d_95",0,0,{}]]]},{"class_name":"Activation","config":{"name":"activation_92","trainable":true,"dtype":"float32","activation":"relu"},"name":"activation_92","inbound_nodes":[[["batch_normalization_92",0,0,{}]]]},{"class_name":"Activation","config":{"name":"activation_95","trainable":true,"dtype":"float32","activation":"relu"},"name":"activation_95","inbound_nodes":[[["batch_normalization_95",0,0,{}]]]},{"class_name":"Concatenate","config":{"name":"block17_5_mixed","trainable":true,"dtype":"float32","axis":3},"name":"block17_5_mixed","inbound_nodes":[[["activation_92",0,0,{}],["activation_95",0,0,{}]]]},{"class_name":"Conv2D","config":{"name":"block17_5_conv","trainable":true,"dtype":"float32","filters":1088,"kernel_size":[1,1],"strides":[1,1],"padding":"same","data_format":"channels_last","dilation_rate":[1,1],"groups":1,"activation":"linear","use_bias":true,"kernel_initializer":{"class_name":"GlorotUniform","config":{"seed":null}},"bias_initializer":{"class_name":"Zeros","config":{}},"kernel_regularizer":null,"bias_regularizer":null,"activity_regularizer":null,"kernel_constraint":null,"bias_constraint":null},"name":"block17_5_conv","inbound_nodes":[[["block17_5_mixed",0,0,{}]]]},{"class_name":"CustomScaleLayer","config":{"name":"custom_scale_layer_14","trainable":true,"dtype":"float32","scale":0.1},"name":"custom_scale_layer_14"…
4484253,"dtype":"uint8"}},{"name":"batch_normalization_137/beta:0","shape":[128],"dtype":"float32","quantization":{"min":-1.9318664073944092,"max":0.2936882972717285,"dtype":"uint8"}},{"name":"batch_normalization_137/moving_mean:0","shape":[128],"dtype":"float32","quantization":{"min":-0.40065819025039673,"max":0.24174891412258148,"dtype":"uint8"}},{"name":"batch_normalization_137/moving_variance:0","shape":[128],"dtype":"float32","quantization":{"min":0.005124686751514673,"max":0.07505257427692413,"dtype":"uint8"}},{"name":"conv2d_138/kernel:0","shape":[1,7,128,160],"dtype":"float32","quantization":{"min":-0.26374322175979614,"max":0.420646995306015,"dtype":"uint8"}},{"name":"batch_normalization_138/beta:0","shape":[160],"dtype":"float32","quantization":{"min":-1.7049839496612549,"max":0.2563289999961853,"dtype":"uint8"}},{"name":"batch_normalization_138/moving_mean:0","shape":[160],"dtype":"float32","quantization":{"min":-0.5960583686828613,"max":0.594342827796936,"dtype":"uint8"}},{"name":"batch_normalization_138/moving_variance:0","shape":[160],"dtype":"float32","quantization":{"min":0.030751589685678482,"max":0.453554630279541,"dtype":"uint8"}},{"name":"conv2d_136/kernel:0","shape":[1,1,1088,192],"dtype":"float32","quantization":{"min":-0.1555718332529068,"max":0.28306394815444946,"dtype":"uint8"}},{"name":"conv2d_139/kernel:0","shape":[7,1,160,192],"dtype":"float32","quantization":{"min":-0.18164537847042084,"max":0.30859002470970154,"dtype":"uint8"}},{"name":"batch_normalization_136/beta:0","shape":[192],"dtype":"float32","quantization":{"min":-1.4427746534347534,"max":-0.039002783596515656,"dtype":"uint8"}},{"name":"batch_normalization_136/moving_mean:0","shape":[192],"dtype":"float32","quantization":{"min":-0.3163723349571228,"max":0.27400463819503784,"dtype":"uint8"}},{"name":"batch_normalization_136/moving_variance:0","shape":[192],"dtype":"float32","quantization":{"min":0.0026528085581958294,"max":0.02312246523797512,"dtype":"uint8"}},{"name":"batch_normalization_139/beta:0","shape":[192],"dtype":"float32","quantization":{"min":-1.2218856811523438,"max":0.09077037870883942,"dtype":"uint8"}},{"name":"batch_normalization_139/moving_mean:0","shape":[192],"dtype":"float32","quantization":{"min":-0.874432384967804,"max":1.0257128477096558,"dtype":"uint8"}},{"name":"batch_normalization_139/moving_variance:0","shape":[192],"dtype":"float32","quantization":{"min":0.08620001375675201,"max":0.7746062278747559,"dtype":"uint8"}},{"name":"block17_16_conv/kernel:0","shape":[1,1,384,1088],"dtype":"float32","quantization":{"min":-0.37795132398605347,"max":0.4124041795730591,"dtype":"uint8"}},{"name":"block17_16_conv/bias:0","shape":[1088],"dtype":"float32","quantization":{"min":-1.4070945978164673,"max":0.7793247103691101,"dtype":"uint8"}},{"name":"conv2d_141/kernel:0","shape":[1,1,1088,128],"dtype":"float32","quantization":{"min":-0.4369316101074219,"max":0.4355041980743408,"dtype":"uint8"}},{"name":"batch_normalization_141/beta:0","shape":[128],"dtype":"float32","quantization":{"min":-2.0068271160125732,"max":0.4389614164829254,"dtype":"uint8"}},{"name":"batch_normalization_141/moving_mean:0","shape":[128],"dtype":"float32","quantization":{"min":-0.2764269709587097,"max":0.3966732621192932,"dtype":"uint8"}},{"name":"batch_normalization_141/moving_variance:0","shape":[128],"dtype":"float32","quantization":{"min":0.004813922569155693,"max":0.11129318922758102,"dtype":"uint8"}},{"name":"conv2d_142/kernel:0","shape":[1,7,128,160],"dtype":"float32","quantization":{"min":-0.23762246966362,"max":0.43869224190711975,"dtype":"uint8"}},{"name":"batch_normalization_142/beta:0","shape":[160],"dtype":"float32","quantization":{"min":-1.7753267288208008,"max":0.6060256361961365,"dtype":"uint8"}},{"name":"batch_normalization_142/moving_mean:0","shape":[160],"dtype":"float32","quantization":{"min":-0.9068983793258667,"max":0.6225260496139526,"dtype":"uint8"}},{"name":"batch_normalization_142/moving_variance:0","shape":[160],"dtype":"float32","quantization":{"min":0.024480735883116722,"max":0.45460352301597595,"dtype":"uint8"}},{"name":"conv2d_140/kernel:0","shape":[1,1,1088,192],"dtype":"float32","quantization":{"min":-0.13640280067920685,"max":0.2340676337480545,"dtype":"uint8"}},{"name":"conv2d_143/kernel:0","shape":[7,1,160,192],"dtype":"float32","quantization":{"min":-0.22495028376579285,"max":0.44489380717277527,"dtype":"uint8"}},{"name":"batch_normalization_140/beta:0","shape":[192],"dtype":"float32","quantization":{"min":-1.5134015083312988,"max":-0.1998751163482666,"dtype":"uint8"}},{"name":"batch_normalization_140/moving_mean:0","shape":[192],"dtype":"float32","quantization":{"min":-0.28289327025413513,"max":0.16016583144664764,"dtype":"uint8"}},{"name":"batch_normalization_140/moving_variance:0","shape":[192],"dtype":"float32","quantization":{"min":0.0030170411337167025,"max":0.011729185469448566,"dtype":"uint8"}},{"name":"batch_normalization_143/beta:0","shape":[192],"dtype":"float32","quantization":{"min":-1.158744215965271,"max":-0.0980760008096695,"dtype":"uint8"}},{"name":"batch_normalization_143/moving_mean:0","shape":[192],"dtype":"float32","quantization":{"min":-1.1697005033493042,"max":0.671002209186554,"dtype":"uint8"}},{"name":"batch_normalization_143/moving_variance:0","shape":[192],"dtype":"float32","quantization":{"min":0.09607349336147308,"max":0.7865620255470276,"dtype":"uint8"}},{"name":"block17_17_conv/kernel:0","shape":[1,1,384,1088],"dtype":"float32","quantization":{"min":-0.3951059579849243,"max":0.4020563066005707,"dtype":"uint8"}},{"name":"block17_17_conv/bias:0","shape":[1088],"dtype":"float32","quantization":{"min":-1.1596232652664185,"max":0.8131825923919678,"dtype":"uint8"}},{"name":"conv2d_145/kernel:0","shape":[1,1,1088,128],"dtype":"float32","quantization":{"min":-0.46880778670310974,"max":0.456016480922699,"dtype":"uint8"}},{"name":"batch_normalization_145/beta:0","shape":[128],"dtype":"float32","quantization":{"min":-2.2883143424987793,"max":0.38312575221061707,"dtype":"uint8"}},{"name":"batch_normalization_145/moving_mean:0","shape":[128],"dtype":"float32","quantization":{"min":-0.2841220200061798,"max":0.5300751328468323,"dtype":"uint8"}},{"name":"batch_normalization_145/moving_variance:0","shape":[128],"dtype":"float32","quantization":{"min":0.004362958017736673,"max":0.13176590204238892,"dtype":"uint8"}},{"name":"conv2d_146/kernel:0","shape":[1,7,128,160],"dtype":"float32","quantization":{"min":-0.23137354850769043,"max":0.7265471816062927,"dtype":"uint8"}},{"name":"batch_normalization_146/beta:0","shape":[160],"dtype":"float32","quantization":{"min":-1.9177021980285645,"max":1.4179030656814575,"dtype":"uint8"}},{"name":"batch_normalization_146/moving_mean:0","shape":[160],"dtype":"float32","quantization":{"min":-0.7399123907089233,"max":0.9861651659011841,"dtype":"uint8"}},{"name":"batch_normalization_146/moving_variance:0","shape":[160],"dtype":"float32","quantization":{"min":0.04402206093072891,"max":1.0222053527832031,"dtype":"uint8"}},{"name":"conv2d_144/kernel:0","shape":[1,1,1088,192],"dtype":"float32","quantization":{"min":-0.17783109843730927,"max":0.32013610005378723,"dtype":"uint8"}},{"name":"conv2d_147/kernel:0","shape":[7,1,160,192],"dtype":"float32","quantization":{"min":-0.36332499980926514,"max":0.40073877573013306,"dtype":"uint8"}},{"name":"batch_normalization_144/beta:0","shape":[192],"dtype":"float32","quantization":{"min":-1.479826807975769,"max":0.07314218580722809,"dtype":"uint8"}},{"name":"batch_normalization_144/moving_mean:0","shape":[192],"dtype":"float32","quantization":{"min":-0.2903616428375244,"max":0.41560792922973633,"dtype":"uint8"}},{"name":"batch_normalization_144/moving_variance:0","shape":[192],"dtype":"float32","quantization":{"min":0.002953061368316412,"max":0.02366555668413639,"dtype":"uint8"}},{"name":"batch_normalization_147/beta:0","shape":[192],"dtype":"float32","quantization":{"min":-1.202654242515564,"max":0.5888126492500305,"dtype":"uint8"}},{"name":"batch_normalization_147/moving_mean:0","shape":[192],"dtype":"float32","quantization":{"min":-2.4275810718536377,"max":1.329770803451538,"dtype":"uint8"}},{"name":"batch_normalization_147/moving_variance:0","shape":[192],"dtype":"float32","quantization":{"min":0.1054074615240097,"max":1.302085280418396,"dtype":"uint8"}},{"name":"block17_18_conv/kernel:0","shape":[1,1,384,1088],"dtype":"float32","quantization":{"min":-0.4562820494174957,"max":0.4162355959415436,"dtype":"uint8"}},{"name":"block17_18_conv/bias:0","shape":[1088],"dtype":"float32","quantization":{"min":-2.3835928440093994,"max":0.682450532913208,"dtype":"uint8"}},{"name":"conv2d_149/kernel:0","shape":[1,1,1088,128],"dtype":"float32","quantization":{"min":-0.1957848072052002,"max":0.43082869052886963,"dtype":"uint8"}},{"name":"batch_normalization_149/beta:0","shape":[128],"dtype":"float32","quantization":{"min":-1.956362009048462,"max":-0.2168816477060318,"dtype":"uint8"}},{"name":"batch_normalization_149/moving_mean:0","shape":[128],"dtype":"float32","quantization":{"min":-0.30102360248565674,"max":0.09391319006681442,"dtype":"uint8"}},{"name":"batch_normalization_149/moving_variance:0","shape":[128],"dtype":"float32","quantization":{"min":0.005427185446023941,"max":0.01982811652123928,"dtype":"uint8"}},{"name":"conv2d_150/kernel:0","shape":[1,7,128,160],"dtype":"float32","quantization":{"min":-0.14654169976711273,"max":0.3525535762310028,"dtype":"uint8"}},{"name":"batch_normalization_150/beta:0","shape":[160],"dtype":"float32","quantization":{"min":-1.7653321027755737,"max":0.2269357442855835,"dtype":"uint8"}},{"name":"batch_normalization_150/moving_mean:0","shape":[160],"dtype":"float32","quantization":{"min":-0.2007983922958374,"max":0.2621263563632965,"dtype":"uint8"}},{"name":"batch_normalization_150/moving_variance:0","shape":[160],"dtype":"float32","quantization":{"min":0.029982225969433784,"max":0.17868393659591675,"dtype":"uint8"}},{"name":"conv2d_148/kernel:0","shape":[1,1,1088,192],"dtype":"float32","quantization":{"min":-0.15375018119812012,"max":0.3238575756549835,"dtype":"uint8"}},{"name":"conv2d_151/kernel:0","shape":[7,1,160,192],"dtype":"float32","quantization":{"min":-0.1111125722527504,"max":0.30999425053596497,"dtype":"uint8"}},{"name":"batch_normalization_148/beta:0","shape":[192],"dtype":"float32","quantization":{"min":-1.9360628128051758,"max":0.025666143745183945,"dtype":"uint8"}},{"name":"batch_normalization_148/moving_mean:0","shape":[192],"dtype":"float32","quantization":{"min":-0.3538646101951599,"max":0.573143482208252,"dtype":"uint8"}},{"name":"batch_normalization_148/moving_variance:0","shape":[192],"dtype":"float32","quantization":{"min":0.0022540970239788294,"max":0.027544135227799416,"dtype":"uint8"}},{"name":"batch_normalization_151/beta:0","shape":[192],"dtype":"float32","quantization":{"min":-1.2225216627120972,"max":-0.1700824648141861,"dtype":"uint8"}},{"name":"batch_normalization_151/moving_mean:0","shape":[192],"dtype":"float32","quantization":{"min":-1.0301790237426758,"max":0.6330984830856323,"dtype":"uint8"}},{"name":"batch_normalization_151/moving_variance:0","shape":[192],"dtype":"float32","quantization":{"min":0.15364283323287964,"max":0.5925959348678589,"dtype":"uint8"}},{"name":"block17_19_conv/kernel:0","shape":[1,1,384,1088],"dtype":"float32","quantization":{"min":-0.34785887598991394,"max":0.38822853565216064,"dtype":"uint8"}},{"name":"block17_19_conv/bias:0","shape":[1088],"dtype":"float32","quantization":{"min":-0.8833999633789062,"max":0.8377550840377808,"dtype":"uint8"}},{"name":"conv2d_153/kernel:0","shape":[1,1,1088,128],"dtype":"float32","quantization":{"min":-0.4262719750404358,"max":0.4165332019329071,"dtype":"uint8"}},{"name":"batch_normalization_153/beta:0","shape":[128],"dtype":"float32","quantization":{"min":-2.1228339672088623,"max":0.2831326723098755,"dtype":"uint8"}},{"name":"batch_normalization_153/moving_mean:0","shape":[128],"dtype":"float32","quantization":{"min":-0.3217044770717621,"max":0.43767639994621277,"dtype":"uint8"}},{"name":"batch_normalization_153/moving_variance:0","shape":[128],"dtype":"float32","quantization":{"min":0.004458364099264145,"max":0.0619574710726738,"dtype":"uint8"}},{"name":"conv2d_154/kernel:0","shape":[1,7,128,160],"dtype":"float32","quantization":{"min":-0.2379586398601532,"max":0.5975778102874756,"dtype":"uint8"}},{"name":"batch_normalization_154/beta:0","shape":[160],"dtype":"float32","quantization":{"min":-1.4274358749389648,"max":0.6332932710647583,"dtype":"uint8"}},{"name":"batch_normalization_154/moving_mean:0","shape":[160],"dtype":"float32","quantization":{"min":-0.2606261968612671,"max":0.45732125639915466,"dtype":"uint8"}},{"name":"batch_normalization_154/moving_variance:0","shape":[160],"dtype":"float32","quantization":{"min":0.028801681473851204,"max":0.269070029258728,"dtype":"uint8"}},{"name":"conv2d_152/kernel:0","shape":[1,1,1088,192],"dtype":"float32","quantization":{"min":-0.1907743662595749,"max":0.402419775724411,"dtype":"uint8"}},{"name":"conv2d_155/kernel:0","shape":[7,1,160,192],"dtype":"float32","quantization":{"min":-0.17675742506980896,"max":0.4767228960990906,"dtype":"uint8"}},{"name":"batch_normalization_152/beta:0","shape":[192],"dtype":"float32","quantization":{"min":-1.4877588748931885,"max":0.35999366641044617,"dtype":"uint8"}},{"name":"batch_normalization_152/moving_mean:0","shape":[192],"dtype":"float32","quantization":{"min":-0.3889116942882538,"max":0.2375461906194687,"dtype":"uint8"}},{"name":"batch_normalization_152/moving_variance:0","shape":[192],"dtype":"float32","quantization":{"min":0.0018659090856090188,"max":0.016061050817370415,"dtype":"uint8"}},{"name":"batch_normalization_155/beta:0","shape":[192],"dtype":"float32","quantization":{"min":-0.7969709634780884,"max":0.17961905896663666,"dtype":"uint8"}},{"name":"batch_normalization_155/moving_mean:0","shape":[192],"dtype":"float32","quantization":{"min":-0.8301212191581726,"max":1.5704450607299805,"dtype":"uint8"}},{"name":"batch_normalization_155/moving_variance:0","shape":[192],"dtype":"float32","quantization":{"min":0.11451417952775955,"max":0.8447555899620056,"dtype":"uint8"}},{"name":"block17_20_conv/kernel:0","shape":[1,1,384,1088],"dtype":"float32","quantization":{"min":-0.4384547472000122,"max":0.46227380633354187,"dtype":"uint8"}},{"name":"block17_20_conv/bias:0","shape":[1088],"dtype":"float32","quantization":{"min":-3.198301076889038,"max":0.83537358045578,"dtype":"uint8"}},{"name":"conv2d_160/kernel:0","shape":[1,1,1088,256],"dtype":"float32","quantization":{"min":-0.1915804147720337,"max":0.2967800199985504,"dtype":"uint8"}},{"name":"batch_normalization_160/beta:0","shape":[256],"dtype":"float32","quantization":{"min":-1.631799340248108,"max":0.22733695805072784,"dtype":"uint8"}},{"name":"batch_normalization_160/moving_mean:0","shape":[256],"dtype":"float32","quantization":{"min":-0.20275425910949707,"max":0.05455605313181877,"dtype":"uint8"}},{"name":"batch_normalization_160/moving_variance:0","shape":[256],"dtype":"float32","quantization":{"min":0.001587447477504611,"max":0.0411846823990345,"dtype":"uint8"}},{"name":"conv2d_156/kernel:0","shape":[1,1,1088,256],"dtype":"float32","quantization":{"min":-0.12272987514734268,"max":0.3329610824584961,"dtype":"uint8"}},{"name":"conv2d_158/kernel:0","shape":[1,1,1088,256],"dtype":"float32","quantization":{"min":-0.1170775443315506,"max":0.3024783730506897,"dtype":"uint8"}},{"name":"conv2d_161/kernel:0","shape":[3,3,256,288],"dtype":"float32","quantization":{"min":-0.060108404606580734,"max":0.14012978971004486,"dtype":"uint8"}},{"name":"batch_normalization_156/beta:0","shape":[256],"dtype":"float32","quantization":{"min":-1.1843256950378418,"max":0.26878514885902405,"dtype":"uint8"}},{"name":"batch_normalization_156/moving_mean:0","shape":[256],"dtype":"float32","quantization":{"min":-0.26934897899627686,"max":0.36209648847579956,"dtype":"uint8"}},{"name":"batch_normalization_156/moving_variance:0","shape":[256],"dtype":"float32","quantization":{"min":0.0020758090540766716,"max":0.08986984938383102,"dtype":"uint8"}},{"name":"batch_normalization_158/beta:0","shape":[256],"dtype":"float32","quantization":{"min":-1.1972168684005737,"max":0.15280142426490784,"dtype":"uint8"}},{"name":"batch_normalization_158/moving_mean:0","shape":[256],"dtype":"float32","quantization":{"min":-0.22578933835029602,"max":0.2215801477432251,"dtype":"uint8"}},{"name":"batch_normalization_158/moving_variance:0","shape":[256],"dtype":"float32","quantization":{"min":0.0017252519028261304,"max":0.06254132837057114,"dtype":"uint8"}},{"name":"batch_normalization_161/beta:0","shape":[288],"dtype":"float32","quantization":{"min":-1.029106616973877,"max":0.40290337800979614,"dtype":"uint8"}},{"name":"batch_normalization_161/moving_mean:0","shape":[288],"dtype":"float32","quantization":{"min":-0.5846643447875977,"max":0.701514482498169,"dtype":"uint8"}},{"name":"batch_normalization_161/moving_variance:0","shape":[288],"dtype":"float32","quantization":{"min":0.04919853061437607,"max":0.378802627325058,"dtype":"uint8"}},{"name":"conv2d_157/kernel:0","shape":[3,3,256,384],"dtype":"float32","quantization":{"min":-0.12849679589271545,"max":0.09946996718645096,"dtype":"uint8"}},{"name":"conv2d_159/kernel:0","shape":[3,3,256,288],"dtype":"float32","quantization":{"min":-0.12552279233932495,"max":0.11946927756071091,"dtype":"uint8"}},{"name":"conv2d_162/kernel:0","shape":[3,3,288,320],"dtype":"float32","quantization":{"min":-0.06783084571361542,"max":0.09268064051866531,"dtype":"uint8"}},{"name":"batch_normalization_157/beta:0","shape":[384],"dtype":"float32","quantization":{"min":-2.0583441257476807,"max":-0.605889081954956,"dtype":"uint8"}},{"name":"batch_normalization_157/moving_mean:0","shape":[384],"dtype":"float32","quantization":{"min":-2.294163942337036,"max":-0.25649163126945496,"dtype":"uint8"}},{"name":"batch_normalization_157/moving_variance:0","shape":[384],"dtype":"float32","quantization":{"min":0.1898757964372635,"max":1.4404178857803345,"dtype":"uint8"}},{"name":"batch_normalization_159/beta:0","shape":[288],"dtype":"float32","quantization":{"min":-2.455396890640259,"max":-1.0617294311523438,"dtype":"uint8"}},{"name":"batch_normalization_159/moving_mean:0","shape":[288],"dtype":"float32","quantization":{"min":-2.015132188796997,"max":-0.08249489217996597,"dtype":"uint8"}},{"name":"batch_normalization_159/moving_variance:0","shape":[288],"dtype":"float32","quantization":{"min":0.16822880506515503,"max":1.6287925243377686,"dtype":"uint8"}},{"name":"batch_normalization_162/beta:0","shape":[320],"dtype":"float32","quantization":{"min":-1.8886526823043823,"max":-0.8087148070335388,"dtype":"uint8"}},{"name":"batch_normalization_162/moving_mean:0","shape":[320],"dtype":"float32","quantization":{"min":-3.445549488067627,"max":-0.04536972939968109,"dtype":"uint8"}},{"name":"batch_normalization_162/moving_variance:0","shape":[320],"dtype":"float32","quantization":{"min":0.0013100940268486738,"max":8.657305717468262,"dtype":"uint8"}},{"name":"conv2d_164/kernel:0","shape":[1,1,2080,192],"dtype":"float32","quantization":{"min":-0.15434050559997559,"max":0.25924792885780334,"dtype":"uint8"}},{"name":"batch_normalization_164/beta:0","shape":[192],"dtype":"float32","quantization":{"min":-1.2529513835906982,"max":0.5510673522949219,"dtype":"uint8"}},{"name":"batch_normalization_164/moving_mean:0","shape":[192],"dtype":"float32","quantization":{"min":-0.233944833278656,"max":0.27769210934638977,"dtype":"uint8"}},{"name":"batch_normalization_164/moving_variance:0","shape":[192],"dtype":"float32","quantization":{"min":0.003658692818135023,"max":0.05302736535668373,"dtype":"uint8"}},{"name":"conv2d_165/kernel:0","shape":[1,3,192,224],"dtype":"float32","quantization":{"min":-0.18981555104255676,"max":0.3173143267631531,"dtype":"uint8"}},{"name":"batch_normalization_165/beta:0","shape":[224],"dtype":"float32","quantization":{"min":-0.7682551741600037,"max":1.2154189348220825,"dtype":"uint8"}},{"name":"batch_normalization_165/moving_mean:0","shape":[224],"dtype":"float32","quantization":{"min":-0.5175812840461731,"max":0.429782897233963,"dtype":"uint8"}},{"name":"batch_normalization_165/moving_variance:0","shape":[224],"dtype":"float32","quantization":{"min":0.015393614768981934,"max":0.1700688898563385,"dtype":"uint8"}},{"name":"conv2d_163/kernel:0","shape":[1,1,2080,192],"dtype":"float32","quantization":{"min":-0.10743076354265213,"max":0.19343167543411255,"dtype":"uint8"}},{"name":"conv2d_166/kernel:0","shape":[3,1,224,256],"dtype":"float32","quantization":{"min":-0.19293494522571564,"max":0.23407140374183655,"dtype":"uint8"}},{"name":"batch_normalization_163/beta:0","shape":[192],"dtype":"float32","quantization":{"min":-1.4105979204177856,"max":-0.032080963253974915,"dtype":"uint8"}},{"name":"batch_normalization_163/moving_mean:0","shape":[192],"dtype":"float32","quantization":{"min":-0.5026240348815918,"max":0.6269925832748413,"dtype":"uint8"}},{"name":"batch_normalization_163/moving_variance:0","shape":[192],"dtype":"float32","quantization":{"min":0.003688984317705035,"max":0.03434225171804428,"dtype":"uint8"}},{"name":"batch_normalization_166/beta:0","shape":[256],"dtype":"float32","quantization":{"min":-1.5180155038833618,"max":-0.3262469470500946,"dtype":"uint8"}},{"name":"batch_normalization_166/moving_mean:0","shape":[256],"dtype":"float32","quantization":{"min":-0.9552590250968933,"max":0.653404951095581,"dtype":"uint8"}},{"name":"batch_normalization_166/moving_variance:0","shape":[256],"dtype":"float32","quantization":{"min":0.04432346299290657,"max":0.38870149850845337,"dtype":"uint8"}},{"name":"block8_1_conv/kernel:0","shape":[1,1,448,2080],"dtype":"float32","quantization":{"min":-0.1793106496334076,"max":0.20707111060619354,"dtype":"uint8"}},{"name":"block8_1_conv/bias:0","shape":[2080],"dtype":"float32","quantization":{"min":-0.8058528304100037,"max":0.6593282222747803,"dtype":"uint8"}},{"name":"conv2d_168/kernel:0","shape":[1,1,2080,192],"dtype":"float32","quantization":{"min":-0.25845563411712646,"max":0.2810160517692566,"dtype":"uint8"}},{"name":"batch_normalization_168/beta:0","shape":[192],"dtype":"float32","quantization":{"min":-1.3113652467727661,"max":1.0791550874710083,"dtype":"uint8"}},{"name":"batch_normalization_168/moving_mean:0","shape":[192],"dtype":"float32","quantization":{"min":-0.4307456612586975,"max":0.3423529267311096,"dtype":"uint8"}},{"name":"batch_normalization_168/moving_variance:0","shape":[192],"dtype":"float32","quantization":{"min":0.003773732576519251,"max":0.0883418545126915,"dtype":"uint8"}},{"name":"conv2d_169/kernel:0","shape":[1,3,192,224],"dtype":"float32","quantization":{"min":-0.15725761651992798,"max":0.22221583127975464,"dtype":"uint8"}},{"name":"batch_normalization_169/beta:0","shape":[224],"dtype":"float32","quantization":{"min":-0.9347079992294312,"max":0.7495200634002686,"dtype":"uint8"}},{"name":"batch_normalization_169/moving_mean:0","shape":[224],"dtype":"float32","quantization":{"min":-0.3778609037399292,"max":0.3024348020553589,"dtype":"uint8"}},{"name":"batch_normalization_169/moving_variance:0","shape":[224],"dtype":"float32","quantization":{"min":0.012094772420823574,"max":0.1652287244796753,"dtype":"uint8"}},{"name":"conv2d_167/kernel:0","shape":[1,1,2080,192],"dtype":"float32","quantization":{"min":-0.10985912382602692,"max":0.1677979677915573,"dtype":"uint8"}},{"name":"conv2d_170/kernel:0","shape":[3,1,224,256],"dtype":"float32","quantization":{"min":-0.1659744828939438,"max":0.19354073703289032,"dtype":"uint8"}},{"name":"batch_normalization_167/beta:0","shape":[192],"dtype":"float32","quantization":{"min":-1.3996580839157104,"max":-0.7141525745391846,"dtype":"uint8"}},{"name":"batch_normalization_167/moving_mean:0","shape":[192],"dtype":"float32","quantization":{"min":-0.3976851999759674,"max":0.16095489263534546,"dtype":"uint8"}},{"name":"batch_normalization_167/moving_variance:0","shape":[192],"dtype":"float32","quantization":{"min":0.0035364250652492046,"max":0.014301144517958164,"dtype":"uint8"}},{"name":"batch_normalization_170/beta:0","shape":[256],"dtype":"float32","quantization":{"min":-1.4426195621490479,"max":-4.3936724978266284e-05,"dtype":"uint8"}},{"name":"batch_normalization_170/moving_mean:0","shape":[256],"dtype":"float32","quantization":{"min":-0.7035096883773804,"max":0.49724721908569336,"dtype":"uint8"}},{"name":"batch_normalization_170/moving_variance:0","shape":[256],"dtype":"float32","quantization":{"min":0.03801080211997032,"max":1.7463964223861694,"dtype":"uint8"}},{"name":"block8_2_conv/kernel:0","shape":[1,1,448,2080],"dtype":"float32","quantization":{"min":-0.2758243680000305,"max":0.49303996562957764,"dtype":"uint8"}},{"name":"block8_2_conv/bias:0","shape":[2080],"dtype":"float32","quantization":{"min":-0.7504220604896545,"max":0.9661327600479126,"dtype":"uint8"}},{"name":"conv2d_172/kernel:0","shape":[1,1,2080,192],"dtype":"float32","quantization":{"min":-0.3972351849079132,"max":0.3200184404850006,"dtype":"uint8"}},{"name":"batch_normalization_172/beta:0","shape":[192],"dtype":"float32","quantization":{"min":-1.5389944314956665,"max":0.43170854449272156,"dtype":"uint8"}},{"name":"batch_normalization_172/moving_mean:0","shape":[192],"dtype":"float32","quantization":{"min":-0.29723548889160156,"max":0.1999616175889969,"dtype":"uint8"}},{"name":"batch_normalization_172/moving_variance:0","shape":[192],"dtype":"float32","quantization":{"min":0.005577897187322378,"max":0.03893951326608658,"dtype":"uint8"}},{"name":"conv2d_173/kernel:0","shape":[1,3,192,224],"dtype":"float32","quantization":{"min":-0.19270449876785278,"max":0.3004317879676819,"dtype":"uint8"}},{"name":"batch_normalization_173/beta:0","shape":[224],"dtype":"float32","quantization":{"min":-0.8730354905128479,"max":0.7200851440429688,"dtype":"uint8"}},{"name":"batch_normalization_173/moving_mean:0","shape":[224],"dtype":"float32","quantization":{"min":-0.2481653392314911,"max":0.15070201456546783,"dtype":"uint8"}},{"name":"batch_normalization_173/moving_variance:0","shape":[224],"dtype":"float32","quantization":{"min":0.012331017293035984,"max":0.1572432518005371,"dtype":"uint8"}},{"name":"conv2d_171/kernel:0","shape":[1,1,2080,192],"dtype":"float32","quantization":{"min":-0.16332513093948364,"max":0.1923288106918335,"dtype":"uint8"}},{"name":"conv2d_174/kernel:0","shape":[3,1,224,256],"dtype":"float32","quantization":{"min":-0.11117732524871826,"max":0.2048468291759491,"dtype":"uint8"}},{"name":"batch_normalization_171/beta:0","shape":[192],"dtype":"float32","quantization":{"min":-1.4245688915252686,"max":-0.7433109879493713,"dtype":"uint8"}},{"name":"batch_normalization_171/moving_mean:0","shape":[192],"dtype":"float32","quantization":{"min":-0.29986509680747986,"max":0.19456017017364502,"dtype":"uint8"}},{"name":"batch_normalization_171/moving_variance:0","shape":[192],"dtype":"float32","quantization":{"min":0.0035521488171070814,"max":0.021440189331769943,"dtype":"uint8"}},{"name":"batch_normalization_174/beta:0","shape":[256],"dtype":"float32","quantization":{"min":-1.3397045135498047,"max":-0.46556544303894043,"dtype":"uint8"}},{"name":"batch_normalization_174/moving_mean:0","shape":[256],"dtype":"float32","quantization":{"min":-0.7052028775215149,"max":0.5310468077659607,"dtype":"uint8"}},{"name":"batch_normalization_174/moving_variance:0","shape":[256],"dtype":"float32","quantization":{"min":0.050775185227394104,"max":0.44913092255592346,"dtype":"uint8"}},{"name":"block8_3_conv/kernel:0","shape":[1,1,448,2080],"dtype":"float32","quantization":{"min":-0.19301696121692657,"max":0.2209058254957199,"dtype":"uint8"}},{"name":"block8_3_conv/bias:0","shape":[2080],"dtype":"float32","quantization":{"min":-0.693814754486084,"max":0.35742390155792236,"dtype":"uint8"}},{"name":"conv2d_176/kernel:0","shape":[1,1,2080,192],"dtype":"float32","quantization":{"min":-0.17864125967025757,"max":0.3204997479915619,"dtype":"uint8"}},{"name":"batch_normalization_176/beta:0","shape":[192],"dtype":"float32","quantization":{"min":-1.6066607236862183,"max":-0.18346081674098969,"dtype":"uint8"}},{"name":"batch_normalization_176/moving_mean:0","shape":[192],"dtype":"float32","quantization":{"min":-0.2980445325374603,"max":0.2157464176416397,"dtype":"uint8"}},{"name":"batch_normalization_176/moving_variance:0","shape":[192],"dtype":"float32","quantization":{"min":0.006908642593771219,"max":0.032480042427778244,"dtype":"uint8"}},{"name":"conv2d_177/kernel:0","shape":[1,3,192,224],"dtype":"float32","quantization":{"min":-0.18569456040859222,"max":0.18359729647636414,"dtype":"uint8"}},{"name":"batch_normalization_177/beta:0","shape":[224],"dtype":"float32","quantization":{"min":-0.742051899433136,"max":0.6116718649864197,"dtype":"uint8"}},{"name":"batch_normalization_177/moving_mean:0","shape":[224],"dtype":"float32","quantization":{"min":-0.1760597974061966,"max":0.1446351706981659,"dtype":"uint8"}},{"name":"batch_normalization_177/moving_variance:0","shape":[224],"dtype":"float32","quantization":{"min":0.011475312523543835,"max":0.08887382596731186,"dtype":"uint8"}},{"name":"conv2d_175/kernel:0","shape":[1,1,2080,192],"dtype":"float32","quantization":{"min":-0.09072273224592209,"max":0.20090317726135254,"dtype":"uint8"}},{"name":"conv2d_178/kernel:0","shape":[3,1,224,256],"dtype":"float32","quantization":{"min":-0.09072062373161316,"max":0.2065293937921524,"dtype":"uint8"}},{"name":"batch_normalization_175/beta:0","shape":[192],"dtype":"float32","quantization":{"min":-1.3498493432998657,"max":-0.637633740901947,"dtype":"uint8"}},{"name":"batch_normalization_175/moving_mean:0","shape":[192],"dtype":"float32","quantization":{"min":-0.2467781901359558,"max":0.21484161913394928,"dtype":"uint8"}},{"name":"batch_normalization_175/moving_variance:0","shape":[192],"dtype":"float32","quantization":{"min":0.004206654615700245,"max":0.021806471049785614,"dtype":"uint8"}},{"name":"batch_normalization_178/beta:0","shape":[256],"dtype":"float32","quantization":{"min":-1.3884375095367432,"max":-0.6150017976760864,"dtype":"uint8"}},{"name":"batch_normalization_178/moving_mean:0","shape":[256],"dtype":"float32","quantization":{"min":-0.60981285572052,"max":0.864937961101532,"dtype":"uint8"}},{"name":"batch_normalization_178/moving_variance:0","shape":[256],"dtype":"float32","quantization":{"min":0.0518973283469677,"max":0.5149096846580505,"dtype":"uint8"}},{"name":"block8_4_conv/kernel:0","shape":[1,1,448,2080],"dtype":"float32","quantization":{"min":-0.174077108502388,"max":0.25941571593284607,"dtype":"uint8"}},{"name":"block8_4_conv/bias:0","shape":[2080],"dtype":"float32","quantization":{"min":-0.6038466095924377,"max":0.17165565490722656,"dtype":"uint8"}},{"name":"conv2d_180/kernel:0","shape":[1,1,2080,192],"dtype":"float32","quantization":{"min":-0.12394969910383224,"max":0.20147033035755157,"dtype":"uint8"}},{"name":"batch_normalization_180/beta:0","shape":[192],"dtype":"float32","quantization":{"min":-1.58686363697052,"max":-0.6046534776687622,"dtype":"uint8"}},{"name":"batch_normalization_180/moving_mean:0","shape":[192],"dtype":"float32","quantization":{"min":-0.2969094216823578,"max":0.10826854407787323,"dtype":"uint8"}},{"name":"batch_normalization_180/moving_variance:0","shape":[192],"dtype":"float32","quantization":{"min":0.007266499567776918,"max":0.036566365510225296,"dtype":"uint8"}},{"name":"conv2d_181/kernel:0","shape":[1,3,192,224],"dtype":"float32","quantization":{"min":-0.08822944015264511,"max":0.18278992176055908,"dtype":"uint8"}},{"name":"batch_normalization_181/beta:0","shape":[224],"dtype":"float32","quantization":{"min":-0.9876101016998291,"max":0.08215712755918503,"dtype":"uint8"}},{"name":"batch_normalization_181/moving_mean:0","shape":[224],"dtype":"float32","quantization":{"min":-0.17786681652069092,"max":0.09250558912754059,"dtype":"uint8"}},{"name":"batch_normalization_181/moving_variance:0","shape":[224],"dtype":"float32","quantization":{"min":0.006774148903787136,"max":0.07471609115600586,"dtype":"uint8"}},{"name":"conv2d_179/kernel:0","shape":[1,1,2080,192],"dtype":"float32","quantization":{"min":-0.13553884625434875,"max":0.3305946886539459,"dtype":"uint8"}},{"name":"conv2d_182/kernel:0","shape":[3,1,224,256],"dtype":"float32","quantization":{"min":-0.06918882578611374,"max":0.1394977867603302,"dtype":"uint8"}},{"name":"batch_normalization_179/beta:0","shape":[192],"dtype":"float32","quantization":{"min":-1.264472246170044,"max":-0.15238803625106812,"dtype":"uint8"}},{"name":"batch_normalization_179/moving_mean:0","shape":[192],"dtype":"float32","quantization":{"min":-0.4088989794254303,"max":0.3476686477661133,"dtype":"uint8"}},{"name":"batch_normalization_179/moving_variance:0","shape":[192],"dtype":"float32","quantization":{"min":0.003825285006314516,"max":0.0528988391160965,"dtype":"uint8"}},{"name":"batch_normalization_182/beta:0","shape":[256],"dtype":"float32","quantization":{"min":-1.284337043762207,"max":-0.6599588990211487,"dtype":"uint8"}},{"name":"batch_normalization_182/moving_mean:0","shape":[256],"dtype":"float32","quantization":{"min":-0.6380355358123779,"max":1.2782766819000244,"dtype":"uint8"}},{"name":"batch_normalization_182/moving_variance:0","shape":[256],"dtype":"float32","quantization":{"min":0.04318222403526306,"max":0.3911580741405487,"dtype":"uint8"}},{"name":"block8_5_conv/kernel:0","shape":[1,1,448,2080],"dtype":"float32","quantization":{"min":-0.4871387779712677,"max":0.22876891493797302,"dtype":"uint8"}},{"name":"block8_5_conv/bias:0","shape":[2080],"dtype":"float32","quantization":{"min":-0.5586639642715454,"max":0.1661384254693985,"dtype":"uint8"}},{"name":"conv2d_184/kernel:0","shape":[1,1,2080,192],"dtype":"float32","quantization":{"min":-0.3234640657901764,"max":0.294874370098114,"dtype":"uint8"}},{"name":"batch_normalization_184/beta:0","shape":[192],"dtype":"float32","quantization":{"min":-1.365922451019287,"max":0.3759334683418274,"dtype":"uint8"}},{"name":"batch_normalization_184/moving_mean:0","shape":[192],"dtype":"float32","quantization":{"min":-0.30515238642692566,"max":0.08433974534273148,"dtype":"uint8"}},{"name":"batch_normalization_184/moving_variance:0","shape":[192],"dtype":"float32","quantization":{"min":0.0073081376031041145,"max":0.06020763888955116,"dtype":"uint8"}},{"name":"conv2d_185/kernel:0","shape":[1,3,192,224],"dtype":"float32","quantization":{"min":-0.25352200865745544,"max":0.5314992070198059,"dtype":"uint8"}},{"name":"batch_normalization_185/beta:0","shape":[224],"dtype":"float32","quantization":{"min":-0.8136948943138123,"max":0.6962823867797852,"dtype":"uint8"}},{"name":"batch_normalization_185/moving_mean:0","shape":[224],"dtype":"float32","quantization":{"min":-0.2963533103466034,"max":0.22961434721946716,"dtype":"uint8"}},{"name":"batch_normalization_185/moving_variance:0","shape":[224],"dtype":"float32","quantization":{"min":0.007783178705722094,"max":0.1441294401884079,"dtype":"uint8"}},{"name":"conv2d_183/kernel:0","shape":[1,1,2080,192],"dtype":"float32","quantization":{"min":-0.15800631046295166,"max":0.2137443721294403,"dtype":"uint8"}},{"name":"conv2d_186/kernel:0","shape":[3,1,224,256],"dtype":"float32","quantization":{"min":-0.1839861124753952,"max":0.3228522837162018,"dtype":"uint8"}},{"name":"batch_normalization_183/beta:0","shape":[192],"dtype":"float32","quantization":{"min":-1.1210602521896362,"max":-0.15376849472522736,"dtype":"uint8"}},{"name":"batch_normalization_183/moving_mean:0","shape":[192],"dtype":"float32","quantization":{"min":-0.23362037539482117,"max":0.56585693359375,"dtype":"uint8"}},{"name":"batch_normalization_183/moving_variance:0","shape":[192],"dtype":"float32","quantization":{"min":0.0030793058685958385,"max":0.042347364127635956,"dtype":"uint8"}},{"name":"batch_normalization_186/beta:0","shape":[256],"dtype":"float32","quantization":{"min":-1.0437099933624268,"max":-0.025570547208189964,"dtype":"uint8"}},{"name":"batch_normalization_186/moving_mean:0","shape":[256],"dtype":"float32","quantization":{"min":-0.7261978387832642,"max":0.8286115527153015,"dtype":"uint8"}},{"name":"batch_normalization_186/moving_variance:0","shape":[256],"dtype":"float32","quantization":{"min":0.038291942328214645,"max":0.7599045634269714,"dtype":"uint8"}},{"name":"block8_6_conv/kernel:0","shape":[1,1,448,2080],"dtype":"float32","quantization":{"min":-0.30755192041397095,"max":0.3899185359477997,"dtype":"uint8"}},{"name":"block8_6_conv/bias:0","shape":[2080],"dtype":"float32","quantization":{"min":-0.5279656648635864,"max":0.4904385507106781,"dtype":"uint8"}},{"name":"conv2d_188/kernel:0","shape":[1,1,2080,192],"dtype":"float32","quantization":{"min":-0.4491308927536011,"max":0.34900256991386414,"dtype":"uint8"}},{"name":"batch_normalization_188/beta:0","shape":[192],"dtype":"float32","quantization":{"min":-1.6324328184127808,"max":0.36019808053970337,"dtype":"uint8"}},{"name":"batch_normalization_188/moving_mean:0","shape":[192],"dtype":"float32","quantization":{"min":-0.37997063994407654,"max":0.36540424823760986,"dtype":"uint8"}},{"name":"batch_normalization_188/moving_variance:0","shape":[192],"dtype":"float32","quantization":{"min":0.008959736675024033,"max":0.08702979236841202,"dtype":"uint8"}},{"name":"conv2d_189/kernel:0","shape":[1,3,192,224],"dtype":"float32","quantization":{"min":-0.31480735540390015,"max":0.45919495820999146,"dtype":"uint8"}},{"name":"batch_normalization_189/beta:0","shape":[224],"dtype":"float32","quantization":{"min":-1.0169576406478882,"max":0.7973357439041138,"dtype":"uint8"}},{"name":"batch_normalization_189/moving_mean:0","shape":[224],"dtype":"float32","quantization":{"min":-0.26434436440467834,"max":0.35849130153656006,"dtype":"uint8"}},{"name":"batch_normalization_189/moving_variance:0","shape":[224],"dtype":"float32","quantization":{"min":0.006646974943578243,"max":0.20071329176425934,"dtype":"uint8"}},{"name":"conv2d_187/kernel:0","shape":[1,1,2080,192],"dtype":"float32","quantization":{"min":-0.1497991681098938,"max":0.23886656761169434,"dtype":"uint8"}},{"name":"conv2d_190/kernel:0","shape":[3,1,224,256],"dtype":"float32","quantization":{"min":-0.21495845913887024,"max":0.33139127492904663,"dtype":"uint8"}},{"name":"batch_normalization_187/beta:0","shape":[192],"dtype":"float32","quantization":{"min":-1.2061392068862915,"max":-0.29718413949012756,"dtype":"uint8"}},{"name":"batch_normalization_187/moving_mean:0","shape":[192],"dtype":"float32","quantization":{"min":-0.205899178981781,"max":0.11277258396148682,"dtype":"uint8"}},{"name":"batch_normalization_187/moving_variance:0","shape":[192],"dtype":"float32","quantization":{"min":0.0031659097876399755,"max":0.02136591076850891,"dtype":"uint8"}},{"name":"batch_normalization_190/beta:0","shape":[256],"dtype":"float32","quantization":{"min":-0.9393672347068787,"max":0.20359128713607788,"dtype":"uint8"}},{"name":"batch_normalization_190/moving_mean:0","shape":[256],"dtype":"float32","quantization":{"min":-0.8963473439216614,"max":1.674536943435669,"dtype":"uint8"}},{"name":"batch_normalization_190/moving_variance:0","shape":[256],"dtype":"float32","quantization":{"min":0.02858896180987358,"max":0.4364522397518158,"dtype":"uint8"}},{"name":"block8_7_conv/kernel:0","shape":[1,1,448,2080],"dtype":"float32","quantization":{"min":-0.243534654378891,"max":0.35116106271743774,"dtype":"uint8"}},{"name":"block8_7_conv/bias:0","shape":[2080],"dtype":"float32","quantization":{"min":-0.49547576904296875,"max":1.4452265501022339,"dtype":"uint8"}},{"name":"conv2d_192/kernel:0","shape":[1,1,2080,192],"dtype":"float32","quantization":{"min":-0.3085843324661255,"max":0.47419676184654236,"dtype":"uint8"}},{"name":"batch_normalization_192/beta:0","shape":[192],"dtype":"float32","quantization":{"min":-1.1226866245269775,"max":0.9040115475654602,"dtype":"uint8"}},{"name":"batch_normalization_192/moving_mean:0","shape":[192],"dtype":"float32","quantization":{"min":-0.7221696376800537,"max":0.43076202273368835,"dtype":"uint8"}},{"name":"batch_normalization_192/moving_variance:0","shape":[192],"dtype":"float32","quantization":{"min":0.006250008940696716,"max":0.14291545748710632,"dtype":"uint8"}},{"name":"conv2d_193/kernel:0","shape":[1,3,192,224],"dtype":"float32","quantization":{"min":-0.24970969557762146,"max":0.24626471102237701,"dtype":"uint8"}},{"name":"batch_normalization_193/beta:0","shape":[224],"dtype":"float32","quantization":{"min":-0.9198074340820312,"max":1.0705293416976929,"dtype":"uint8"}},{"name":"batch_normalization_193/moving_mean:0","shape":[224],"dtype":"float32","quantization":{"min":-0.4084767997264862,"max":0.4566298723220825,"dtype":"uint8"}},{"name":"batch_normalization_193/moving_variance:0","shape":[224],"dtype":"float32","quantization":{"min":0.013153579086065292,"max":0.27104005217552185,"dtype":"uint8"}},{"name":"conv2d_191/kernel:0","shape":[1,1,2080,192],"dtype":"float32","quantization":{"min":-0.13371257483959198,"max":0.19586582481861115,"dtype":"uint8"}},{"name":"conv2d_194/kernel:0","shape":[3,1,224,256],"dtype":"float32","quantization":{"min":-0.22195011377334595,"max":0.21838632225990295,"dtype":"uint8"}},{"name":"batch_normalization_191/beta:0","shape":[192],"dtype":"float32","quantization":{"min":-1.1359175443649292,"max":-0.02258778177201748,"dtype":"uint8"}},{"name":"batch_normalization_191/moving_mean:0","shape":[192],"dtype":"float32","quantization":{"min":-0.21249128878116608,"max":0.2442891001701355,"dtype":"uint8"}},{"name":"batch_normalization_191/moving_variance:0","shape":[192],"dtype":"float32","quantization":{"min":0.0035321838222444057,"max":0.03660698980093002,"dtype":"uint8"}},{"name":"batch_normalization_194/beta:0","shape":[256],"dtype":"float32","quantization":{"min":-0.9967246651649475,"max":0.20166155695915222,"dtype":"uint8"}},{"name":"batch_normalization_194/moving_mean:0","shape":[256],"dtype":"float32","quantization":{"min":-0.9088479280471802,"max":0.8962109088897705,"dtype":"uint8"}},{"name":"batch_normalization_194/moving_variance:0","shape":[256],"dtype":"float32","quantization":{"min":0.034752991050481796,"max":0.888731062412262,"dtype":"uint8"}},{"name":"block8_8_conv/kernel:0","shape":[1,1,448,2080],"dtype":"float32","quantization":{"min":-0.248292475938797,"max":0.35876280069351196,"dtype":"uint8"}},{"name":"block8_8_conv/bias:0","shape":[2080],"dtype":"float32","quantization":{"min":-0.48002246022224426,"max":0.7539912462234497,"dtype":"uint8"}},{"name":"conv2d_196/kernel:0","shape":[1,1,2080,192],"dtype":"float32","quantization":{"min":-0.3723334074020386,"max":0.36761295795440674,"dtype":"uint8"}},{"name":"batch_normalization_196/beta:0","shape":[192],"dtype":"float32","quantization":{"min":-1.5360032320022583,"max":1.0870453119277954,"dtype":"uint8"}},{"name":"batch_normalization_196/moving_mean:0","shape":[192],"dtype":"float32","quantization":{"min":-0.5902806520462036,"max":0.8413017988204956,"dtype":"uint8"}},{"name":"batch_normalization_196/moving_variance:0","shape":[192],"dtype":"float32","quantization":{"min":0.005630876868963242,"max":0.17929674685001373,"dtype":"uint8"}},{"name":"conv2d_197/kernel:0","shape":[1,3,192,224],"dtype":"float32","quantization":{"min":-0.2719666659832001,"max":0.4510771930217743,"dtype":"uint8"}},{"name":"batch_normalization_197/beta:0","shape":[224],"dtype":"float32","quantization":{"min":-1.05805504322052,"max":1.967955470085144,"dtype":"uint8"}},{"name":"batch_normalization_197/moving_mean:0","shape":[224],"dtype":"float32","quantization":{"min":-0.8416480422019958,"max":0.6713144183158875,"dtype":"uint8"}},{"name":"batch_normalization_197/moving_variance:0","shape":[224],"dtype":"float32","quantization":{"min":0.01894683949649334,"max":1.0868068933486938,"dtype":"uint8"}},{"name":"conv2d_195/kernel:0","shape":[1,1,2080,192],"dtype":"float32","quantization":{"min":-0.09872136265039444,"max":0.21133753657341003,"dtype":"uint8"}},{"name":"conv2d_198/kernel:0","shape":[3,1,224,256],"dtype":"float32","quantization":{"min":-0.2961796820163727,"max":0.2579265236854553,"dtype":"uint8"}},{"name":"batch_normalization_195/beta:0","shape":[192],"dtype":"float32","quantization":{"min":-1.1937930583953857,"max":0.23066183924674988,"dtype":"uint8"}},{"name":"batch_normalization_195/moving_mean:0","shape":[192],"dtype":"float32","quantization":{"min":-0.26208385825157166,"max":0.3009125590324402,"dtype":"uint8"}},{"name":"batch_normalization_195/moving_variance:0","shape":[192],"dtype":"float32","quantization":{"min":0.003684635041281581,"max":0.03490036353468895,"dtype":"uint8"}},{"name":"batch_normalization_198/beta:0","shape":[256],"dtype":"float32","quantization":{"min":-1.235389232635498,"max":0.7461257576942444,"dtype":"uint8"}},{"name":"batch_normalization_198/moving_mean:0","shape":[256],"dtype":"float32","quantization":{"min":-0.9650412201881409,"max":0.5900291204452515,"dtype":"uint8"}},{"name":"batch_normalization_198/moving_variance:0","shape":[256],"dtype":"float32","quantization":{"min":0.0397818461060524,"max":2.9934263229370117,"dtype":"uint8"}},{"name":"block8_9_conv/kernel:0","shape":[1,1,448,2080],"dtype":"float32","quantization":{"min":-0.3366548418998718,"max":0.47948014736175537,"dtype":"uint8"}},{"name":"block8_9_conv/bias:0","shape":[2080],"dtype":"float32","quantization":{"min":-3.3655543327331543,"max":1.2340190410614014,"dtype":"uint8"}},{"name":"conv2d_200/kernel:0","shape":[1,1,2080,192],"dtype":"float32","quantization":{"min":-0.34420451521873474,"max":0.30556920170783997,"dtype":"uint8"}},{"name":"batch_normalization_200/beta:0","shape":[192],"dtype":"float32","quantization":{"min":-1.9321401119232178,"max":0.8877780437469482,"dtype":"uint8"}},{"name":"batch_normalization_200/moving_mean:0","shape":[192],"dtype":"float32","quantization":{"min":-0.580655038356781,"max":0.17788973450660706,"dtype":"uint8"}},{"name":"batch_normalization_200/moving_variance:0","shape":[192],"dtype":"float32","quantization":{"min":0.0034836784470826387,"max":0.4831688106060028,"dtype":"uint8"}},{"name":"conv2d_201/kernel:0","shape":[1,3,192,224],"dtype":"float32","quantization":{"min":-0.21572290360927582,"max":0.33563312888145447,"dtype":"uint8"}},{"name":"batch_normalization_201/beta:0","shape":[224],"dtype":"float32","quantization":{"min":-1.6599372625350952,"max":0.975502610206604,"dtype":"uint8"}},{"name":"batch_normalization_201/moving_mean:0","shape":[224],"dtype":"float32","quantization":{"min":-0.3789016008377075,"max":0.3374340534210205,"dtype":"uint8"}},{"name":"batch_normalization_201/moving_variance:0","shape":[224],"dtype":"float32","quantization":{"min":0.008616932667791843,"max":0.4866058826446533,"dtype":"uint8"}},{"name":"conv2d_199/kernel:0","shape":[1,1,2080,192],"dtype":"float32","quantization":{"min":-0.3660550117492676,"max":0.21562066674232483,"dtype":"uint8"}},{"name":"conv2d_202/kernel:0","shape":[3,1,224,256],"dtype":"float32","quantization":{"min":-0.23032213747501373,"max":0.22103425860404968,"dtype":"uint8"}},{"name":"batch_normalization_199/beta:0","shape":[192],"dtype":"float32","quantization":{"min":-3.885143280029297,"max":-0.5630799531936646,"dtype":"uint8"}},{"name":"batch_normalization_199/moving_mean:0","shape":[192],"dtype":"float32","quantization":{"min":-0.3441053032875061,"max":0.033868733793497086,"dtype":"uint8"}},{"name":"batch_normalization_199/moving_variance:0","shape":[192],"dtype":"float32","quantization":{"min":0.002875287551432848,"max":0.1745782047510147,"dtype":"uint8"}},{"name":"batch_normalization_202/beta:0","shape":[256],"dtype":"float32","quantization":{"min":-2.0520431995391846,"max":-0.31360939145088196,"dtype":"uint8"}},{"name":"batch_normalization_202/moving_mean:0","shape":[256],"dtype":"float32","quantization":{"min":-1.549005150794983,"max":0.08491978794336319,"dtype":"uint8"}},{"name":"batch_normalization_202/moving_variance:0","shape":[256],"dtype":"float32","quantization":{"min":4.756920413129251e-10,"max":2.8949451446533203,"dtype":"uint8"}},{"name":"block8_10_conv/kernel:0","shape":[1,1,448,2080],"dtype":"float32","quantization":{"min":-0.33006495237350464,"max":0.26340118050575256,"dtype":"uint8"}},{"name":"block8_10_conv/bias:0","shape":[2080],"dtype":"float32","quantization":{"min":-0.0052964654751122,"max":0.004588834475725889,"dtype":"uint8"}},{"name":"conv_7b/kernel:0","shape":[1,1,2080,1536],"dtype":"float32","quantization":{"min":-0.10134311020374298,"max":0.48872774839401245,"dtype":"uint8"}},{"name":"conv_7b_bn/beta:0","shape":[1536],"dtype":"float32","quantization":{"min":-0.2083890736103058,"max":0.07121913880109787,"dtype":"uint8"}},{"name":"conv_7b_bn/moving_mean:0","shape":[1536],"dtype":"float32","quantization":{"min":-0.13293704390525818,"max":0.13611091673374176,"dtype":"uint8"}},{"name":"conv_7b_bn/moving_variance:0","shape":[1536],"dtype":"float32","quantization":{"min":0.0061814752407372,"max":0.21643368899822235,"dtype":"uint8"}},{"name":"batch_normalization_203/gamma:0","shape":[1536],"dtype":"float32","quantization":{"min":0.966528058052063,"max":1.0261006355285645,"dtype":"uint8"}},{"name":"batch_normalization_203/beta:0","shape":[1536],"dtype":"float32","quantization":{"min":-0.13761202991008759,"max":0.1264105886220932,"dtype":"uint8"}},{"name":"batch_normalization_203/moving_mean:0","shape":[1536],"dtype":"float32","quantization":{"min":0.4192446172237396,"max":3.359694719314575,"dtype":"uint8"}},{"name":"batch_normalization_203/moving_variance:0","shape":[1536],"dtype":"float32","quantization":{"min":0.11801855266094208,"max":5.640183925628662,"dtype":"uint8"}},{"name":"dense/kernel:0","shape":[1536,256],"dtype":"float32","quantization":{"min":-0.03301776200532913,"max":0.03440546616911888,"dtype":"uint8"}},{"name":"dense/bias:0","shape":[256],"dtype":"float32","quantization":{"min":-6.75302271702094e-06,"max":4.852598976867739e-06,"dtype":"uint8"}},{"name":"dense_1/kernel:0","shape":[256,4],"dtype":"float32","quantization":{"min":-0.2078597992658615,"max":0.2680078446865082,"dtype":"uint8"}},{"name":"dense_1/bias:0","shape":[4],"dtype":"float32","quantization":{"min":-0.01485269982367754,"max":0.010878009721636772,"dtype":"uint8"}}]}]}